checkpoints/checkpoint_epoch_10.pt (torch, 895184 bytes, 8 tensors)

layers.0.weight f4 [128, 4]
0.29416445 0.13413525 -0.05121454 0.07881128 0.15768501 0.0633941 0.14493924 -0.3343531
0.18242729 -0.38231862 0.33121067 -0.33470786 -0.44270113 -0.059413396 -0.17852227 -0.007284241
-0.44485804 -0.22975074 0.44284204 -0.10006416 0.3743421 -0.36989573 0.20879874 -0.08994599
-0.4387504 0.11279131 -0.23305893 0.14134401 0.3223123 -0.028804647 0.38444236 0.13850348
-0.04815874 -0.1726437 0.36354274 0.22299717 -0.46940267 -0.41625547 0.0024953173 0.27587312
-0.022818811 0.48847055 0.1302945 -0.18786243 -0.1476828 0.27053693 -0.3466918 -0.37463516
0.094916835 -0.20696831 0.23114373 0.17779505 -0.06799125 0.44320118 0.3812986 -0.3588598
0.4968983 0.0074148746 -0.45313057 0.16102526 0.30851933 0.32881764 -0.3914273 -0.48817348
-0.25231862 -0.037499852 -0.051912516 -0.080177374 -0.23433188 0.33477676 -0.4874375 -0.38856554
-0.3401285 0.40691498 -0.47485435 -0.41344014 0.1384021 0.014801959 0.4966599 -0.3527537
-0.43690115 -0.17557707 0.45711222 0.32099518 -0.36932167 0.3440259 -0.17298907 0.46985653
0.2625209 -0.039343916 0.4451231 -0.14974438 -0.4452143 -0.44495267 -0.06487919 -0.17070077
-0.096857056 -0.4171289 -0.32831702 -0.014508013 0.2024885 0.011194652 -0.35370827 0.17701024
0.22120957 -0.05069548 0.08701222 0.14602324 -0.26213846 0.1396941 -0.12855141 -0.2970553
0.3404357 -0.004184533 -0.43029913 0.38136244 0.05898881 0.33158332 0.113075666 -0.4618926
-0.21461214 -0.16354929 0.38137978 -0.14197509 -0.049389645 -0.35003266 -0.1457167 0.19040707
0.38100693 -0.32581872 -0.23699896 -0.2705615 -0.09046098 0.11416565 0.106541105 0.091298044
0.12374929 -0.26370296 -0.20922975 0.43017143 -0.37611243 -0.017842064 0.4385618 0.24240252
-0.3022662 0.3369168 0.05133537 0.25799578 0.17571096 -0.35266924 -0.32240623 -0.3194907
0.13143447 -0.103314325 0.080038324 0.46727848 -0.05127955 0.039899524 0.00047519285 0.3704947
-0.44882414 -0.033086214 -0.33412358 0.27972156 -0.14070092 0.18882404 -0.26179197 -0.20795749
-0.023896761 -0.406728 0.059032034 -0.07649378 0.48412964 -0.43697378 -0.30293342 -0.12199525
-0.16572341 0.14689453 0.30107832 -0.36478972 0.4761244 0.29097334 0.092917405 -0.078959756
0.37225378 0.18121713 0.4443628 -0.04113519 -0.11746353 0.49053156 -0.15833226 -0.19752398
-0.3562344 -0.35500845 -0.21121742 0.115913525 0.39815927 0.081829004 -0.28138706 -0.01499693
0.07723122 0.30154213 0.15398963 0.4016767 -0.26562995 -0.1451432 0.12794107 -0.17731607
-0.4370575 -0.099401675 0.5008456 -0.38906512 0.0348319 -0.43349332 0.45032823 -0.43067342
0.12423425 0.39269584 -0.059061944 0.34019035 0.07062147 -0.24586935 0.016710244 0.24486627
-0.4324411 -0.09404234 -0.4427622 0.32025918 0.074414484 -0.38692692 -0.43985236 -0.31527808
-0.48782587 0.2421131 -0.42728436 -0.48107544 -0.16268149 0.31154415 -0.027364932 0.30312046
0.19190788 0.4212477 -0.49008182 -0.01868845 0.32480672 0.48536757 0.09914172 0.03573314
0.33028734 0.07203573 -0.20524007 -0.12052531 -0.057045765 -0.015898379 0.330623 0.38671422
00000000: b99c 963e c05a 093e 56c6 51bd cf67 a13d
00000010: 2e78 213e c4d4 813d f46a 143e 5430 abbe
00000020: 38ce 3a3e 44bf c3be 7294 a93e d45e abbe
00000030: b9a9 e2be 765b 73bd 8bce 36be a4b0 eebb
00000040: 6fc4 e3be c743 6bbe 31bc e23e 70ee ccbd
00000050: c5a9 bf3e f962 bdbe 56cf 553e 9a35 b8bd
00000060: e4a3 e0be 21ff e63d 00a7 6ebe 7cbc 103e
00000070: 1e06 a53e b9f7 ebbc a1d5 c43e dbd3 0d3e
00000080: 1942 45bd 83c9 30be 4622 ba3e 5f59 643e
00000090: 8c55 f0be 701f d5be 7a88 233b 3e3f 8d3e
000000a0: 84ee babc d018 fa3e ec6b 053e 025f 40be
000000b0: 293a 17be d183 8a3e 9681 b1be 2ed0 bfbe
000000c0: c263 c23d 80ef 53be f1b0 6c3e e80f 363e
000000d0: ff3e 8bbd 44eb e23e 9239 c33e 79bc b7be
000000e0: 7469 fe3e 7af8 f23b bb00 e8be cee3 243e
000000f0: 3ff6 9d3e c95a a83e 2969 c8be e0f1 f9be
00000100: e82f 81be 7299 19bd 38a2 54bd 0934 a4bd
00000110: b2f4 6fbe dc67 ab3e 6891 f9be 10f2 c6be
00000120: 5325 aebe 2957 d03e 1c20 f3be 6dae d3be
00000130: 48b9 0d3e ea83 723c 354a fe3e 229c b4be
00000140: 82b1 dfbe 7aca 33be 9d0a ea3e 7b59 a43e
00000150: bb17 bdbe 2a24 b03e 0c24 31be 0991 f03e
00000160: 2469 863e 1627 21bd 2de7 e33e 9756 19be
00000170: 21f3 e3be d6d0 e3be 61df 84bd 2fcc 2ebe
00000180: fe5c c6bd eb91 d5be 2b19 a8be 04b3 6dbc
00000190: 2559 4f3e c669 373c 4019 b5be 2c42 353e
000001a0: c384 623e 10a6 4fbd 7633 b23d 1e87 153e
000001b0: 0337 86be f80b 0f3e fba2 03be a217 98be
000001c0: 974d ae3e 681e 89bb 2b50 dcbe f041 c33e
000001d0: 409e 713d 4ac5 a93e 3794 e73d 307d ecbe
000001e0: 49c3 5bbe 7779 27be 3644 c33e eb61 11be
000001f0: cc4c 4abd 7b37 b3be c236 15be 12fa 423e
00000200: 5713 c33e b6d1 a6be dbaf 72be 0987 8abe
00000210: 9b43 b9bd aecf e93d 3932 da3d 78fa ba3d
00000220: 4570 fd3d 1304 87be 5340 56be 6e3f dc3e
00000230: cf91 c0be 8529 92bc 2c8b e03e 5e38 783e
00000240: a3c2 9abe 5c80 ac3e 0945 523d 0618 843e
00000250: 93ed 333e 1091 b4be 6e12 a5be 4994 a3be
00000260: c296 063e 7696 d3bd 22eb a33d 203f ef3e
00000270: 810a 52bd af6d 233d 4e23 f939 7bb1 bd3e
00000280: 47cc e5be 6985 07bd 3f12 abbe aa37 8f3e
00000290: e713 10be 175b 413e 9909 86be cff2 54be
000002a0: 24c3 c3bc a73e d0be 93cb 713d c5a8 9cbd
000002b0: d7df f73e 07bb dfbe 171a 9bbe a5d8 f9bd
000002c0: 66b3 29be 856b 163e f026 9a3e b8c5 babe
000002d0: 94c6 f33e 75fa 943e 7b4b be3d a7b5 a1bd
000002e0: 0c98 be3e fc90 393e 8583 e33e 5f7d 28bd
000002f0: b890 f0bd f426 fb3e da21 22be ba43 4abe
00000300: 5b64 b6be abc3 b5be 6149 58be 1264 ed3d
00000310: 88db cb3e f795 a73d f711 90be afb5 75bc
00000320: 672b 9e3d bb63 9a3e 75af 1d3e 92a8 cd3e
00000330: a600 88be 6ba0 14be fc02 033e 5892 35be
00000340: 00c6 dfbe 1b93 cbbd 6b37 003f 8b33 c7be
00000350: e5ab 0e3d d6f2 ddbe 6c91 e63e 3a81 dcbe
00000360: 876e fe3d 6e0f c93e f0ea 71bd 6e2d ae3e
00000370: fda1 903d 2dc5 7bbe ece3 883c 39be 7a3e
00000380: eb68 ddbe 4599 c0bd bab1 e2be 03f9 a33e
00000390: 9f66 983d 491b c6be 5434 e1be 216c a1be
000003a0: 50c4 f9be 7fec 773e 04c5 dabe 854f f6be
000003b0: fa95 26be b782 9f3e 6c2c e0bc 9b32 9b3e
000003c0: 8083 443e c7ad d73e 01ec fabe 8518 99bc
000003d0: 114d a63e 1982 f83e d00a cb3d ea5c 123d
000003e0: 6c1b a93e 7887 933d 742a 52be f9d5 f6bd
000003f0: d2a8 69bd 513d 82bc 6b47 a93e 68ff c53e

layers.0.bias f4 [128]
-0.4758309 0.27064076 -0.037832893 0.119632594 -0.47137776 -0.048999973 0.03869632 -0.1001769
0.25047523 0.07299447 -0.1456051 -0.1897471 0.29210103 -0.31441665 -0.37221062 -0.40654066
-0.41002512 0.39920962 -0.25735888 0.112060554 -0.34649137 -0.011123737 -0.35800704 0.07892874
-0.44779882 -0.33168882 0.31043434 -0.057105552 0.24152564 0.25901082 0.2961804 -0.3981342
-0.08769805 0.31845888 -0.053217303 -0.28242835 0.33796656 -0.41564965 0.4230979 -0.37053916
0.42462283 0.08781588 0.49648073 -0.4590347 -0.49267843 -0.043949455 -0.47587094 -0.23216285
-0.026046656 0.48435244 0.18303245 0.46524012 0.18422587 -0.46088105 0.10008956 0.33709297
0.07973168 0.17110121 0.0054683224 0.4957512 -0.32732648 -0.15506448 0.2043568 0.3996848
0.22854814 0.45967156 0.4055277 0.48536918 -0.00064230175 0.19678836 0.5590266 0.07430756
-0.43102947 -0.17019327 -0.18143943 0.43294594 0.41361627 -0.3810641 0.36850733 0.43491337
0.5133981 0.123793535 0.23441385 -0.14566366 0.20234202 0.21941125 0.17570281 -0.3497958
0.14577252 -0.29192466 0.057704486 -0.39842644 0.3952544 0.064993896 0.372681 0.20171833
-0.012015919 0.54214406 0.05083883 -0.108939126 0.32472363 0.05379298 -0.4772501 -0.113471754
0.46107855 0.42349052 0.018655712 0.43770808 -0.25235757 0.35929814 0.22062016 -0.20031142
-0.034540452 0.06920562 -0.17022341 -0.16140617 -0.14366886 -0.33749816 0.24443868 0.0820638
0.06575463 0.40959737 -0.44635144 -0.12649027 -0.45524526 -0.46138248 -0.14837673 0.32191327
00000000: 1ca0 f3be 6d91 8a3e aaf6 1abd ef01 f53d
00000010: 6d58 f1be 32b4 48bd 0880 1e3d 8c29 cdbd
00000020: 4a3e 803e 207e 953d 8119 15be 104d 42be
00000030: 448e 953e 38fb a0be 6492 bebe 1926 d0be
00000040: d0ee d1be 3465 cc3e 8bc4 83be 0180 e53d
00000050: 5167 b1be 5640 36bc b34c b7be 64a5 a13d
00000060: e345 e5be 1ed3 a9be 40f1 9e3e 83e7 69bd
00000070: 7f52 773e 119d 843e f5a4 973e 3fd8 cbbe
00000080: 099b b3bd 0b0d a33e 63fa 59bd 739a 90be
00000090: f409 ad3e 08d0 d4be 4aa0 d83e 4fb7 bdbe
000000a0: 2a68 d93e d0d8 b33d b932 fe3e 9906 ebbe
000000b0: 5940 fcbe 5804 34bd 5ba5 f3be 19bc 6dbe
000000c0: cc5f d5bc 0bfd f73e dc6c 3b3e f433 ee3e
000000d0: b5a5 3c3e 9af8 ebbe c1fb cc3d 7397 ac3e
000000e0: 5d4a a33d 2835 2f3e 9d2f b33b 1ad3 fd3e
000000f0: 5697 a7be 39c9 1ebe e942 513e 7ca3 cc3e
00000100: 8608 6a3e 125a eb3e 54a1 cf3e 4f82 f83e
00000110: 2460 28ba e382 493e 5e1c 0f3f 902e 983d
00000120: e5af dcbe 2547 2ebe 42cb 39be 17ab dd3e
00000130: 83c5 d33e d51a c3be feac bc3e f7ac de3e
00000140: 0f6e 033f 7787 fd3d 2f0a 703e db28 15be
00000150: bf32 4f3e 58ad 603e 70eb 333e 6f18 b3be
00000160: 6445 153e 2677 95be 8a5b 6c3d 8dfe cbbe
00000170: c95e ca3e 851b 853d 0bd0 be3e 408f 4e3e
00000180: 6bde 44bc f4c9 0a3f 613c 503d 7a1b dfbd
00000190: 2d42 a63e 0756 5c3d 205a f4be e163 e8bd
000001a0: 7d12 ec3e c0d3 d83e ddd3 983c 461b e03e
000001b0: 0335 81be edf5 b73e 40ea 613e 701e 4dbe
000001c0: 4a7a 0dbd adbb 8d3d 0c4f 2ebe a947 25be
000001d0: ee1d 13be 8fcc acbe 224e 7a3e 1111 a83d
000001e0: 5daa 863d bfb6 d13e 2d88 e4be aa86 01be
000001f0: e815 e9be 533a ecbe 12f0 17be d1d1 a43e

layers.3.weight f4 [256, 128]
-0.046522576 0.0011139725 -0.08408914 -0.047229104 0.015841665 0.012029917 0.041959636 -0.077795915
0.09215705 -0.067770295 -0.06252402 -0.036938224 -0.026686074 -0.046412617 0.0834871 -0.024074296
0.011550595 0.067972906 0.00052276405 0.009547949 -0.051102065 -0.0036682806 0.029380532 -0.067327276
0.04786043 0.034129925 -0.0038177776 -0.04077029 -0.07147393 -0.074731655 0.05187282 0.0026222835
0.056607917 -0.06237883 -0.01911125 -0.07404176 -0.06024924 0.057446077 0.04887308 0.031328686
-0.053197246 -0.05805873 0.0146843735 0.07319913 0.06664195 -0.035266884 -0.028981008 -0.05543884
0.08314567 0.07354719 0.0057926183 0.05236404 -0.023082761 0.067826845 0.028516907 -0.018061318
-0.05089063 -0.044125225 -0.08396312 0.012623131 -0.016162751 -0.007689656 -0.05445296 0.040402785
-0.025616042 0.07382178 0.08970322 0.07232009 -0.0039592115 -0.070743084 -0.013236496 0.0052809143
0.035129894 -0.07446319 0.075909615 0.07151046 -0.005539615 -0.022296617 0.053260267 0.013904393
0.046329014 -0.028755795 -0.06433559 -0.074669845 -0.053169973 -0.06720177 0.014107051 0.079196155
0.062438022 -0.03847507 0.03602782 0.029361675 0.060607914 0.04067916 0.09296118 0.0712041
0.003628418 0.0031715939 0.008014898 -0.025028868 0.047544707 0.051611632 -0.07376206 -0.014858018
-0.018483391 -0.007844252 0.016869288 -0.0055674226 -0.020670973 -0.021449272 0.03613383 -0.033359025
-0.07189337 0.032911893 0.015013385 -0.066786125 0.019804697 -0.08574699 0.07721756 0.026548319
-0.0048367237 0.060920943 0.025228878 -0.060686458 -0.041055206 0.028054347 -0.02538053 0.026651572
0.060543355 0.036342315 -0.020549854 -0.016190808 -0.060596533 -0.04363018 -0.040562823 0.07229031
-0.038270883 -0.02855005 0.07106636 -0.06171086 0.06316064 0.015367159 -0.0022029 -0.061494257
-0.08538002 0.019796247 -0.08211051 0.09019344 -0.013759149 -0.06979182 -0.00072589674 0.024191584
-0.06749499 -0.073009916 -0.03553053 -0.03697464 0.087290086 0.033271175 -0.03999343 -0.086855635
-0.08560177 0.040924795 0.02590239 -0.06339809 0.008354431 -0.05027999 0.072389096 0.056740016
-0.07000615 -0.0002501551 0.060457945 -0.07121241 -0.04183738 -0.041105002 0.046928033 -0.06905597
-0.02390906 0.007281221 0.056414917 -0.012580086 -0.019813478 -0.0031975813 -0.08014702 -0.030408988
-0.053085946 0.076055855 0.01305141 0.09349424 -0.032579076 0.03462168 0.0040612654 -0.016090142
-0.018750103 -0.05989208 0.047638875 -0.012884903 -0.0842671 -0.06974645 0.0026136683 -0.026286623
-0.013052346 -0.00964202 -0.035016585 0.08279771 -0.048882153 -0.020394504 0.032991115 0.089422226
0.013497414 0.021284016 0.03165193 -0.08495739 0.071797684 -0.03680008 0.030535338 -0.034759138
0.015546011 -0.0561825 -0.07723346 0.0018759285 0.028687634 -0.015831113 -0.011296976 0.027009144
-0.04236493 -0.012578869 -0.011906172 0.06692592 0.09138011 -0.079575196 -0.02069892 0.055160493
-0.009794974 0.08147839 -0.026675774 0.038331285 -0.08451431 -0.04938464 0.013758246 -0.08035952
-0.07667236 -0.058739226 0.0048160288 0.04805525 -0.05559128 -0.07163577 -0.0055942466 0.03717233
0.041250676 -0.02626789 0.021947986 0.042180344 0.06805832 -0.052021563 0.03218383 -0.03189794
00000000: 758e 3ebd b702 923a ed36 acbd 4e73 41bd
00000010: 61c6 813c 2119 453c dedd 2b3d 7753 9fbd
00000020: d6bc bc3d 27cb 8abd 980c 80bd 894c 17bd
00000030: c19c dabc 281b 3ebd 49fb aa3d 7537 c5bc
00000040: b53e 3d3c 6135 8b3d 1a0a 093a 006f 1c3c
00000050: 6650 51bd 8967 70bb 71af f03c e2e2 89bd
00000060: 4c09 443d d2cb 0b3d ae33 7abb bffe 26bd
00000070: ec60 92bd e90c 99bd 9878 543d 9eda 2b3b
00000080: b4dd 673d f280 7fbd 328f 9cbc 35a3 97bd
00000090: e8c7 76bd 944c 6b3d 242f 483d 8252 003d
000000a0: 5be5 59bd fece 6dbd ba96 703c 6de9 953d
000000b0: 937b 883d 0274 10bd 9469 edbc d613 63bd
000000c0: 4748 aa3d e99f 963d 01d0 bd3b ad7b 563d
000000d0: 0f18 bdbc cde8 8a3d 4a9c e93c 54f5 93bc
000000e0: b172 50bd a7bc 34bd dbf4 abbd 40d1 4e3c
000000f0: bf67 84bc 83f9 fbbb 110a 5fbd 647d 253d
00000100: bcd8 d1bc e02f 973d 52b6 b73d 8e1c 943d
00000110: 46bc 81bb c0e1 90bd e3dd 58bc 850b ad3b
00000120: 5de4 0f3d 2880 98bd 8076 9b3d 1374 923d
00000130: a985 b5bb 65a7 b6bc 7027 5a3d 40cf 633c
00000140: 7ec3 3d3d 4691 ebbc 61c2 83bd 81ec 98bd
00000150: c2c8 59bd 15a1 89bd 4321 673c 9831 a23d
00000160: 03bf 7f3d 0998 1dbd e891 133d e587 f03c
00000170: 0140 783d 319f 263d 6e62 be3d 75d3 913d
00000180: c1ca 6d3b 84da 4f3b eb50 033c 5709 cdbc
00000190: 3dbe 423d b866 533d 9010 97bd 0b6f 73bc
000001a0: 7b6a 97bc 2d85 00bc 7631 8a3c ed6e b6bb
000001b0: 2c56 a9bc 62b6 afbc 1101 143d 79a3 08bd
000001c0: d53c 93bd 9fce 063d b3fa 753c 2ac7 88bd
000001d0: 763d a23c 1e9c afbd 3d24 9e3d dc7b d93c
000001e0: 617d 9ebb 3d88 793d cbac ce3c 5d92 78bd
000001f0: 8129 28bd 3bd2 e53c d4ea cfbc 6654 da3c
00000200: 4ffc 773d aedb 143d 2b58 a8bc 96a2 84bc
00000210: 1234 78bd 8fb5 32bd 3425 26bd f10c 943d
00000220: eec1 1cbd cbe1 e9bc 3d8b 913d 87c4 7cbd
00000230: 5e5a 813d 89c6 7b3c 875e 10bb 67e1 7bbd
00000240: b8db aebd bd2b a23c 8e29 a8bd 57b7 b83d
00000250: 0e6e 61bc 04ef 8ebd 1b4a 3eba 6e2d c63c
00000260: d03a 8abd 3986 95bd 7688 11bd b872 17bd
00000270: 25c5 b23d 5b47 083d 27d0 23bd 5ee1 b1bd
00000280: fb4f afbd c2a0 273d 4031 d43c dcd6 81bd
00000290: 06e1 083c 64f2 4dbd bc40 943d 3868 683d
000002a0: 625f 8fbd 4027 83b9 c0a2 773d d0d7 91bd
000002b0: ac5d 2bbd b85d 28bd 9c37 403d 376d 8dbd
000002c0: efdc c3bc 4f97 ee3b 5413 673d b41c 4ebc
000002d0: e04f a2bc 838e 51bb 1f24 a4bd 451c f9bc
000002e0: a670 59bd 2cc3 9b3d 95d5 553c e879 bf3d
000002f0: a371 05bd 76cf 0d3d 5d14 853b 79cf 83bc
00000300: d199 99bc 6651 75bd fb20 433d 331b 53bc
00000310: 3b94 acbd 3ad7 8ebd 144a 2b3b 0b57 d7bc
00000320: 82d9 55bc 90f9 1dbc 8d6d 0fbd d991 a93d
00000330: a738 48bd 6012 a7bc b121 073d 0023 b73d
00000340: 4224 5d3c d15b ae3c 74a5 013d 24fe adbd
00000350: aa0a 933d aebb 16bd 3f25 fa3c 995f 0ebd
00000360: b2b4 7e3c 9f1f 66bd 942c 9ebd b7e1 f53a
00000370: 5402 eb3c 40b0 81bc f416 39bc 4842 dd3c
00000380: d986 2dbd 9a17 4ebc 1b12 43bc 7510 893d
00000390: 7f25 bb3d 52f8 a2bd c890 a9bc f8ef 613d
000003a0: 197b 20bc 24de a63d 2787 dabc 4401 1d3d
000003b0: d715 adbd 8c47 4abd 446a 613c 8893 a4bd
000003c0: 6606 9dbd 8b98 70bd c7cf 9d3b 95d5 443d
000003d0: afb3 63bd c6b5 92bd f14f b7bb 0342 183d
000003e0: 78f6 283d c22f d7bc 43cc b33c 4cc5 2c3d
000003f0: 2962 8b3d 9014 55bd 31d3 033d 6aa7 02bd

layers.3.bias f4 [256]
0.006840384 -0.0579742 -0.021737328 -0.068501174 -0.021380194 0.10382214 0.1037597 0.043917388
0.002690798 -0.0678955 -0.077128835 0.0048295176 0.09159007 0.0621444 -0.08513033 0.06876478
-0.029362058 0.06093961 0.059039265 -0.04569347 -0.08785152 0.077292144 0.10139219 0.01747142
0.08030336 0.06494109 0.017252332 -0.0083016325 0.025645023 0.122725315 -0.07627333 0.083812796
0.13485315 -0.02001811 0.06363974 0.09042129 0.043576717 -0.0002672915 0.11358505 0.08918607
0.010911804 -0.002045302 0.007701081 -0.010142887 0.068066336 0.06513138 -0.05514099 0.06972951
0.06080065 -0.05816516 -0.024949344 -0.026509266 0.07931347 0.08819045 0.11348036 -0.08682081
-0.061245654 0.07788144 -0.05209653 -0.055308394 0.0062714415 -0.023829265 -0.07318896 0.009469572
0.07418186 -0.0001699578 -0.07757658 -0.0027914108 0.05198586 -0.016761787 0.07233647 0.10259179
-0.068456165 0.12713921 0.010020144 0.07973663 0.014135187 -0.0847177 0.055196982 0.011465372
-0.02416246 -0.004289023 0.084183596 -0.0015419662 -0.0751155 -0.054210097 -0.0049918615 0.106684625
0.056599453 0.02963667 -0.06089832 0.0062225135 -0.071922295 -0.018117903 0.044178274 0.034878775
0.06171573 0.08821931 -0.00571163 0.13482313 0.07367965 0.00545695 0.09241727 0.11229138
-0.03373622 0.048024867 -0.0015328395 0.07908836 0.078053944 0.038772706 -0.06537383 -0.06999152
0.029472703 0.0268311 -0.056341458 -0.02329399 -0.07253459 0.030996038 -0.08639982 -0.04214714
0.05797446 0.004935322 -0.019499533 0.040327556 0.040120803 -0.055928342 -0.026855193 0.015224712
0.020686693 -0.08655347 -0.0004587008 0.03400679 0.0044310684 -0.008158791 -0.00078619533 0.122238345
0.055426024 0.025240509 0.04367408 -0.0038628045 0.052911602 -0.007884421 -0.043040104 -0.03158058
0.053067375 0.0037914778 0.042852387 -0.05653499 -0.056096222 0.14448163 -0.032602116 -0.080004886
0.067374855 0.06926028 0.04372311 0.046276506 -0.06932168 0.07928004 -0.008434492 -0.014299668
0.10298557 -0.05987338 0.08964117 -0.03105124 -0.019346107 -0.074107446 0.027851732 0.08209991
0.013973139 0.022605084 -0.013990624 -0.04776329 0.033634014 0.038749874 0.06074018 -0.046800833
-0.035259217 0.028819393 0.05980386 -0.034117598 0.016601127 -0.0562308 0.066376634 0.01613668
-0.040996388 -0.044807278 -0.057765797 0.0088725025 -0.058241684 0.044744007 0.11632734 -0.0077676442
-0.06085371 0.022704773 -0.01568768 0.07749432 0.064212695 0.0032856828 -0.048068583 0.030576631
0.07614075 0.13884604 0.10502699 0.013923632 -0.072528206 -0.055110753 -0.059555557 -0.085419245
0.06008675 0.042580713 0.15396501 -0.0097476365 0.09340437 -0.012096858 0.10296881 -0.021637248
0.053984914 0.04484424 -0.013255525 0.0023226754 0.00061551057 0.03326921 -0.034734625 0.091818035
-0.044287305 0.068233415 0.06621865 -0.057930246 -0.042433474 0.023625368 0.0785192 0.0982545
-0.003976022 0.0277261 0.04192132 0.0758368 0.0354289 0.023819188 0.07682663 0.060218923
0.03454826 -0.048229337 0.027778087 0.07483649 -0.073525116 0.053775206 0.020401914 -0.08524219
-0.04907419 -0.060062546 0.13670406 0.03359251 0.061876975 -0.028753258 -0.073839046 0.06864729
00000000: 4d25 e03b 5b76 6dbd 7b12 b2bc 584a 8cbd
00000010: 8425 afbc b4a0 d43d f77f d43d b8e2 333d
00000020: 1958 303b cc0c 8bbd b9f5 9dbd ee40 9e3b
00000030: 9393 bb3d 208b 7e3d cf58 aebd 8dd4 8c3d
00000040: b388 f0bc d09b 793d 28d3 713d 1329 3bbd
00000050: 7feb b3bd 584b 9e3d b5a6 cf3d 3920 8f3c
00000060: 1776 a43d d6ff 843d c354 8d3c 9203 08bc
00000070: 8315 d23c 6957 fb3d 3135 9cbd 0ba6 ab3d
00000080: f216 0a3e 05fd a3bc 8d55 823d cc2e b93d
00000090: 807d 323d 4223 8cb9 479f e83d 30a7 b63d
000000a0: 6cc7 323c 790a 06bb 5a59 fc3b 5a2e 26bc
000000b0: 5d66 8b3d 9a63 853d 85db 61bd 58ce 8e3d
000000c0: 1a0a 793d 973e 6ebd 9162 ccbc f629 d9bc
000000d0: 1a6f a23d 329d b43d 6468 e83d 1ccf b1bd
000000e0: b9dc 7abd 4e80 9f3d 2c63 55bd 0e8b 62bd
000000f0: aa80 cd3b 9735 c3bc 18e4 95bd 4426 1b3c
00000100: a9ec 973d b336 32b9 78e0 9ebd 1af0 36bb
00000110: 20ef 543d 0450 89bc 2525 943d a51b d23d
00000120: bf32 8cbd c830 023e 882b 243c f54c a33d
00000130: 4597 673c 7980 adbd 3b16 623d 41d9 3b3c
00000140: 5af0 c5bc ef8a 8cbb 7368 ac3d cd1b caba
00000150: 28d6 99bd 680b 5ebd c592 a3bb 787d da3d
00000160: d4d4 673d 9ac8 f23c 8470 79bd 3ae6 cb3b
00000170: ff4b 93bd ff6b 94bc 47f4 343d 0cdd 0e3d
00000180: a2c9 7c3d 53ac b43d a028 bbbb 130f 0a3e
00000190: 5be5 963d 37d0 b23b 4445 bd3d 06f9 e53d
000001a0: fe2e 0abd b9b5 443d 8fe9 c8ba 14f9 a13d
000001b0: bfda 9f3d 21d0 1e3d b7e2 85bd b757 8fbd
000001c0: bd70 f13c e5cc db3c 4dc6 66bd 0ad3 bebc
000001d0: 048d 94bd 67eb fd3c 64f2 b0bd 7ba2 2cbd
000001e0: a176 6d3d 7bb8 a13b 7cbd 9fbc 822e 253d
000001f0: b655 243d 1e15 65bd 6cff dbbc 1271 793c
00000200: 2477 a93c f242 b1bd c77d f0b9 b44a 0b3d
00000210: 7f32 913b 73ac 05bc ad18 4eba 1958 fa3d
00000220: 6606 633d 2fc5 ce3c 98e3 323d 1b27 7dbb
00000230: d6b9 583d a92d 01bc d24a 30bd a35a 01bd
00000240: 2d5d 593d 717a 783b fc85 2f3d 3c91 67bd
00000250: 27c5 65bd fef2 133e cc89 05bd 9ad9 a3bd
00000260: d4fb 893d 55d8 8d3d 0117 333d 6f8c 3d3d
00000270: 86f8 8dbd 935d a23d d330 0abc 2849 6abc
00000280: 19ea d23d ca3d 75bd ca95 b73d 2c5f febc
00000290: ba7b 9ebc a5c5 97bd 5129 e43c ff23 a83d
000002a0: 98ef 643c 4c2e b93c ee38 65bc 71a3 43bd
000002b0: d2c3 093d 30b8 1e3d b2ca 783d 3bb2 3fbd
000002c0: f86b 10bd a616 ec3c e4f4 743d e5be 0bbd
000002d0: 16ff 873c 4452 66bd 79f0 873d 1231 843c
000002e0: d4eb 27bd d687 37bd d49b 6cbd f95d 113c
000002f0: d58e 6ebd 7e45 373d 073d ee3d b987 febb
00000300: bd41 79bd 5cff b93c 7383 80bc 58b5 9e3d
00000310: f281 833d 9c54 573b 90e3 44bd d87b fa3c
00000320: aeef 9b3d a82d 0e3e 6418 d73d f21f 643c
00000330: ab89 94bd d0bb 61bd 87f0 73bd 49f0 aebd
00000340: 861d 763d 1d69 2e3d 01a9 1d3e 8db4 1fbc
00000350: ca4a bf3d e631 46bc 50e1 d23d 9940 b1bc
00000360: 491f 5d3d 98ae 373d b42d 59bc 0738 183b
00000370: 375a 213a 4c45 083d e545 0ebd 180b bc3d
00000380: 9b66 35bd f6bd 8b3d a59d 873d 4448 6dbd
00000390: b9ce 2dbd fd89 c13c adce a03d a839 c93d
000003a0: 4a49 82bb d921 e33c b1b5 2b3d 5350 9b3d
000003b0: e51d 113d 7520 c33c 4857 9d3d 1ea8 763d
000003c0: 7a82 0d3d 208c 45bd df8e e33c e043 993d
000003d0: 5694 96bd 6443 5c3d ea21 a73c 7593 aebd
000003e0: 0502 49bd 2504 76bd 26fc 0b3e 4d98 093d
000003f0: b672 7d3d f48b ebbc ed38 97bd f396 8c3d

layers.6.weight f4 [256, 256]
-0.017741594 0.062442195 0.049833886 0.021683 -0.009210442 -0.056333814 0.029231016 0.047755517
-0.032345362 -0.045416757 0.0056379326 0.013147353 0.04178708 0.031889766 -0.025268296 -0.050805945
-0.011861836 0.036597684 -0.04030364 -0.0039920346 -0.046515822 -0.03911692 0.053301305 0.062007453
0.002666549 0.040152658 -0.012391571 0.05046631 -0.0445532 0.0029286481 0.047130734 -0.052527223
-0.016975384 0.042947214 0.013854347 -0.05872104 -0.0067000054 0.024861814 -0.02796123 -0.020710405
0.051761016 0.029651266 0.00978975 -0.0049028285 -0.04302955 0.010733567 -0.025906887 -0.031317312
-0.035746094 -0.024766995 -0.048514392 0.027348375 0.018645518 -0.028264359 -0.006946704 -0.006949065
0.04978389 0.0058266874 -0.061123334 -0.02995909 0.0273178 0.016714655 -0.028042912 0.061460204
-0.026955402 -0.014853849 0.0038847362 0.016295535 -0.025760796 0.009878497 -0.02108042 -0.012711916
-0.03441522 -0.047896378 -0.026862498 0.0499722 0.045201827 -0.020047154 0.06056594 -0.032090668
0.017383883 -0.04278908 0.03888292 0.046544693 0.021338867 0.043598235 0.027385876 -0.035150785
0.04202469 0.028333602 -0.019334221 0.008552339 0.011186344 0.027771775 -0.020102335 0.016744696
0.052951686 -0.043782096 0.055323888 -0.04856726 0.010627788 0.0478573 -0.00910372 0.05800506
-0.03773624 -0.045727707 -0.010264095 0.0039726864 -0.05278204 0.051607948 0.025744624 -0.057326872
-0.005445286 -0.036223598 -0.009177163 -0.05556945 -0.057706393 -0.03144563 0.03884851 -0.028833207
0.015386932 -0.039757546 -0.040494524 -0.041873727 -0.062271792 0.010616583 -0.03490368 -0.0012589839
-0.018115016 -0.050170228 0.023119507 0.04801745 0.02852715 -0.057965934 -0.010898613 -0.049116872
-0.026813667 0.048892338 -0.010959988 0.054968905 0.0286227 -0.0052356 0.051637236 -0.0029533538
-0.042190135 0.040350147 0.038001005 -0.01792567 0.013682257 0.05392322 0.035236914 0.009751486
-0.02294834 0.040612448 -0.028203266 -0.017895006 -0.00802158 -0.012900076 -0.01484019 -0.043201286
0.027172396 0.046183478 -0.041274056 -0.062342715 0.057880465 0.032489076 -0.011874219 -0.021972286
-0.0065203677 -0.047714114 0.02946427 -0.035995528 0.039487585 -0.055118434 0.0005334995 0.057655357
-0.046341162 -0.05599787 -0.033772886 0.00073700445 -0.0024627568 0.037578266 -0.0028024183 -0.00029864933
-0.016036943 -0.036424913 -0.013501296 -0.004325492 -0.0034929109 -0.019784568 0.011343885 -0.052215926
0.022489242 0.046299193 0.05308833 0.03904282 -0.05106692 0.057087515 -0.06128139 0.03223028
-0.020212468 -0.020584973 0.050643142 -0.05673708 0.032516506 -0.03443104 -0.04069641 0.020994164
-0.040268507 -0.041388217 0.05496712 -0.032044873 -0.05652276 0.022555515 0.03167235 0.019295653
0.023063816 -0.053454854 0.032363627 0.037934702 -0.059699446 0.011789353 0.04206566 -0.03975122
-0.048838038 0.009130898 -0.06185847 0.047804113 0.014294664 0.034963716 0.048653793 0.02548718
-0.04484851 -0.027056847 0.038136322 -0.013457349 0.04227155 -0.05287028 -0.044617448 -0.018505795
0.035472244 0.021626588 -0.022931376 -0.023507766 0.058561902 -0.02521862 0.0320867 -0.023892818
0.043950714 0.043414112 -0.04890448 -0.034571543 -0.007407076 0.017723456 -0.01963007 -0.016619459
00000000: d256 91bc 63c3 7f3d 9e1e 4c3d 8ca0 b13c
00000010: 65e7 16bc 49be 66bd e275 ef3c 4a9b 433d
00000020: 927c 04bd ec06 3abd 68be b83b ff67 573c
00000030: ee28 2b3d d89e 023d 75ff cebc e519 50bd
00000040: 2558 42bc 74e7 153d 6e15 25bd 9dcf 82bb
00000050: 6087 3ebd 1039 20bd 7852 5a3d 87fb 7d3d
00000060: 45c1 2e3b 1d77 243d 0406 4bbc c3b5 4e3d
00000070: 6b7d 36bd 90ee 3f3b 280c 413d c926 57bd
00000080: f60f 8bbc 6be9 2f3d 58fd 623c 7985 70bd
00000090: b88b dbbb 01ab cb3c f30e e5bc dea8 a9bc
000000a0: 5c03 543d 36e7 f23c 3065 203c e8a7 a0bb
000000b0: c13f 30bd d8db 2f3c ae3a d4bc 9546 00bd
000000c0: 7f6a 12bd 27e4 cabc 07b7 46bd b309 e03c
000000d0: 7cbe 983c a88a e7bc 2da1 e3bb fbb4 e3bb
000000e0: 31ea 4b3d cced be3b 765c 7abd c46c f5bc
000000f0: 94c9 df3c 2ced 883c 40ba e5bc b2bd 7b3d
00000100: 93d1 dcbc 8f5d 73bc 0f97 7e3b 377e 853c
00000110: 4e08 d3bc 6bd9 213c d8b0 acbc a445 50bc
00000120: f9f6 0cbd fe2e 44bd be0e dcbc a6af 4c3d
00000130: 8d25 393d ee39 a4bc fe13 783d 8171 03bd
00000140: a568 8e3c 9a43 2fbd b243 1f3d a6a5 3e3d
00000150: d9ce ae3c 1094 323d 5858 e03c 45fa 0fbd
00000160: 1522 2c3d df1b e83c cd62 9ebc 1c1f 0c3c
00000170: ed46 373c a281 e33c a7ad a4bc 2c2c 893c
00000180: dee3 583d db54 33bd 4d9b 623d 77ee 46bd
00000190: 2c20 2e3c 0406 443d c527 15bc b796 6d3d
000001a0: 5191 1abd fa4c 3bbd bc2a 28bc 4f2d 823b
000001b0: fb31 58bd db62 533d 64e6 d23c 95cf 6abd
000001c0: 5f6e b2bb 325f 14bd d05b 16bc cb9c 63bd
000001d0: 8a5d 6cbd 22cd 00bd 9d1f 1f3d 9e33 ecbc
000001e0: 7819 7c3c cfd8 22bd 96dd 25bd c983 2bbd
000001f0: b510 7fbd 2df1 2d3c 29f7 0ebd 7d04 a5ba
00000200: f165 94bc 4c7f 4dbd 1f65 bd3c f2ad 443d
00000210: c5b1 e93c b06d 6dbd 1990 32bc c62e 49bd
00000220: 56a8 dbbc 5543 483d 8691 33bc 1327 613d
00000230: 277a ea3c 658f abbb 9181 533d 0e8d 41bb
00000240: 90cf 2cbd 3246 253d f1a6 1b3d dbd8 92bc
00000250: 8c2b 603c 98de 5c3d 9554 103d b2c4 1f3c
00000260: 28fe bbbc 3d59 263d 890a e7bc 8c98 92bc
00000270: f26c 03bc d75a 53bc 4524 73bc d5f3 30bd
00000280: a598 de3c e32a 3d3d fc0e 29bd 135b 7fbd
00000290: 1114 6d3d 4413 053d 168c 42bc 39ff b3bc
000002a0: cfa8 d5bb e06f 43bd 0e5f f13c 0c70 13bd
000002b0: bcbd 213d dec3 61bd 8cda 0b3a 0628 6c3d
000002c0: 3bd0 3dbd 065e 65bd 7055 0abd 8833 413a
000002d0: 3466 21bb abeb 193d c7a8 37bb 0994 9cb9
000002e0: e85f 83bc 4a32 15bd 8a34 5dbc dbbc 8dbb
000002f0: 52e9 64bb 3f13 a2bc b4db 393c 5ee0 55bd
00000300: 5c3b b83c 39a4 3d3d 2673 593d 5deb 1f3d
00000310: 8c2b 51bd 99d4 693d 3202 7bbd e603 043d
00000320: 9e94 a5bc d1a1 a8bc 2f6f 4f3d 2465 68bd
00000330: 0730 053d 9007 0dbd 47b1 26bd f4fb ab3c
00000340: 97f0 24bd b186 29bd 3425 613d 7c41 03bd
00000350: 6984 67bd 58c6 b83c deba 013d eb11 9e3c
00000360: 54f0 bc3c 7af3 5abd b98f 043d 6b61 1b3d
00000370: 6887 74bd 2128 413c 0b4d 2c3d 2dd2 22bd
00000380: 650a 48bd c399 153c 4f5f 7dbd 3fce 433d
00000390: 2b34 6a3c 1d36 0f3d 3349 473d 7eca d03c
000003a0: 12b3 37bd 52a6 ddbc d534 1c3d 367c 5cbc
000003b0: ef24 2d3d 828e 58bd c9c0 36bd 7799 97bc
000003c0: 584b 113d 3e2a b13c 95da bbbc 5c93 c0bc
000003d0: 9bde 6f3d 4897 cebc 586d 033d dfba c3bc
000003e0: aa05 343d ffd2 313d 1050 48bd e49a 0dbd
000003f0: 0fb7 f2bb c830 913c 3ecf a0bc 8825 88bc

layers.6.bias f4 [256]
0.008274651 0.04767975 -0.014564572 0.047121406 0.024789618 -0.050726708 0.08264 0.06579337
0.029190827 -0.043113038 -0.04728504 -0.0067761624 0.07783839 0.07532278 -0.0013064602 0.0074207424
0.021825466 -0.007399911 -0.02658588 -0.04639976 0.035497 0.04150845 -0.0028736317 -0.017558064
0.11026126 -0.037036978 -0.022613522 0.010971756 0.07761222 -0.041073445 -0.016696135 -0.049628064
0.024769967 -0.013836441 -0.013785318 0.017738724 -0.059019506 -0.0077429796 -0.025033006 0.120507166
-0.05187427 0.007927852 -0.006330039 0.011867852 -0.021953138 -0.06848172 -0.053075586 0.08338041
0.10502807 0.059312917 0.038311865 -0.023313813 0.008414902 -0.03368467 -0.020674085 0.03220766
0.00287961 0.07149705 -0.004184252 -0.027569292 0.032176018 -0.037091296 -0.055638615 0.015405011
0.044039626 0.011657478 -0.034145623 0.011473219 -0.047939006 -0.023159754 0.11742095 -0.039679237
-0.043943238 -0.03265856 0.021169556 -0.019227445 -0.046388853 -0.0131137315 -0.03092356 0.029731972
0.027042698 -0.014375508 0.024292069 -0.037732825 -0.047318593 -0.041059148 0.025155298 0.016279308
0.0856876 0.0077595487 0.029572893 -0.04662269 -0.06082864 -0.025119854 0.0868733 0.09832508
-0.05314992 0.013307717 -0.016172893 -0.02542551 0.042000566 0.017300388 -0.04280962 0.0648675
-0.051712256 -0.049346007 0.041200984 -0.021989385 -0.040268034 -0.021513809 0.020206932 -0.030891696
0.06961407 0.026442835 0.116803356 0.026038025 0.07597651 -0.016581308 0.022781339 0.00536154
-0.0054785875 0.042457063 0.120855056 0.07968212 0.027148008 -0.04472276 0.023983004 -0.05934639
-0.003089756 -0.028844602 -0.059370708 -0.03367388 0.12706779 -0.008304515 0.02090339 -0.03959573
0.04502891 0.07831388 0.00017038488 -0.0033835357 0.042397432 -0.014254693 0.029363627 -0.0017284736
0.09678187 0.0052105333 0.010537085 0.027994102 0.004861033 0.05694257 0.046834346 -0.03965795
0.058646146 -0.054860014 0.07459963 -0.032317724 0.0009804163 0.037352335 -0.02658161 -0.060908668
0.04412081 -0.016753005 0.029997276 0.03119755 0.037293762 0.02178134 0.02459095 -0.036812145
0.05305801 0.012829281 0.00988047 0.087756336 -0.04211102 -0.0153778 0.06379741 0.0130548505
0.062405657 0.012310219 0.015379742 0.06800443 0.08144669 -0.0335679 -0.048203014 -0.022460287
0.07697459 0.03814739 0.04408119 0.042425193 0.03519586 -0.042517547 0.018938083 0.034471557
0.02147838 -0.027477965 -0.032415524 -0.058136012 -0.026320226 0.016320193 -0.030488787 -0.0131212985
-0.049871594 -0.01423526 0.11420621 0.03463205 0.039478675 0.024608707 -0.046716645 0.050110776
0.07127406 -0.027843367 -0.019425433 -0.0377585 -0.049537066 -0.04715492 0.014986011 0.0040434054
0.0311068 0.03697371 -0.052043363 0.06197914 -0.024156084 -0.0011798776 -0.013741575 -0.013173563
0.03131308 -0.006895108 0.047457308 -0.015278298 -0.025831135 -0.06066549 -0.006784264 -0.053189367
0.035096616 0.11350208 0.013606964 0.026575744 -0.013071051 0.016535534 0.013974009 0.008437213
-0.023746574 0.1176701 0.010436209 0.01876992 0.030313032 -0.05121927 0.03387374 -0.05693467
0.052814346 -0.04131318 0.03979039 0.086822785 -0.05756514 0.011592093 0.062773645 -0.01067387
00000000: 6792 073c d74b 433d 3ea0 6ebc 6002 413d
00000010: 9913 cb3c cfc6 4fbd 293f a93d adbe 863d
00000020: 9a21 ef3c 4c97 30bd f5ad 41bd 920a debb
00000030: bc69 9f3d d442 9a3d 883d abba b329 f33b
00000040: 52cb b23c f47a f2bb a2ca d9bc ad0d 3ebd
00000050: 4d65 113d c404 2a3d 8a53 3cbb eed5 8fbc
00000060: a8d0 e13d 16b4 17bd fe3f b9bc e1c2 333c
00000070: 28f3 9e3d a13c 28bd 55c6 88bc cc46 4bbd
00000080: 63ea ca3c 3db2 62bc d0db 61bc cd50 913c
00000090: 70be 71bd d2b8 fdbb 0512 cdbc 76cc f63d
000000a0: 1d7a 54bd d2e3 013c 376c cfbb 6171 423c
000000b0: 11d7 b3bc 2540 8cbd c965 59bd 59c3 aa3d
000000c0: f518 d73d 1af2 723d e7ec 1c3d 9cfc bebc
000000d0: a8de 093c f0f8 09bd b35c a9bc 2eec 033d
000000e0: d7b7 3c3b 0c6d 923d 0d1c 89bb ffd8 e1bc
000000f0: 00cb 033d 0bed 17bd 51e5 63bd 4d65 7c3c
00000100: e562 343d 02ff 3e3c 48dc 0bbd 2bfa 3b3c
00000110: b15b 44bd 86b9 bdbc 657a f03d b286 22bd
00000120: d3fd 33bd fbc4 05bd c76b ad3c e082 9dbc
00000130: 3d02 3ebd fada 56bc 6853 fdbc 7790 f33c
00000140: a688 dd3c 4087 6bbc 2900 c73c bc8d 1abd
00000150: 24d1 41bd a32d 28bd 7c12 ce3c 2f5c 853c
00000160: fb7c af3d d043 fe3b da42 f23c 6ff7 3ebd
00000170: 7427 79bd 27c8 cdbc a1ea b13d a95e c93d
00000180: bbb3 59bd 9c08 5a3c 047d 84bc 2949 d0bc
00000190: c908 2c3d 8bb9 8d3c 2459 2fbd 40d9 843d
000001a0: 3bd0 53bd 0a1f 4abd 5dc2 283d 1523 b4bc
000001b0: 18f0 24bd ba3d b0bc 0289 a53c 9510 fdbc
000001c0: d291 8e3d a59e d83c 9936 ef3d b24d d53c
000001d0: 9399 9b3d 86d5 87bc ee9f ba3c dbaf af3b
000001e0: b985 b3bb 75e7 2d3d db82 f73d 6130 a33d
000001f0: 8065 de3c 362f 37bd 0178 c43c 3315 73bd
00000200: 817d 4abb 844b ecbc b32e 73bd 9fed 09bd
00000210: 0f1e 023e a90f 08bc 963d ab3c 222f 22bd
00000220: 3c70 383d 0763 a03d 58a9 3239 4fbe 5dbb
00000230: eea8 2d3d 848c 69bc fd8b f03c f38d e2ba
00000240: 9335 c63d 1fbd aa3b bda3 2c3c e353 e53c
00000250: 4d49 9f3b 9d3c 693d 5fd5 3f3d 6070 22bd
00000260: f136 703d e5b4 60bd b1c7 983d 975f 04bd
00000270: 5081 803a c3fe 183d adc1 d9bc 5e7b 79bd
00000280: 06b8 343d 993d 89bc d9bc f53c 0192 ff3c
00000290: 58c1 183d c86e b23c f672 c93c 55c8 16bd
000002a0: 5b53 593d e831 523c b2e1 213c 98b9 b33d
000002b0: 9b7c 2cbd 2bf3 7bbc 37a8 823d 03e4 553c
000002c0: 139d 7f3d cdb0 493c 50fb 7b3c e845 8b3d
000002d0: 86cd a63d 7f7e 09bd 8670 45bd a3fe b7bc
000002e0: dba4 9d3d 7040 1c3d 7a8e 343d 0ac6 2d3d
000002f0: 8929 103d e126 2ebd 0a24 9b3c 0c32 0d3d
00000300: 6df3 af3c 7819 e1bc 24c6 04bd 0720 6ebd
00000310: 849d d7bc edb1 853c 9fc3 f9bc b7fa 56bc
00000320: 2846 4cbd 023b 69bc f2e4 e93d 56da 0d3d
00000330: 64b4 213d 3398 c93c f459 3fbd f540 4d3d
00000340: 22f8 913d c617 e4bc 1622 9fbc a8a8 1abd
00000350: 61e7 4abd 8425 41bd e387 753c 8b7e 843b
00000360: b0d3 fe3c bf71 173d 6c2b 55bd d7dd 7d3d
00000370: fbe2 c5bc 1fa6 9aba 5824 61bc eed5 57bc
00000380: 2542 003d 5cf0 e1bb 9862 423d d451 7abc
00000390: d19b d3bc 607c 78bd 884e debb 18dd 59bd
000003a0: 78c1 0f3d c773 e83d beef 5e3c 60b5 d93c
000003b0: f627 56bc 8775 873c 3ef3 643c 3c3c 0a3c
000003c0: 2d88 c2bc 05fd f03d a2fc 2a3c 60c3 993c
000003d0: 0953 f83c 4ccb 51bd 31bf 0a3d 5434 69bd
000003e0: db53 583d 0238 29bd 3ffb 223d 25d0 b13d
000003f0: 6dc9 6bbd c3ec 3d3c 788f 803d 75e1 2ebc

layers.9.weight f4 [480, 256]
-0.03230134 0.042994283 -0.02683233 -0.041614786 -0.04065446 -0.01741508 0.016723031 -0.076235905
0.04248353 -0.03622435 0.016229626 0.008737266 0.0072865826 -0.045241363 -0.0066578044 0.04328351
-0.05712511 -0.010316284 0.010022251 0.058404658 -0.017225195 0.012025268 0.027175331 0.039081104
-0.004220608 -0.053762708 0.015335086 -0.03786037 -0.047259822 -0.030119743 0.059974756 -0.008117502
-0.04004258 0.03337498 0.019174566 0.02799968 0.056101512 0.022175452 -0.0029502553 -0.017455872
0.051696483 -0.0390436 0.015136132 -0.062227737 0.0033617206 0.035580013 -0.055539932 -0.020264624
-0.058378316 0.043801613 0.038083956 0.03879006 -0.025861574 0.026438951 0.0124838 0.009170188
-0.029698458 -0.03982706 0.03582467 0.05966183 0.009138713 0.02455148 -0.044466544 -0.015618415
-0.05695077 0.0445763 0.027950618 0.030615835 0.06035335 -0.041852556 0.012873606 -0.038361758
0.044779453 0.04814177 -0.031698346 -0.06324203 -0.017769083 -0.052573234 -0.037591726 -0.023952497
0.028808309 0.04123437 0.05403783 0.054389425 -0.022431511 -0.00032324382 -0.04563416 -0.043142594
0.034830406 -0.056240182 0.012055976 -0.05992178 -0.044192985 0.059121598 0.019041035 0.027685042
0.039473854 0.03293309 0.061758503 0.046290584 -0.033672765 -0.038900454 -0.03415458 -0.01745566
0.03054762 -0.0117315445 0.023746666 0.03392545 0.022274464 -0.018099105 0.03166518 -0.05157698
0.033515763 -0.022252733 -0.0808984 -0.03560196 -0.024253964 -0.040838264 -0.03818234 -0.07012143
-0.030484946 0.0386741 -0.041248955 -0.046091963 0.048137028 -0.026366165 -0.04621231 0.016739674
-0.028922822 -0.029673643 0.016581634 0.060631588 -0.007376519 -0.03195837 -0.0042714896 0.009097646
0.024464084 -0.011875542 -0.03780399 0.036779366 -0.024490992 -0.06443962 0.01609293 0.03918147
0.0070153275 0.031297177 -0.04849491 -0.012110285 0.052443907 0.010574048 0.023914607 -0.009649702
-0.031605627 0.0030677835 -0.05783075 -0.054698095 -0.052204844 -0.0028254818 -0.0089182975 -0.011973218
0.04113554 -0.05100078 -0.04873699 0.036081944 -0.0594729 -0.02167612 -0.040283676 0.032680232
0.049319368 -0.0018432769 0.03280408 0.0107177505 -0.011886303 0.01590765 -0.041361544 0.0064011477
-0.07316948 -0.045439996 0.018836055 -0.054707397 -0.06731473 0.05742809 0.023122296 0.0020765644
-0.036080014 -0.042399894 -0.0077430587 -0.005807064 -0.059756227 0.0188605 0.023810646 0.004557877
0.041687753 -0.012716643 0.053263556 0.056314714 -0.0076481006 0.051119093 0.019087674 0.026976142
-0.0243867 0.020348735 -0.041818526 0.061941292 0.0197189 -0.0041128406 0.037980907 -0.056221936
-0.004256794 0.004148296 0.048207507 -0.022523183 0.02737155 0.0050091567 -0.004199006 0.015010162
7.813636e-05 0.037708 0.026427185 0.009290156 -0.018005516 -0.041859865 0.017175164 -0.05164703
-0.016359907 0.004606148 0.030083925 0.039093528 -0.010029715 0.05082154 -0.023958543 0.035431907
-0.027693128 0.0042333757 -0.026812838 0.020132259 -0.023695111 -0.009083044 0.03132125 -0.039568108
-0.0018163178 0.041876998 0.010887585 0.01863648 0.030147543 0.059677042 -0.010466971 -0.01836816
-0.0071059233 -0.006497183 0.022137912 -0.014819309 0.025562678 0.039658252 0.033393525 0.052142244
00000000: 694e 04bd c61a 303d 79cf dbbc 4474 2abd
00000010: 4b85 26bd 12aa 8ebc bdfe 883c 9221 9cbd
00000020: 3603 2e3d fc5f 14bd fef3 843c c026 0f3c
00000030: 49c4 ee3b 024f 39bd b629 dabb 0d4a 313d
00000040: 05fc 69bd a205 29bc 5e34 243c b939 6f3d
00000050: da1b 8dbc a105 453c cd9e de3c 8213 203d
00000060: 074d 8abb 4936 5cbd 0340 7b3c 7a13 1bbd
00000070: 8493 41bd aebd f6bc 17a8 753d 45ff 04bc
00000080: b003 24bd 34b4 083d fb13 9d3c 965f e53c
00000090: b3ca 653d 4ba9 b53c 1259 41bb 9eff 8ebc
000000a0: b1bf 533d 2fec 1fbd 8afd 773c 83e2 7ebd
000000b0: 5050 5c3b 59bc 113d d77d 63bd ff01 a6bc
000000c0: 1a1e 6fbd 5269 333d ecfd 1b3d 53e2 1e3d
000000d0: a7db d3bc 8096 d83c da88 4c3c 8e3e 163c
000000e0: 2e4a f3bc b321 23bd e4bc 123d f75f 743d
000000f0: 8aba 153c 2f20 c93c 8d22 36bd 61e4 7fbc
00000100: 3645 69bd a395 363d b2f8 e43c 0fce fa3c
00000110: 1335 773d 966d 2bbd d1eb 523c 3821 1dbd
00000120: a96a 373d 4e30 453d 20d6 01bd 0a85 81bd
00000130: 7890 91bc 0857 57bd c8f9 19bd 0738 c4bc
00000140: 67ff eb3c 5fe5 283d c656 5d3d 72c7 5e3d
00000150: 4ac2 b7bc 0d79 a9b9 e3ea 3abd 4ab6 30bd
00000160: 54aa 0e3d 1b5c 66bd 6e86 453c 8a70 75bd
00000170: b403 35bd 7d29 723d f2fb 9b3c becb e23c
00000180: 56af 213d d9e4 063d 7cf6 7c3d 329b 3d3d
00000190: 74ec 09bd 1556 1fbd ace5 0bbd 2cff 8ebc
000001a0: 013f fa3c aa35 40bc 5e88 c23c 6af5 0a3d
000001b0: f078 b63c 9344 94bc 59b3 013d 6242 53bd
000001c0: d347 093d 5d4b b6bc 0fae a5bd 5cd3 11bd
000001d0: 40b0 c6bc 0646 27bd 1665 1cbd d39b 8fbd
000001e0: 91bb f9bc bc68 1e3d aaf4 28bd edca 3cbd
000001f0: 552b 453d dbfd d7bc 1f49 3dbd a421 893c
00000200: 8eef ecbc 2416 f3bc 35d6 873c d458 783d
00000210: bab6 f1bb c8e6 02bd daf7 8bbb 4b0e 153c
00000220: e768 c83c a291 42bc 5bd8 1abd f6a5 163d
00000230: 55a1 c8bc ebf8 83bd 52d5 833c c07c 203d
00000240: d5e0 e53b 7831 003d 99a2 46bd 386a 46bc
00000250: 6ccf 563d c63e 2d3c 91e8 c33c c919 1ebc
00000260: e774 01bd de0c 493b f0df 6cbd 1c0b 60bd
00000270: bfd4 55bd b82b 39bb 0d1e 12bc 512b 44bc
00000280: bd7d 283d 32e6 50bd 70a0 47bd a9ca 133d
00000290: db99 73bd 1e92 b1bc 7f00 25bd b5db 053d
000002a0: 1b03 4a3d 1c9a f1ba 925d 063d 8199 2f3c
000002b0: c5be 42bc c350 823c b96a 29bd b8c0 d13b
000002c0: e1d9 95bd 4a1f 3abd 124e 9a3c dd14 60bd
000002d0: 4edc 89bd b839 6b3d f86a bd3c f816 083b
000002e0: a3c8 13bd 83ab 2dbd 7cb9 fdbb 2f49 bebb
000002f0: f2c2 74bd 5681 9a3c 8b0e c33c 3e5a 953b
00000300: c7c0 2a3d 7759 50bc e32a 5a3d 42aa 663d
00000310: eb9c fabb 4162 513d c15d 9c3c 12fd dc3c
00000320: 9ec6 c7bc 64b2 a63c e749 2bbd 27b6 7d3d
00000330: 8889 a13c 02c5 86bb de91 1b3d f948 66bd
00000340: 947c 8bbb 6eee 873b 3c75 453d 8a82 b8bc
00000350: 4d3a e03c da23 a43b d197 89bb 2fed 753c
00000360: 24dd a338 b473 1a3d d37d d83c bd35 183c
00000370: 4e80 93bc 4075 2bbd eeb2 8c3c d68b 53bd
00000380: 3605 86bc 2cef 963b 9072 f63c 8920 203d
00000390: ac53 24bc 3f2a 503d b544 c4bc 0c21 113d
000003a0: b3dc e2bc 21b8 8a3b 99a6 dbbc 68ec a43c
000003b0: 401c c2bc 0cd1 14bc b64a 003d 2b12 22bd
000003c0: 8311 eeba 3787 2b3d d761 323c 88ab 983c
000003d0: fbf7 f63c ea6f 743d a97d 2bbc d378 96bc
000003e0: ced8 e8bb 52e6 d4bb 915a b53c b0cc 72bc
000003f0: d268 d13c b170 223d a6c7 083d 1b93 553d

layers.9.bias f4 [480]
-0.052302223 -0.14805263 0.017463105 -0.06539389 -0.048920855 0.03564601 -0.015672043 -0.031786174
0.00033060304 -0.0121706035 -0.06179527 0.09518033 -0.10447703 -0.08358864 -0.04548133 0.042607546
0.021313025 0.07226967 -0.041497562 -0.13007507 -0.0123137 -0.00808813 -0.038972776 0.0666891
-0.06719635 -0.04393474 -0.06337423 -0.002515448 0.04594368 0.007254399 -0.060041767 -0.0646198
0.0046092775 -0.055257972 -0.029275667 0.0062099933 -0.044255987 -0.09590473 -0.04169088 0.04792452
-0.017315177 0.08163738 -0.04913748 -0.04734027 -0.06264697 0.0009361891 -0.001674225 0.047815915
-0.0116830785 -0.029714793 -0.062179964 0.050832245 -0.053155284 0.064955086 -0.055413783 -0.036115658
-0.01165673 0.03296392 -0.041942544 0.02860308 -0.0079856375 -0.11239235 -0.06065515 0.00962543
0.049235195 -0.0038098835 -0.040541586 -0.027903955 -0.011068996 -0.022315137 0.034126345 0.0068276217
-0.045307953 -0.12623493 -0.029348224 0.040592108 0.022661816 0.03392969 0.016911583 -0.05494999
0.026736867 -0.045499135 0.053764053 -0.009694326 0.022301009 -0.13955936 0.010420713 -0.021337043
0.03409954 0.03661812 -0.0017719106 -0.089581415 0.020084217 -0.003645627 -0.022439804 0.031484507
0.016188832 -0.11578138 0.009434724 -0.002267111 -0.002793646 0.069121934 0.021087129 -0.104976945
0.019293241 -0.019710945 0.009151695 0.066777654 -0.047166247 -0.106575206 0.023550361 0.04944558
0.02953228 0.036220264 0.04593996 -0.09891917 -0.052583642 -0.033205222 -0.03040071 -0.0041878573
0.00064741 -0.016795332 -0.027388483 0.066590965 0.03425963 0.014992262 -0.06048666 -0.081240796
-0.07020574 0.011896797 0.044231836 -0.013447848 -0.02663275 -0.07958735 0.010236235 -0.007781882
-0.009072802 0.0942795 0.03557258 -0.07043939 0.04927123 -0.01056696 -0.017467374 0.018407503
0.04537972 -0.1273279 0.036646478 -0.0034287453 0.0020500885 0.03721204 -0.015333444 -0.056337897
0.0059047015 0.04602128 -0.00032070116 -0.0050144526 -0.031496286 -0.097249486 -0.06411731 0.012599981
0.038842354 -0.01441577 -0.05702461 -0.021974448 0.034083217 0.017495306 0.049709957 0.07476781
-0.05959161 -0.12460545 -0.024739485 -0.007460272 0.0051894537 0.08163825 0.024053533 -0.08238607
-0.005323712 -0.004970359 -0.033225186 0.010026257 -0.017922787 -0.09535875 -0.059564173 0.023920454
-0.04379046 0.030510698 -0.047133934 -0.07753222 0.025567159 0.003908926 -0.040939335 0.104886346
0.04479128 -0.07017929 -0.025211822 -0.013280701 0.06339087 0.04036303 0.035212953 -0.11959304
0.0025077972 -0.0029022137 0.04441123 0.08233251 -0.0019972476 -0.036772322 0.036534477 -0.049949262
0.029386876 0.07994533 0.030549511 -0.06985703 -0.041711323 0.07893864 0.050616007 0.043196823
0.034125026 -0.11818247 -0.0556143 0.025677603 -0.036587738 -0.018907374 0.0118469065 -0.090030216
0.057542607 -0.04277853 -0.04431821 -0.014759901 0.029126003 -0.10240498 0.057169687 0.01699404
0.059230193 -0.00082027377 0.035187777 -0.047178704 0.06149874 0.075123794 0.03764666 0.0972264
-0.025501644 -0.08471374 0.05501824 -0.015076333 0.04300086 -0.018635921 -0.06523033 -0.067552894
-0.010409097 0.03923039 0.061431773 0.026948435 0.018395929 -0.09010584 0.015583396 -0.018901052
00000000: db3a 56bd 1c9b 17be c90e 8f3c 3bed 85bd
00000010: 3c61 48bd 8d01 123d a862 80bc 3832 02bd
00000020: ca54 ad39 3667 47bc 091d 7dbd e8ed c23d
00000030: 0ef8 d5bd 8530 abbd a24a 3abd 4085 2e3d
00000040: a798 ae3c 1f02 943d 59f9 29bd 6632 05be
00000050: 67bf 49bc 1384 04bc eba1 1fbd 4b94 883d
00000060: 3d9e 89bd eaf4 33bd 59ca 81bd 37da 24bb
00000070: 712f 3c3d 4fb6 ed3b 5bee 75bd 6357 84bd
00000080: 6c09 973b 2f56 62bd 86d3 efbc 337d cb3b
00000090: c445 35bd b369 c4bd 0ec4 2abd 804c 443d
000000a0: 8fd8 8dbc 8031 a73d 6244 49bd dfe7 41bd
000000b0: 0e4d 80bd 966a 753a ab71 dbba 9fda 433d
000000c0: 626a 3fbc 706c f3bc 6bb0 7ebd 7935 503d
000000d0: 5bb9 59bd 2c07 853d 90f9 62bd 03ee 13bd
000000e0: dffb 3ebc 2d05 073d f2cb 2bbd 0251 ea3c
000000f0: 31d6 02bc f62d e6bd 8971 78bd fbb3 1d3c
00000100: d8aa 493d 3daf 79bb ef0e 26bd d696 e4bc
00000110: bc5a 35bc 3cce b6bc 11c8 0b3d 3eba df3b
00000120: d594 39bd bb43 01be b06b f0bc e943 263d
00000130: 46a5 b93c dcf9 0a3d 298a 8a3c 3e13 61bd
00000140: 4607 db3c 4d5d 3abd b237 5c3d f3d4 1ebc
00000150: 9bb0 b63c a6e8 0ebe a3bb 2a3c 06cb aebc
00000160: f6ab 0b3d e2fc 153d 743f e8ba 7676 b7bd
00000170: a887 a43c 79eb 6ebb aed3 b7bc e6f5 003d
00000180: 719e 843c ca1e edbd 1a94 1a3c d093 14bb
00000190: 9a15 37bb cd8f 8d3d eabe ac3c 27fe d6bd
000001a0: dc0c 9e3c d978 a1bc fef0 153c b9c2 883d
000001b0: 6531 41bd 1a44 dabd b0ec c03c 7387 4a3d
000001c0: aeed f13c b35b 143d 8a2b 3c3d 2296 cabd
000001d0: f261 57bd 3302 08bd e90a f9bc 4b3a 89bb
000001e0: f3b6 293a 5d96 89bc d05d e0bc d860 883d
000001f0: d353 0c3d 1ba2 753c dcc0 77bd 9361 a6bd
00000200: 07c8 8fbd c9ea 423c 712c 353d 5d54 5cbc
00000210: ed2c dabc b1fe a2bd e2b5 273c 28ff febb
00000220: 17a6 14bc 9c15 c13d 8eb4 113d 8742 90bd
00000230: a1d0 493d 0b21 2dbc bd17 8fbc 55cb 963c
00000240: 16e0 393d 3f62 02be 9e1a 163d cdb4 60bb
00000250: c75a 063b a76b 183d 2039 7bbc 91c2 66bd
00000260: 3a7c c13b cf80 3c3d c823 a8b9 4750 a4bb
00000270: 4002 01bd bd2a c7bd f04f 83bd 2770 4e3c
00000280: 2919 1f3d 1f30 6cbc a392 69bd c203 b4bc
00000290: d89a 0b3d 5152 8f3c ab9c 4b3d de1f 993d
000002a0: 5516 74bd 2431 ffbd 76aa cabc 4c75 f4bb
000002b0: 4b0c aa3b f431 a73d ea0b c53c 07ba a8bd
000002c0: 8872 aebb 65de a2bb 2217 08bd 2b45 243c
000002d0: cfd2 92bc 734b c3bd 90f9 73bd d4f4 c33c
000002e0: a05d 33bd 92f1 f93c 830f 41bd 36c9 9ebd
000002f0: 3872 d13c 7316 803b 01b0 27bd a7ce d63d
00000300: 1077 373d 29ba 8fbd 0689 cebc 4c97 59bc
00000310: 13d3 813d b453 253d 753b 103d 32ed f4bd
00000320: db59 243b 1133 3ebb 8de8 353d f29d a83d
00000330: 41e4 02bb 939e 16bd 2da5 153d 9997 4cbd
00000340: bfbc f03c 61ba a33d f842 fa3c 3411 8fbd
00000350: 7ed9 2abd 95aa a13d bb52 4f3d 27ef 303d
00000360: afc6 0b3d a709 f2bd d2cb 63bd d659 d23c
00000370: 06dd 15bd a3e3 9abc 8719 423c c361 b8bd
00000380: ccb1 6b3d 8a38 2fbd 0387 35bd 83d3 71bc
00000390: a899 ee3c b4b9 d1bd c32a 6a3d 1637 8b3c
000003a0: 5c9b 723d a407 57ba 0f21 103d 753e 41bd
000003b0: 1ae6 7b3d 81da 993d 6233 1a3d a31e c73d
000003c0: d3e8 d0bc 667e adbd ce5a 613d b902 77bc
000003d0: ab21 303d 5caa 98bc 7b97 85bd 2c59 8abd
000003e0: eb8a 2abc 0cb0 203d e29f 7b3d f7c2 dc3c
000003f0: 0fb3 963c 6989 b8bd 8051 7f3c 61d6 9abc
