checkpoints/checkpoint_epoch_90.pt (torch, 895184 bytes, 8 tensors)

layers.0.weight f4 [128, 4]
0	0x3e989f35	0.29808965
1	0x3e0ce0f4	0.13757688
2	0xbd5b4414	-0.05353172
3	0x3da94e88	0.08266932
4	0x3e0e2d9d	0.13884588
5	0x3d4b142e	0.04957979
6	0x3df81b5b	0.12114593
7	0xbe9ee920	-0.31037235
8	0x3e334ba5	0.17509325
9	0xbec6d099	-0.38831022
10	0x3ea7e553	0.32792148
11	0xbeaa3ab2	-0.33247906
12	0xbf1140ba	-0.5673939
13	0xbd81f72b	-0.06345972
14	0xbde98628	-0.114025414
15	0xbc959717	-0.018260522
16	0xbee7a98f	-0.4524655
17	0xbe774887	-0.2414876
18	0x3ee2e04a	0.44311744
19	0xbde2ac15	-0.11067978
20	0x3ec361d3	0.3816057
21	0xbebbdf97	-0.36694023
22	0x3e589567	0.21150742
23	0xbdca92d9	-0.0989129
24	0xbf179dea	-0.5922533
25	0x3de2df61	0.110777624
26	0xbe106fcb	-0.14105146
27	0x3d761046	0.060074113
28	0x3ea3194d	0.3185524
29	0xbcf67cda	-0.03008883
30	0x3ec74ffb	0.38928208
31	0x3e141fe8	0.14465296
32	0xbcd7f840	-0.026363492
33	0xbe44da6f	-0.19223951
34	0x3eb5184a	0.35370094
35	0x3e55b71a	0.20870629
36	0xbf1b0dd6	-0.60567987
37	0xbec1a9f1	-0.37824968
38	0x3ad0a97b	0.001591965
39	0x3e3afc7d	0.18260379
40	0xbce0dff3	-0.027450537
41	0x3efbaa4f	0.49153373
42	0x3e05cfbf	0.1306753
43	0xbe3398e8	-0.17538798
44	0xbe291cea	-0.16514936
45	0x3e895cbd	0.26828566
46	0xbeb02b15	-0.3440787
47	0xbebd3f58	-0.3696239
48	0x3dc2b035	0.09506265
49	0xbe5ce910	-0.21573281
50	0x3e65dc6a	0.22447363
51	0x3e2849e6	0.1643444
52	0xbd8a15c4	-0.06742433
53	0x3ee4827d	0.44630805
54	0x3ec51181	0.38489917
55	0xbeb246bb	-0.34819588
56	0x3f03cbb2	0.5148269
57	0x3ca4a098	0.020096108
58	0xbeec4f38	-0.4615419
59	0x3e27d168	0.16388476
60	0x3e96f85e	0.29486364
61	0x3ea3c4a3	0.3198596
62	0xbecb8793	-0.39751872
63	0xbef9f16d	-0.48817006
64	0xbe8135ba	-0.25236303
65	0xbd19c806	-0.037544273
66	0xbd54cce6	-0.05195322
67	0xbda44b51	-0.08022178
68	0xbe834a0b	-0.25642428
69	0x3ebd8f5a	0.3702343
70	0xbeed316c	-0.46326768
71	0xbeafa1c4	-0.34303105
72	0xbeb8fd05	-0.3613054
73	0x3ed3eba0	0.41390705
74	0xbeed99eb	-0.46406493
75	0xbecf64a6	-0.40506476
76	0x3e1725e2	0.14760545
77	0x3ba7b264	0.0051177014
78	0x3efabf40	0.48974037
79	0xbeac3501	-0.3363419
80	0xbee3a787	-0.4446375
81	0xbe335fb7	-0.17516981
82	0x3ee6263c	0.44951046
83	0x3ea70559	0.32621267
84	0xbecd88bf	-0.4014339
85	0x3eb87a82	0.36030966
86	0xbe30b666	-0.1725708
87	0x3ee3045d	0.44339266
88	0x3e84e5b2	0.25956494
89	0xbd1c3b52	-0.03814251
90	0x3ee59dab	0.44846854
91	0xbe1c6b75	-0.15275367
92	0xbf0c84e8	-0.548903
93	0xbed56562	-0.4167891
94	0xbd94572e	-0.07243191
95	0xbe1d0a91	-0.15336062
96	0xbdc568e9	-0.09639151
97	0xbed55dcb	-0.4167312
98	0xbea7df53	-0.3278757
99	0xbc7f69c4	-0.015589181
100	0x3e5af776	0.21383461
101	0x3c958eab	0.018256506
102	0xbebc6f2f	-0.36803576
103	0x3e427017	0.18988071
104	0x3e80e3e4	0.25173867
105	0xbda15674	-0.07877818
106	0x3d817339	0.06320805
107	0x3dde9d06	0.108697936
108	0xbe92d9fb	-0.2868193
109	0x3e2e6ada	0.17032948
110	0xbe0159a4	-0.12631851
111	0xbe8c8b26	-0.27449912
112	0x3ecad3a8	0.39614606
113	0x3c360544	0.011109654
114	0xbee12060	-0.43970013
115	0x3e9c1286	0.30482882
116	0x3d0bd2a8	0.034136444
117	0x3eb67f2c	0.356439
118	0x3de33e1e	0.11095832
119	0xbed5e0eb	-0.4177316
120	0xbe52ef20	-0.20599031
121	0xbe2afcfd	-0.1669807
122	0x3ebc2ffa	0.36755353
123	0xbe03044a	-0.12794605
124	0xbd312e3d	-0.043256987
125	0xbeaffa8f	-0.3437085
126	0xbe12f206	-0.14350137
127	0x3e3d6a60	0.1849761
128	0x3ecca3c0	0.3996868
129	0xbea198b9	-0.3156183
130	0xbe6adef5	-0.22936614
131	0xbe8644a5	-0.26224247
132	0xbd7f3c07	-0.062313106
133	0x3e080f6d	0.13287134
134	0x3df4f2d7	0.119603805
135	0x3d9b0d14	0.07570854
136	0x3df490a2	0.11941649
137	0xbe8af5ef	-0.27140757
138	0xbe548d45	-0.20757015
139	0x3ed5052a	0.41605502
140	0xbeca1db1	-0.39475778
141	0xbb80cc84	-0.00393063
142	0x3ee324c2	0.4436398
143	0x3e752bd7	0.23942505
144	0xbebf1b5f	-0.3732557
145	0x3ea5196d	0.3224596
146	0x3d5759e4	0.05257596
147	0x3e59f60b	0.21285264
148	0x3e339e76	0.17540917
149	0xbeb4aca3	-0.3528796
150	0xbea28442	-0.3174153
151	0xbea0c3e7	-0.31399462
152	0x3e189a3d	0.14902587
153	0xbe0f219f	-0.13977669
154	0x3d72a36e	0.05923789
155	0x3edcb40e	0.4310612
156	0xbd3a64eb	-0.0455064
157	0x3d1ff14a	0.03904847
158	0xba377fa9	-0.0006999919
159	0x3ebd7405	0.37002578
160	0xbf04a9ca	-0.5182158
161	0xbd4c7204	-0.04991342
162	0xbe9edd67	-0.31028292
163	0x3e762d59	0.24040736
164	0xbe2d9a42	-0.16953376
165	0x3e492493	0.19642858
166	0xbe7de98a	-0.2479612
167	0xbe439a9d	-0.19101949
168	0xbc9e876b	-0.019351682
169	0xbee503f4	-0.44729578
170	0x3d2f7adc	0.042841777
171	0xbd8431a9	-0.064547844
172	0x3ef7e3d7	0.48416016
173	0xbedfc09f	-0.43701646
174	0xbe9b41dc	-0.30323684
175	0xbdfa7000	-0.122283936
176	0xbe37ac0c	-0.17936724
177	0x3e1b76e1	0.15182067
178	0x3e991c5c	0.2990445
179	0xbebfc882	-0.37457663
180	0x3f0a2142	0.53957
181	0x3e8bc18b	0.272961
182	0x3d72aa5d	0.059244502
183	0xbd994a9d	-0.074849345
184	0x3ebb9f68	0.36645055
185	0x3e334571	0.17506959
186	0x3ee1ae4b	0.44078287
187	0xbd1bf4b4	-0.038075164
188	0xbe365b34	-0.17808229
189	0x3efe6e92	0.49693733
190	0xbe1a51e0	-0.15070295
191	0xbe3916d3	-0.18075113
192	0xbedfef04	-0.43737042
193	0xbead1ad4	-0.3380953
194	0xbe530e8c	-0.20611018
195	0x3dcddd0b	0.10051926
196	0x3f14d3e0	0.58135796
197	0x3d0be222	0.034151204
198	0xbe98fac9	-0.29878834
199	0xbc2bd045	-0.010486667
200	0x3ddb78c8	0.107163966
201	0x3e9dab13	0.30794582
202	0x3e17ade8	0.14812434
203	0x3ebdb28f	0.37050292
204	0xbe965f1e	-0.29369444
205	0xbe11b56d	-0.14229365
206	0x3de1c487	0.11023813
207	0xbe20e104	-0.15710837
208	0xbefcdfda	-0.49389535
209	0xbdaf465d	-0.085583426
210	0x3ef09ea9	0.46996048
211	0xbeba8df0	-0.36436415
212	0x3d1caccc	0.03825073
213	0xbedd4220	-0.43214512
214	0x3ee42822	0.4456187
215	0xbedbdf46	-0.42943782
216	0x3dbf71a0	0.09347844
217	0x3ece48aa	0.40289813
218	0xbd5d138b	-0.053973716
219	0x3e9bdad7	0.304404
220	0x3db36e0a	0.08761223
221	0xbe8c5a6d	-0.2741274
222	0x3c5cf575	0.013486256
223	0x3e5650ef	0.20929311
224	0xbf04201c	-0.51611495
225	0xbdf2e955	-0.11860911
226	0xbed7e8f4	-0.42169917
227	0x3e8578eb	0.26068816
228	0x3d9e07d8	0.0771634
229	0xbece8f86	-0.40343875
230	0xbede8517	-0.43460914
231	0xbe969887	-0.29413244
232	0xbf2647ce	-0.64953315
233	0x3e570843	0.20999245
234	0xbecc11ef	-0.39857432
235	0xbec5fab9	-0.3866785
236	0xbe3abe0a	-0.18236557
237	0x3ea33876	0.31879014
238	0xbcf36a3f	-0.029713748
239	0x3e8304a8	0.2558949
240	0x3e501833	0.20321731
241	0x3ed5b6af	0.4174094
242	0xbf01ac08	-0.50653124
243	0xbcce5fc1	-0.025192143
244	0x3ea6abd1	0.3255296
245	0x3ef57e93	0.4794813
246	0x3db29bec	0.08721146
247	0x3cca33f4	0.024682976
248	0x3eb32bf0	0.3499446
249	0x3d9f0c54	0.07766023
250	0xbe565a85	-0.20932968
251	0xbdb79c52	-0.089653626
252	0xbd54b67d	-0.051931847
253	0xbc022ba7	-0.007944978
254	0x3ea48973	0.32136115
255	0x3eb69a6f	0.35664698

layers.0.bias f4 [128]
0	0xbef17e4d	-0.47166672
1	0x3e9896fe	0.29802698
2	0xbd1f648d	-0.038914252
3	0x3d2f63de	0.04281985
4	0xbeeacd09	-0.45859554
5	0xbce133f6	-0.027490597
6	0xbd3e6637	-0.0464842
7	0xbdb5c164	-0.08874777
8	0x3e8235e2	0.25431734
9	0x3dce413e	0.10071038
10	0xbe11e5d0	-0.14247823
11	0xbe3fb5ea	-0.18721738
12	0x3e9da3f6	0.30789155
13	0xbea1e0cf	-0.31616828
14	0xbeb2fd2b	-0.34958777
15	0xbecf024f	-0.4043145
16	0xbed1e8fe	-0.4099807
17	0x3ec191ab	0.37806448
18	0xbe85c5d0	-0.2612748
19	0x3de30192	0.11084284
20	0xbeac691e	-0.33673948
21	0xbcce5066	-0.025184821
22	0xbeb5b587	-0.35490057
23	0x3dcca0c0	0.09991598
24	0xbee56db3	-0.44810256
25	0xbe9ee6b6	-0.31035393
26	0x3eb661c9	0.3562148
27	0xbd3d853a	-0.046269633
28	0x3e8a0d14	0.26963103
29	0x3e8f4cf1	0.2798839
30	0x3e9fd02b	0.31213507
31	0xbecf9c15	-0.4054877
32	0xbdbf2b1f	-0.093343966
33	0x3ea3b1b3	0.3197151
34	0xbd643b7e	-0.0557208
35	0xbe8ad03d	-0.27111998
36	0x3e990bab	0.29891714
37	0xbed7c4e7	-0.42142412
38	0x3ee35e9b	0.44408116
39	0xbebdf4c5	-0.37100807
40	0x3ebf572d	0.37371197
41	0x3dcd5de1	0.100276716
42	0x3ef92e40	0.48668098
43	0xbeeadc69	-0.45871285
44	0xbef74337	-0.48293468
45	0xbd1562a7	-0.036471035
46	0xbef7a499	-0.48367766
47	0xbe6cf978	-0.2314204
48	0xbd165e1d	-0.036710847
49	0x3eccf6c4	0.40032017
50	0x3e4e58f4	0.2015112
51	0x3ee47132	0.4461761
52	0x3e433a4d	0.19065209
53	0xbeedb16f	-0.46424434
54	0x3e04a1c6	0.12952337
55	0x3eb7676d	0.35821095
56	0x3d1fe825	0.03903975
57	0x3e38ee99	0.18059768
58	0xbd3970eb	-0.045273703
59	0x3edb8809	0.42877224
60	0xbe9c1815	-0.30487123
61	0xbe0a1c59	-0.13487376
62	0x3e6b3573	0.22969608
63	0x3ecf7e18	0.4052589
64	0x3e641ff9	0.22277822
65	0x3ee4ead6	0.44710416
66	0x3ee5ad0b	0.44858584
67	0x3efdd3fb	0.4957579
68	0x3ccf5c03	0.02531243
69	0x3e4ef9e6	0.20212516
70	0x3f01287f	0.5045242
71	0x3dd09205	0.10184101
72	0xbed789d7	-0.4209735
73	0xbe2f5b24	-0.17124611
74	0xbe279327	-0.16364728
75	0x3ef785ed	0.48344365
76	0x3ec2b81f	0.38031098
77	0xbec32192	-0.3811155
78	0x3ec1b6d4	0.378348
79	0x3edc26ee	0.4299845
80	0x3f0d2636	0.5513643
81	0x3e0e3b43	0.13889794
82	0x3e81f5b9	0.25382784
83	0xbdd7ce7d	-0.105374314
84	0x3e5ee8e7	0.21768533
85	0x3e16aba3	0.14713912
86	0x3e5c3799	0.21505584
87	0xbeb1b070	-0.34704924
88	0x3e1bd64b	0.15218465
89	0xbe8f7048	-0.2801535
90	0x3daf304d	0.085541345
91	0xbecc661c	-0.39921653
92	0x3ee66844	0.45001423
93	0x3dcf3b2f	0.1011871
94	0x3ebdb1e1	0.37049773
95	0x3e5aec59	0.21379222
96	0x3c834812	0.016025577
97	0x3ef55073	0.4791294
98	0x3d906d2f	0.07052075
99	0xbdc9653d	-0.09833763
100	0x3ebc0d35	0.36728826
101	0x3d843040	0.064545155
102	0xbef473f5	-0.47744718
103	0xbdcbb242	-0.09946109
104	0x3ee5a5f8	0.44853187
105	0x3ee5ddc8	0.44895768
106	0x3cbcedce	0.023062613
107	0x3ed74a15	0.42048708
108	0xbe85cb25	-0.2613155
109	0x3ec5e9c7	0.3865492
110	0x3e8eae76	0.27867478
111	0xbe51b12a	-0.20477739
112	0xbc8301c4	-0.015992053
113	0x3d86ddf4	0.06585303
114	0xbe27fe33	-0.16405563
115	0xbe25e925	-0.16202219
116	0xbe0c2047	-0.13684188
117	0xbead1368	-0.33803868
118	0x3ea17a2c	0.31538522
119	0x3dce605a	0.10076971
120	0x3dcadb27	0.09905081
121	0x3ed2ec1b	0.4119576
122	0xbed1b69c	-0.40959632
123	0xbe0376a0	-0.1283822
124	0xbee8fe1a	-0.45506364
125	0xbee70ba0	-0.45126057
126	0xbe066b67	-0.13126908
127	0x3e9aee2d	0.3025984

layers.3.weight f4 [256, 128]
0	0xbd3ed7cc	-0.04659252
1	0x3bb279e9	0.0054466617
2	0xbdaf5d68	-0.08562738
3	0xbdb0bc2f	-0.08629643
4	0x3c8071cf	0.015679268
5	0x3c38494b	0.011247943
6	0x3c094982	0.008379342
7	0xbda335b2	-0.07969226
8	0x3db30e2d	0.08742938
9	0xbdcaebd7	-0.09908264
10	0xbd8cd939	-0.068773694
11	0xbcfb590c	-0.03068211
12	0xbca051b9	-0.019570218
13	0xbd5405d9	-0.05176339
14	0x3d9efcf0	0.07763088
15	0xbc874abe	-0.016515132
16	0x3c3d3d10	0.011550203
17	0x3da1fbed	0.07909379
18	0x3b11bb78	0.0022236984
19	0x3b5e3bee	0.0033910233
20	0xbd5b2879	-0.053505395
21	0xbc20ca77	-0.009813896
22	0x3cedf84d	0.029049063
23	0xbdd77cbc	-0.10521838
24	0x3d375e90	0.044767916
25	0x3d0ea35e	0.034823768
26	0x3c887f97	0.016662402
27	0xbd4cdc37	-0.0500147
28	0xbd123487	-0.035694625
29	0xbd94a749	-0.072584696
30	0x3cd482a3	0.025941199
31	0x3acd078c	0.0015642508
32	0x3d7aad22	0.06120027
33	0xbd81f931	-0.063463576
34	0xbbcd6631	-0.0062682857
35	0xbda06f47	-0.078337245
36	0xbd8ac282	-0.06775381
37	0x3d6b8fb0	0.057510078
38	0x3d817547	0.06321197
39	0x3cf92069	0.030410962
40	0xbd3e7810	-0.04650122
41	0xbd559ae8	-0.052149683
42	0x3c99f60d	0.018794084
43	0x3d95c137	0.073122434
44	0x3d84a09a	0.06475945
45	0xbd2c9ce8	-0.042141825
46	0xbd002835	-0.031288344
47	0xbd69f268	-0.057115942
48	0x3d7acaab	0.061228435
49	0x3de9d026	0.11416654
50	0x3b91f020	0.004453674
51	0x3d1b4d21	0.037915353
52	0xbd791410	-0.06081015
53	0x3d85d443	0.06534626
54	0x3d03a315	0.03213795
55	0xbb2b641b	-0.0026152197
56	0xbd5b8527	-0.05359378
57	0xbcdb4c40	-0.026769757
58	0xbdb4f537	-0.088358335
59	0x3c677ed8	0.014129363
60	0xbc2e0f61	-0.010623784
61	0xbc97ba36	-0.01852141
62	0xbc914c4f	-0.017736582
63	0x3d10331c	0.03520499
64	0xbcb7ca7c	-0.02243542
65	0x3db44b0e	0.08803378
66	0x3de51b7e	0.11186884
67	0x3dab5d0e	0.08367358
68	0xbd0da997	-0.03458556
69	0xbd2fe920	-0.042946935
70	0xbcd8568a	-0.026408453
71	0xbc59cb6d	-0.013293129
72	0x3cf4f150	0.029900223
73	0xbd965cb3	-0.073419
74	0x3d807e68	0.0627411
75	0x3d901fc8	0.07037312
76	0xbba02dee	-0.0048882877
77	0xbcb827c0	-0.022479892
78	0x3dcd483d	0.10023544
79	0xbbdcd002	-0.0067386637
80	0x3d2da6e3	0.042395484
81	0xbcb9d874	-0.02268622
82	0xbd2cf8bf	-0.04222941
83	0xbdc2f273	-0.095189
84	0xbd4d4581	-0.050115112
85	0xbdad50ab	-0.08462652
86	0x3cbfc34d	0.023408556
87	0x3da508e4	0.080583364
88	0x3d86397f	0.06553935
89	0xbd42f2dd	-0.047594894
90	0x3d4fe420	0.050754666
91	0x3cf04b89	0.029332893
92	0x3da7cdd4	0.081935555
93	0x3d424e3b	0.047437888
94	0x3d879e7e	0.06622027
95	0x3d4e3ef3	0.050353
96	0xbcc5348a	-0.024072904
97	0x3b0424ce	0.002016354
98	0x3b46cac1	0.0030333253
99	0xbc47aec5	-0.012187664
100	0x3d55d13f	0.052201506
101	0x3d60c130	0.054871738
102	0xbd984eb3	-0.07436886
103	0xbcbfcc2d	-0.023412788
104	0xbc8c9682	-0.017161611
105	0xbc44c97f	-0.012010931
106	0x3c9272fa	0.01787709
107	0xbcc5fa15	-0.0241671
108	0xbca497b9	-0.020091878
109	0xbd15766a	-0.03648988
110	0x3cfb5a9f	0.03068286
111	0xbcdaec1c	-0.026723914
112	0xbdc24cf0	-0.09487331
113	0xba222b9e	-0.0006186309
114	0x3beb5b91	0.0071825464
115	0xbd8e2e32	-0.06942405
116	0x3ca8c0dc	0.020599775
117	0xbdb41e3e	-0.08794831
118	0x3d9b36a4	0.07578781
119	0x3cb98318	0.022645518
120	0x3c121f44	0.008918587
121	0x3d8c1888	0.068406165
122	0x3c1db43c	0.009625491
123	0xbd78750b	-0.060658496
124	0xbd2831a5	-0.04106297
125	0x3ce4ff30	0.027953714
126	0xbc85be64	-0.016326137
127	0x3cdd2cfd	0.026998991
128	0x3d77c141	0.060487036
129	0x3d21b174	0.039475873
130	0xbcbd147b	-0.023081055
131	0xbd0dc6d3	-0.03461344
132	0xbd7b0be9	-0.061290655
133	0xbd3b1c7f	-0.045681473
134	0xbd64ef31	-0.055892173
135	0x3d90ae3c	0.070644826
136	0xbd1ab1e4	-0.037767306
137	0xbd286ea6	-0.041121148
138	0x3d915962	0.070971265
139	0xbd679562	-0.056538947
140	0x3d8da524	0.06916264
141	0x3c6de039	0.014518791
142	0xbbe547f3	-0.0069971024
143	0xbd6a18b4	-0.057152465
144	0xbdaedbb8	-0.08538002
145	0x3d0bcb39	0.034129355
146	0xbda2a1c6	-0.07941012
147	0x3daf2e3b	0.0855374
148	0xbc6b40e3	-0.014358732
149	0xbd8b5f54	-0.06805292
150	0xba80c362	-0.0009823854
151	0x3c01494a	0.007891009
152	0xbd8b27c6	-0.067946956
153	0xbd94dd6e	-0.07268797
154	0xbcab9ae3	-0.02094788
155	0xbd285258	-0.041094154
156	0x3ddc676f	0.10761916
157	0x3d1009b9	0.035165522
158	0xbd4d3348	-0.050097734
159	0xbdb267d0	-0.08711207
160	0xbdaab994	-0.083361775
161	0x3d38de68	0.045133978
162	0x3d09043c	0.033451304
163	0xbd833ca9	-0.064080544
164	0x3c401e54	0.011725981
165	0xbd49ce4d	-0.04926901
166	0x3dafc8a1	0.08583189
167	0x3d6626c6	0.05618932
168	0xbd4d0a21	-0.050058488
169	0x3bcc4dd8	0.0062348656
170	0x3d8b3e90	0.06799042
171	0xbd920135	-0.071291365
172	0xbd2ef6dc	-0.042715892
173	0xbd325d24	-0.043545857
174	0x3d3a5283	0.045488846
175	0xbd8e12b4	-0.06937161
176	0xbcfd6691	-0.030932697
177	0x3d06035f	0.03271806
178	0x3d78d9dd	0.060754646
179	0xbc37a9b0	-0.01120989
180	0xbd16626d	-0.03671496
181	0xbbb3053c	-0.0054632705
182	0xbd95acba	-0.073083356
183	0xbc8c14eb	-0.017099818
184	0xbd3f20e8	-0.04666224
185	0x3dc18ddf	0.09450888
186	0x3c78dbaf	0.015189095
187	0x3dca80be	0.09887837
188	0xbce2d66b	-0.027690133
189	0x3d05f57e	0.032704823
190	0x3cdb988b	0.026806137
191	0xbc5cab6d	-0.0134686055
192	0xbc230cc0	-0.00995177
193	0xbd19be01	-0.037534717
194	0x3d7b9ac2	0.061426885
195	0xbb2f66e7	-0.0026764215
196	0xbdbeed51	-0.09322608
197	0xbd43a0d9	-0.04776082
198	0x3b11b317	0.002223199
199	0xbd0598cf	-0.032616433
200	0xbc810e1a	-0.015753794
201	0xbc13dc92	-0.009024756
202	0xbd240083	-0.04003955
203	0x3d9e56ca	0.077313974
204	0xbd1d0751	-0.038337056
205	0xbca69cba	-0.020338405
206	0x3d81fbd7	0.06346863
207	0x3dac52af	0.08414208
208	0x3c26a1b5	0.01017039
209	0x3ccf2182	0.025284532
210	0x3d361784	0.04445602
211	0xbdcb2062	-0.09918286
212	0x3d9408d1	0.07228244
213	0xbd1d7f5f	-0.03845155
214	0x3d1d5551	0.038411442
215	0xbd0cc74b	-0.034369748
216	0x3c8edcc9	0.017439263
217	0xbd73eeed	-0.05955403
218	0xbd8a5c51	-0.06755889
219	0x3af2da15	0.0018528128
220	0x3d236d01	0.039898876
221	0xbc7712c3	-0.015080157
222	0xbccf00eb	-0.025268992
223	0x3c9737fe	0.018459316
224	0xbd60d983	-0.054894935
225	0xbbb4cc49	-0.0055175168
226	0xbc836316	-0.016038459
227	0x3d9be0d6	0.076112434
228	0x3dc7f0cf	0.097627275
229	0xbda5e3b9	-0.08100075
230	0xbcad5e2f	-0.021163074
231	0x3d4eed19	0.050519083
232	0x3b0f4a2d	0.002186428
233	0x3dabc357	0.083868675
234	0xbce9dd20	-0.028547823
235	0x3d10bf7b	0.03533886
236	0xbdaca290	-0.08429444
237	0xbd52c9f4	-0.05146213
238	0x3c7962a4	0.015221272
239	0xbd9c847b	-0.07642456
240	0xbdb5b929	-0.08873207
241	0xbd94e319	-0.07269878
242	0x3bea90bc	0.007158367
243	0x3d42e6f5	0.04758354
244	0xbd626d3d	-0.05527996
245	0xbd957bea	-0.07299025
246	0xbb2d812d	-0.00264747
247	0x3d1c7737	0.03819963
248	0x3d4d2544	0.050084367
249	0xbbf5cbdf	-0.00750111
250	0x3c979c6e	0.018507209
251	0x3d301a7f	0.04299402
252	0x3d8b61a3	0.06805732
253	0xbd5906a2	-0.05298484
254	0x3d1cae3e	0.038252108
255	0xbc8d0149	-0.017212527

layers.3.bias f4 [256]
0	0x3d2defef	0.042465147
1	0xbc950017	-0.01818852
2	0xbcd21049	-0.025642531
3	0xbd8c49f1	-0.06850041
4	0x3ba91943	0.005160482
5	0x3e0c75cb	0.1371681
6	0x3e0a6bbc	0.1351766
7	0x3d16cee8	0.036818415
8	0x3c6a5fb1	0.014305041
9	0xbd8ac209	-0.067752905
10	0xbda0511e	-0.07827972
11	0x3ba94e76	0.005166824
12	0x3df8711f	0.12130951
13	0x3d930ad2	0.07179798
14	0xbd9a86e3	-0.07545259
15	0x3de719a1	0.11284185
16	0xbcc5f45c	-0.024164371
17	0x3d513c5b	0.05108295
18	0x3d73221a	0.059358694
19	0xbd540d3d	-0.051770438
20	0xbdb3f85d	-0.08787606
21	0x3d94fd6b	0.07274898
22	0x3df33ca6	0.11876802
23	0x3c907333	0.017633056
24	0x3ddadb80	0.106863976
25	0x3dc1552a	0.09440072
26	0x3d2b9b60	0.041896224
27	0x3cad986a	0.02119084
28	0x3ce7d9cb	0.028302094
29	0x3e1f7b8a	0.1557447
30	0xbd9f1a0a	-0.077686384
31	0x3dabbca6	0.08385591
32	0x3e33f30a	0.17573181
33	0x3c125931	0.008932398
34	0x3d9138c3	0.070909046
35	0x3e0c4d99	0.13701476
36	0x3d807594	0.06272426
37	0xbb0ed99a	-0.002179718
38	0x3e1f0a44	0.1553126
39	0x3dcb3b40	0.099234104
40	0xbbf4af3d	-0.007467179
41	0x3cec78ab	0.028866133
42	0x3b8a2bd2	0.0042166496
43	0x3c94d7e9	0.01816936
44	0x3d7c4b2f	0.06159514
45	0x3da13dcb	0.07873114
46	0xbd5b2688	-0.053503543
47	0x3dcc0bd8	0.099631965
48	0x3da63be9	0.08116896
49	0xbca81789	-0.020519035
50	0xbc13d3da	-0.009022677
51	0xbceceed3	-0.028922474
52	0x3d513769	0.051078234
53	0x3dffc807	0.12489324
54	0x3de9d4f5	0.114175715
55	0xbdb84046	-0.08996634
56	0xbd6b7b9d	-0.057490934
57	0x3e038181	0.1284237
58	0xbd596076	-0.053070508
59	0xbd59ed83	-0.053205024
60	0x3c876f2b	0.016532501
61	0xbbfa6219	-0.0076410887
62	0xbda27d10	-0.0793401
63	0xbae1d5ae	-0.0017229819
64	0x3deae33a	0.11469121
65	0xbb275168	-0.00255307
66	0xbdbaf211	-0.09128202
67	0x3cb03e79	0.021514164
68	0x3d4e5e45	0.05038287
69	0xbc95d601	-0.018290522
70	0x3d94929b	0.07254525
71	0x3dc0d225	0.09415082
72	0xbdc01aae	-0.09380089
73	0x3e3b4f54	0.1829198
74	0x3c31171c	0.010808732
75	0x3dd3f529	0.10349495
76	0x3c74b746	0.014936274
77	0xbd9eab19	-0.07747478
78	0x3d8a5815	0.067550816
79	0x3c83c763	0.016086286
80	0xbce21683	-0.027598625
81	0xbbd94541	-0.00663057
82	0x3dc64162	0.096804395
83	0x3b5d5256	0.0033771
84	0xbda0a07f	-0.07843112
85	0xbd5eccc8	-0.054394513
86	0xbc31dcb5	-0.010855843
87	0x3e06f158	0.13178003
88	0x3dc5685b	0.09639045
89	0x3c93df8e	0.018050935
90	0xbd789751	-0.06069118
91	0x3cb59813	0.022167241
92	0xbd785b9e	-0.060634248
93	0xbc4ba38e	-0.012429131
94	0x3d85c12e	0.06530987
95	0x3d88980a	0.06669624
96	0x3d5ab034	0.053390697
97	0x3dddd029	0.10830719
98	0xb92a8d44	-0.00016265089
99	0x3e1465d9	0.14491977
100	0x3da7052e	0.08155285
101	0x3c48b9de	0.012251345
102	0x3e07422e	0.1320884
103	0x3e282f1b	0.1642422
104	0xbd0e188f	-0.03469139
105	0x3d57c46c	0.052677557
106	0xbc7e0584	-0.015504245
107	0x3da3f784	0.08006194
108	0x3df07c8b	0.11742505
109	0x3d6e0b7f	0.058116432
110	0xbd8308fd	-0.06398199
111	0xbd91f330	-0.071264625
112	0x3d45ea21	0.048318986
113	0x3cbea46f	0.023271767
114	0xbd68f286	-0.056871913
115	0xbba0a1ae	-0.004902086
116	0xbd948cea	-0.0725344
117	0x3d1607ae	0.036628418
118	0xbddfd90c	-0.1093007
119	0xbcc2c846	-0.023777138
120	0x3d812a71	0.06306923
121	0x3ca6bf0a	0.020354766
122	0xbc8904e5	-0.016725967
123	0x3d0936a6	0.033499382
124	0x3d8068f2	0.06270017
125	0xbd6a9deb	-0.05727951
126	0x3a9ff878	0.0012204787
127	0x3c044aac	0.008074444
128	0x3d65e7f0	0.056129396
129	0xbdb10763	-0.08643987
130	0xbacb2cc5	-0.0015501013
131	0x3d066ee8	0.032820612
132	0xbb400faf	-0.0029306223
133	0xbc08d0b4	-0.00835054
134	0xbca26315	-0.019822637
135	0x3e39e2ce	0.18152925
136	0x3d5da78a	0.054114856
137	0x3cb4f0b4	0.022087432
138	0x3d9c648a	0.07636364
139	0xbb8f5b3d	-0.00437489
140	0x3da0c08e	0.07849227
141	0x3b3daae2	0.0028940965
142	0xbcea929e	-0.028634366
143	0xbcba406e	-0.0227358
144	0x3daa49a3	0.08314826
145	0x3c3d8507	0.011567361
146	0x3d8d65bf	0.06904172
147	0xbd6766a0	-0.056494355
148	0xbd6b4720	-0.057440877
149	0x3e21e163	0.15808634
150	0xbd10934f	-0.035296734
151	0xbda7a184	-0.081851035
152	0x3da63e31	0.08117331
153	0x3d8e3190	0.06943047
154	0x3d0dd966	0.034631155
155	0x3dad6e3a	0.0846829
156	0xbd7db6f3	-0.061942052
157	0x3db51501	0.08841897
158	0xbc23b548	-0.009991951
159	0xbc9a4839	-0.018833267
160	0x3e117c1c	0.142075
161	0xbd720751	-0.05908901
162	0x3de91b13	0.11382117
163	0xbcc16a8e	-0.02361038
164	0xbd335a0e	-0.043787055
165	0xbd9fd11e	-0.07803558
166	0x3d008eed	0.031386305
167	0x3e1189fe	0.14212796
168	0x3c72839a	0.014801884
169	0x3d411717	0.04714116
170	0xbc699d74	-0.014258731
171	0xbcc59089	-0.024116771
172	0x3d5ad049	0.053421292
173	0x3d19ea3c	0.0375769
174	0x3d62ee1c	0.05540286
175	0xbd405cd0	-0.046963513
176	0xbd028349	-0.031863485
177	0x3d5fb4d8	0.054615825
178	0x3d4f0061	0.05053747
179	0xbc47c641	-0.0121932635
180	0x3c558b04	0.013033632
181	0xbd66530c	-0.056231543
182	0x3d5f731f	0.054553147
183	0x3d0c7978	0.03429553
184	0x3c7109f3	0.014711845
185	0xbd4fc7d9	-0.0507277
186	0xbd67bd55	-0.056577045
187	0x3cb990e8	0.022652104
188	0xbd067e0b	-0.032835048
189	0x3d3aaedd	0.04557692
190	0x3e0b07d7	0.1357721
191	0x3c674759	0.014116132
192	0xbd826578	-0.0636701
193	0x3d5691bb	0.052385073
194	0xbc855fe9	-0.016281085
195	0x3de4f242	0.111790195
196	0x3d8416b2	0.06449641
197	0x3c43ee00	0.011958599
198	0xbd45ccf0	-0.048291147
199	0x3d0889d6	0.033334576
200	0x3d9aa795	0.07551495
201	0x3e276825	0.16348322
202	0x3e0162a2	0.12635282
203	0x3c76e6a7	0.01506964
204	0xbd97be17	-0.07409304
205	0xbd6e51e4	-0.058183566
206	0xbd80cae7	-0.062887006
207	0xbdaea5a0	-0.08527684
208	0x3d75a474	0.059971288
209	0x3cb5e9bc	0.02220618
210	0x3e42bb6e	0.19016811
211	0xbca5d48a	-0.020242948
212	0x3e03084d	0.12796135
213	0xbb5a77cd	-0.0033335567
214	0x3e01eb13	0.1268733
215	0x3a6d3650	0.0009048926
216	0x3d7844e3	0.06061257
217	0x3cc089df	0.023503242
218	0xbc5b43a5	-0.013382827
219	0xbab4f3fa	-0.0013805621
220	0xbb4d9b1b	-0.0031372968
221	0x3cedcb77	0.029027684
222	0xbd2fceb6	-0.042921744
223	0x3e02266d	0.12709971
224	0xbd7e5813	-0.062095713
225	0x3d89a9e7	0.067218594
226	0x3da86f5f	0.08224367
227	0xbcb43364	-0.021997161
228	0xbd2fa66d	-0.042883325
229	0x3cd7613b	0.02629148
230	0x3dbcc9a7	0.0921815
231	0x3e13b081	0.144228
232	0xbaa6f5ed	-0.0012738087
233	0x3d0701d8	0.032960743
234	0x3d5e42f6	0.054263078
235	0x3d8eb312	0.06967749
236	0x3d186fdc	0.037216052
237	0x3d92f63c	0.07175872
238	0x3dc6d661	0.09708858
239	0x3d9c9bdf	0.076469176
240	0x3d514a12	0.05109603
241	0xbd13b1b9	-0.03605816
242	0x3cb06fd7	0.021537704
243	0x3dc17b87	0.09447389
244	0xbd96dada	-0.073659614
245	0x3d6c7011	0.057724062
246	0x3c1014b0	0.008793995
247	0xbda90d72	-0.082545176
248	0xbd5c1984	-0.05373527
249	0xbd20686f	-0.039162096
250	0x3e29ceac	0.16582745
251	0x3d2ca0a4	0.042145386
252	0x3de6b588	0.11265093
253	0xbd02d798	-0.031943887
254	0xbd918f2d	-0.07107387
255	0x3d88953a	0.06669088

layers.6.weight f4 [256, 256]
0	0xbc94134f	-0.018075613
1	0x3d7f4080	0.06231737
2	0x3d4b40be	0.04962229
3	0x3cb1a14c	0.021683358
4	0xbc178380	-0.009247661
5	0xbd67f2e7	-0.056628134
6	0x3ceacd7b	0.028662434
7	0x3d43b1e1	0.04777706
8	0xbd093fe2	-0.03350819
9	0xbd3a0147	-0.045411374
10	0x3bb8e00f	0.0056419442
11	0x3c5af1e8	0.013363339
12	0x3d2b2da6	0.04179158
13	0x3d02bbd9	0.031917427
14	0xbccf242d	-0.025285805
15	0xbd5220f2	-0.05130095
16	0xbc43b443	-0.011944833
17	0x3d1497bc	0.036277518
18	0xbd23e3f5	-0.04001232
19	0xbb86f15b	-0.0041181273
20	0xbd3e8755	-0.04651578
21	0xbd2028a3	-0.039101254
22	0x3d56add3	0.052411865
23	0x3d7dfbc9	0.0620077
24	0x3b2ce27f	0.002638012
25	0x3d22b3ad	0.039722133
26	0xbc5146f5	-0.012773265
27	0x3d4d2962	0.050088294
28	0xbd391184	-0.04518272
29	0x3aebb884	0.0017984067
30	0x3d4116b0	0.047140777
31	0xbd5726a6	-0.052527092
32	0xbc9056d6	-0.017619532
33	0x3d2dc21f	0.042421456
34	0x3c637401	0.013882638
35	0xbd70af32	-0.05876083
36	0xbbdce093	-0.0067406385
37	0x3ccbaa72	0.024861548
38	0xbce76b6f	-0.02824947
39	0xbca9c09d	-0.020721728
40	0x3d5368e2	0.051613696
41	0x3cf288c8	0.029606238
42	0x3c20b72f	0.009809299
43	0xbbb31b2a	-0.0054658847
44	0xbd3038b1	-0.043022815
45	0x3c2d86e5	0.010591243
46	0xbcd57a73	-0.026059365
47	0xbd00f722	-0.031485684
48	0xbd139a13	-0.03603561
49	0xbccb338f	-0.024804858
50	0xbd483172	-0.04887528
51	0x3cdfd017	0.027320905
52	0x3c9894cc	0.01862564
53	0xbce96a77	-0.02849315
54	0xbc03b225	-0.008038078
55	0xbbe4b7d6	-0.0069799228
56	0x3d4bef2e	0.049788646
57	0x3bb1a005	0.005420687
58	0xbd7a6146	-0.061127923
59	0xbcf56d0c	-0.029959224
60	0x3ce19347	0.027536048
61	0x3c8914a6	0.016733479
62	0xbce8362c	-0.028346144
63	0x3d7ba7ac	0.0614392
64	0xbce13c7f	-0.027494667
65	0xbc732666	-0.014840698
66	0x3b733ba9	0.0037114418
67	0x3c826eb1	0.015921922
68	0xbcd32177	-0.025772793
69	0x3c21dae1	0.009878845
70	0xbcacb103	-0.0210805
71	0xbc5722eb	-0.013130884
72	0xbd0e31d2	-0.03471548
73	0xbd456804	-0.0481949
74	0xbcdbef45	-0.026847491
75	0x3d4a9a9f	0.049463864
76	0x3d3802e0	0.044924617
77	0xbca5090a	-0.020145912
78	0x3d7830f2	0.060593553
79	0xbd0344cd	-0.032048035
80	0x3c8e903f	0.017402766
81	0xbd2f8a3c	-0.04285644
82	0x3d1bad79	0.038007233
83	0x3d3e0195	0.046388227
84	0x3caecd5b	0.021338155
85	0x3d32a2f3	0.04361243
86	0x3ce04d70	0.027380675
87	0xbd119093	-0.035538267
88	0x3d2990c1	0.041397814
89	0x3ce8aa6a	0.028401572
90	0xbc9e54e9	-0.019327598
91	0x3c0c08df	0.008547037
92	0x3c37532a	0.011189261
93	0x3ce3e8ce	0.02782097
94	0xbca88e68	-0.020575717
95	0x3c8aab47	0.016927375
96	0x3d58f5b7	0.052968707
97	0xbd35ab94	-0.044353083
98	0x3d62b72b	0.055350464
99	0xbd49c279	-0.04925773
100	0x3c2f3988	0.010694869
101	0x3d42f20c	0.047594115
102	0xbc1cd31f	-0.00957182
103	0x3d690863	0.056892764
104	0xbd1a8f77	-0.037734475
105	0xbd3b3ad6	-0.045710407
106	0xbc2e4a31	-0.010637806
107	0x3b7fa903	0.003901065
108	0xbd59d581	-0.05318213
109	0x3d5121fb	0.051057797
110	0x3cd10439	0.025514709
111	0xbd6ad2d6	-0.057329975
112	0xbbb54ae2	-0.0055326084
113	0xbd145d51	-0.036221806
114	0xbc164498	-0.009171627
115	0xbd648e29	-0.055799637
116	0xbd6c5d8b	-0.057706397
117	0xbcffd907	-0.031231416
118	0x3d1f60fc	0.03891085
119	0xbcef01f0	-0.029175729
120	0x3c6fd730	0.014638707
121	0xbd22e779	-0.03977153
122	0xbd259d27	-0.040433075
123	0xbd2bb792	-0.041923113
124	0xbd7f8aa1	-0.062388066
125	0x3c2ca4a8	0.010537304
126	0xbd0f225e	-0.034944884
127	0xbab0b941	-0.0013482944
128	0xbc94e3ce	-0.018175032
129	0xbd4d7fd6	-0.050170742
130	0x3cbdbe99	0.023162173
131	0x3d44d4ca	0.048054494
132	0x3cea065f	0.028567491
133	0xbd6d8494	-0.057987764
134	0xbc32e2ea	-0.010918358
135	0xbd49b3e3	-0.04924382
136	0xbcdba0f1	-0.026810141
137	0x3d4852f9	0.048907254
138	0xbc38d82e	-0.01128201
139	0x3d612746	0.054969095
140	0x3ce960ec	0.028488599
141	0xbbbadeae	-0.005702815
142	0x3d53f71c	0.051749334
143	0xbb68b5a8	-0.0035508666
144	0xbd2f0343	-0.04272772
145	0x3d254790	0.04035145
146	0x3d195bee	0.037441187
147	0xbc9391b2	-0.018013809
148	0x3c615048	0.013752051
149	0x3d58600e	0.05282598
150	0x3d0f8db0	0.035047233
151	0x3c1e9c33	0.0096807955
152	0xbcbbf246	-0.022942673
153	0x3d254b1e	0.04035484
154	0xbce6b654	-0.028163113
155	0xbc95b3d7	-0.01827423
156	0xbc088b30	-0.008333966
157	0xbc554b84	-0.013018493
158	0xbc732e17	-0.014842532
159	0xbd3157a6	-0.04329648
160	0x3cdd3a9d	0.027005488
161	0x3d3d297c	0.04618214
162	0xbd2948c2	-0.041329153
163	0xbd7f893f	-0.062386747
164	0x3d6c1a82	0.057642467
165	0x3d051984	0.032495037
166	0xbc42f6ba	-0.0118996445
167	0xbcb50217	-0.022095723
168	0xbbd29168	-0.006426025
169	0xbd453fc2	-0.048156507
170	0x3cf162f4	0.02946613
171	0xbd136795	-0.035987455
172	0x3d213209	0.039354358
173	0xbd6192df	-0.055071708
174	0x3a1a58a1	0.00058878405
175	0x3d6c227e	0.05765008
176	0xbd3de0f8	-0.046357125
177	0xbd65cc6f	-0.056103166
178	0xbd0ad4a3	-0.033894192
179	0x39e65610	0.0004393314
180	0xbb1f51b8	-0.0024310183
181	0x3d19ebab	0.037578266
182	0xbb4615be	-0.0030225362
183	0xba8f32a0	-0.0010925122
184	0xbc844186	-0.016144525
185	0xbd153471	-0.036426965
186	0xbc5d2d4b	-0.013499568
187	0xbb8bcad5	-0.004266123
188	0xbb846508	-0.004040364
189	0xbca2556b	-0.019816121
190	0x3c328272	0.010895358
191	0xbd560063	-0.052246463
192	0x3cb85b2f	0.022504417
193	0x3d3b6974	0.045754865
194	0x3d597586	0.053090595
195	0x3d1d63e3	0.038425338
196	0xbd50e645	-0.051000852
197	0x3d6a4e2b	0.057203453
198	0xbd7afc8d	-0.061276007
199	0x3d03f4fb	0.032216053
200	0xbca59034	-0.020210363
201	0xbcac175b	-0.02100723
202	0x3d4c0757	0.049811687
203	0xbd68618e	-0.05673366
204	0x3d052ab0	0.032511413
205	0xbd0cd330	-0.03438109
206	0xbd274a10	-0.040842116
207	0x3cabf43a	0.02099048
208	0xbd24ee49	-0.04026631
209	0xbd2a2dfe	-0.041547768
210	0x3d5c4a80	0.053781986
211	0xbd03acab	-0.03214709
212	0xbd678208	-0.05652049
213	0x3cba86df	0.02276939
214	0x3cfe38c9	0.031032937
215	0x3c9c6b54	0.019094147
216	0x3cbddee1	0.023177566
217	0xbd5c20eb	-0.05374233
218	0x3d048fcd	0.0323637
219	0x3d1aa814	0.037757948
220	0xbd748028	-0.05969253
221	0x3c41b227	0.01182226
222	0x3d2c095a	0.042001106
223	0xbd23f58b	-0.04002909
224	0xbd496179	-0.049165223
225	0x3c159a64	0.009131048
226	0xbd7f0959	-0.062264774
227	0x3d43cd1e	0.047803037
228	0x3c6a2b33	0.014292526
229	0x3d0f3893	0.034966063
230	0x3d45cc09	0.048290286
231	0x3ccf8938	0.025333986
232	0xbd37b1c3	-0.04484726
233	0xbcde7f53	-0.027160322
234	0x3d19715c	0.037461624
235	0xbc632d68	-0.013865806
236	0x3d2d17e4	0.042259112
237	0xbd593b21	-0.053034905
238	0xbd36a917	-0.04459485
239	0xbc96f1f5	-0.018425921
240	0x3d0f8c98	0.03504619
241	0x3cafe8be	0.021473285
242	0xbcbb1eb2	-0.022841785
243	0xbcc0a1a0	-0.023514569
244	0x3d6fdee4	0.058562174
245	0xbcce70ad	-0.025200212
246	0x3d043489	0.032276664
247	0xbcc409e4	-0.023930497
248	0x3d33f6bc	0.043936476
249	0x3d30f58e	0.04320293
250	0xbd4b3db6	-0.0496194
251	0xbd0d08f2	-0.03443236
252	0xbbf09903	-0.007342459
253	0x3c904e4b	0.017615458
254	0xbca287d3	-0.019840157
255	0xbc8821e1	-0.016617717

layers.6.bias f4 [256]
0	0x3c00dbf6	0.007864943
1	0x3d099ab6	0.03359481
2	0xbc72f012	-0.014827745
3	0x3d9ba2fa	0.07599445
4	0x3d71ed3c	0.059064135
5	0xbd58cbbb	-0.052928668
6	0x3e076f0d	0.13225956
7	0x3decc367	0.115607075
8	0x3da10525	0.07862309
9	0xbd39bf7f	-0.04534864
10	0xbd632f3c	-0.055464968
11	0xbc032240	-0.008003771
12	0x3e121882	0.14267161
13	0x3e085d17	0.13316761
14	0x3c8b8125	0.017029354
15	0x39d06ecb	0.000397554
16	0x3d0127d3	0.03153212
17	0x3c43f307	0.011959798
18	0xbcec0aee	-0.028813805
19	0xbd3afa6f	-0.04564899
20	0x3d228536	0.03967782
21	0x3d264928	0.04059711
22	0x3bc7ff21	0.006103412
23	0xbcb04ec3	-0.021521932
24	0x3e280a18	0.164101
25	0xbd15a642	-0.03653551
26	0xbb209122	-0.0024500568
27	0x3bfcf565	0.007719683
28	0x3e134cdb	0.14384787
29	0xbd2f7c44	-0.04284312
30	0xbb728e9d	-0.0037011274
31	0xbd5d9088	-0.054092914
32	0x3cebff83	0.02880836
33	0xbc640eea	-0.013919571
34	0xbc65992d	-0.014013571
35	0x3cd311f6	0.0257654
36	0xbd7e4933	-0.062081527
37	0xbc1aef84	-0.009456519
38	0xbc49ec16	-0.012324354
39	0x3e43ed61	0.19133522
40	0xbd5746a4	-0.052557603
41	0x3d093898	0.033501238
42	0xbc50ffe2	-0.01275632
43	0x3c15d343	0.009144607
44	0xbcc53800	-0.024074554
45	0xbd825131	-0.06363142
46	0xbd5974f3	-0.053090047
47	0x3df91a46	0.121632144
48	0x3e2a0c49	0.16606249
49	0x3dae694f	0.0851618
50	0x3d998cad	0.07497535
51	0x3ae20ab0	0.0017245617
52	0x3a1888d9	0.0005818732
53	0xbd001585	-0.031270523
54	0xbcb0f697	-0.021601958
55	0x3d58b66d	0.05290835
56	0x3b244f00	0.0025071502
57	0x3dc8c70f	0.098035924
58	0x3c0b3166	0.008495664
59	0xbcd7172c	-0.026256166
60	0x3d05ed8e	0.032697253
61	0xbd3d7996	-0.04625853
62	0xbd6d858b	-0.057988685
63	0x3c767b84	0.015044097
64	0x3db90d5b	0.090357505
65	0x3bf0e550	0.007351555
66	0xbd1ab2f5	-0.037768323
67	0x3bc23d4d	0.005927718
68	0xbd4d1c68	-0.05007592
69	0xbcf8b571	-0.030359956
70	0x3e2eb68b	0.17061822
71	0xbcc03dc8	-0.02346696
72	0xbd01ded1	-0.031706635
73	0xbd0ed3b3	-0.03486986
74	0x3d21906c	0.039444372
75	0x3c2957ef	0.010335906
76	0xbd3c822c	-0.04602258
77	0x3bcd928c	0.0062735733
78	0xbc0bcbac	-0.008532446
79	0x3ce2e405	0.027696619
80	0x3d593900	0.053032875
81	0xbbaf3098	-0.005346369
82	0x3cbedbc6	0.023298156
83	0xbd124eff	-0.035719868
84	0xbd4156e3	-0.047202002
85	0xbd2998d6	-0.04140552
86	0x3cccd579	0.025004135
87	0x3d82b2f6	0.0638179
88	0x3df536b0	0.119733214
89	0x3cae52a3	0.021279639
90	0x3d013dcc	0.031553075
91	0xbd468a40	-0.04847169
92	0xbd772bd8	-0.060344547
93	0xbc994867	-0.018711282
94	0x3e0709eb	0.13187377
95	0x3e1cf195	0.15326531
96	0xbd59b620	-0.053152204
97	0x3c21c8c1	0.009874524
98	0xbc8f0a8b	-0.017461082
99	0xbccfa352	-0.025346432
100	0x3db7e43f	0.08979081
101	0x3c7fde0c	0.015616905
102	0xbd300a6c	-0.04297869
103	0x3dcb9a25	0.0994151
104	0xbd675e94	-0.05648668
105	0xbd0b0f46	-0.033950113
106	0x3d2d1a19	0.042261217
107	0xbcc2967b	-0.023753395
108	0xbd24f011	-0.040268008
109	0xbc2bfb01	-0.010496856
110	0x3ca33b13	0.01992563
111	0xbd1e6fbf	-0.038680788
112	0x3dd96cfe	0.10616492
113	0x3ca422d9	0.020036148
114	0x3e320b8b	0.17387216
115	0x3da4a4b6	0.080392286
116	0x3e00a4b5	0.12562831
117	0xbc8023ea	-0.015642125
118	0x3d86520d	0.06558619
119	0x3d248f43	0.040175688
120	0xbc05cce4	-0.0081665255
121	0x3d5e71bf	0.054307695
122	0x3e3e767f	0.1859989
123	0x3ddb444a	0.107063845
124	0x3d98f2a8	0.07468158
125	0xbd3d575a	-0.046225883
126	0x3d084eec	0.03327839
127	0xbd7468ef	-0.059670385
128	0x3c84f780	0.016231298
129	0xbcec4792	-0.028842721
130	0xbd4c1e9e	-0.049833886
131	0xbd204e3d	-0.039137114
132	0x3e42d3fa	0.19026175
133	0xbc2fe691	-0.010736124
134	0x3ceea6cf	0.029132275
135	0xbd343a63	-0.044000994
136	0x3d3a0b68	0.045421034
137	0x3e0d1ebf	0.1378126
138	0xbb19c3c5	-0.0023462635
139	0xbbb0b90d	-0.0053931535
140	0x3db13e6a	0.08654483
141	0x391e500e	0.00015097877
142	0x3d153ad6	0.036433063
143	0x3b11257f	0.0022147594
144	0x3e20e06e	0.15710613
145	0x3b8a72e2	0.004225121
146	0x3c90e932	0.017689321
147	0x3da14018	0.07873553
148	0x3a8f4389	0.0010930161
149	0x3dc8b57e	0.09800242
150	0x3d8b1c8b	0.067925535
151	0xbc6e31ae	-0.014538212
152	0x3dc3e70e	0.095655546
153	0xbd2ff8c2	-0.042961843
154	0x3dc5afe1	0.09652687
155	0xbd073063	-0.03300513
156	0xb8b5ce47	-8.669175e-05
157	0x3d0ae6a3	0.03391136
158	0xbc5ced3e	-0.013484297
159	0xbd7add3b	-0.061246138
160	0x3d1234fe	0.03569507
161	0xbc8346c9	-0.016024964
162	0x3cb1c55c	0.021700554
163	0x3d2eae10	0.042646468
164	0x3d9e3783	0.07725432
165	0x3d905263	0.07046964
166	0x3c9df286	0.019280683
167	0xbcb45ff6	-0.022018414
168	0x3da8c81f	0.08241295
169	0x3c8b46a1	0.017001452
170	0x3c214f71	0.0098456
171	0x3e06a60d	0.13149281
172	0xbd114488	-0.035465747
173	0xbc6aba14	-0.014326591
174	0x3dc3b0c1	0.095551975
175	0x3d0a891d	0.033822168
176	0x3e010824	0.12600762
177	0x3d030d68	0.031995207
178	0x3d3386aa	0.043829598
179	0x3de8e624	0.11372021
180	0x3e0517e4	0.12997395
181	0xbd01bc2b	-0.03167359
182	0xbd28004f	-0.04101592
183	0xbce789e5	-0.028263995
184	0x3db0c3ba	0.08631082
185	0x3d0a5156	0.033768974
186	0x3d401708	0.046896964
187	0x3d14ec59	0.03635821
188	0x3d0a3a5e	0.03374707
189	0xbcba25a1	-0.022723021
190	0x3c486328	0.012230672
191	0x3d3ce1fe	0.04611396
192	0x3cf4463a	0.029818643
193	0xbce0269d	-0.027362162
194	0xbd166a66	-0.036722563
195	0xbd72abb6	-0.059245788
196	0x3c1e4331	0.009659574
197	0x3c73d551	0.014882402
198	0x3b94a657	0.004536431
199	0xbc9c73c8	-0.019098178
200	0xbd59e49a	-0.053196527
201	0x3cbfe511	0.023424657
202	0x3e28ed8c	0.16496867
203	0x3d01b1a0	0.031663537
204	0x3daa850b	0.08326157
205	0x3d4750f9	0.048661206
206	0xbd54b993	-0.05193479
207	0x3d6ae9a9	0.057351742
208	0x3dcf9813	0.10136428
209	0xbd21b0c5	-0.03947522
210	0xbca32abb	-0.019917836
211	0xbd264b3d	-0.040599097
212	0xbcd4a570	-0.025957793
213	0xbd2a1094	-0.041519716
214	0x3d3bc009	0.045837436
215	0x3ba92c20	0.005162731
216	0x3d5830a7	0.052780773
217	0x3ceaa166	0.028641414
218	0xbd58c9ed	-0.052926946
219	0x3dd34033	0.103149794
220	0xbcecb5e6	-0.02889533
221	0x3d04e76e	0.03244727
222	0x3cfa0165	0.030518243
223	0xbc72c97f	-0.014818548
224	0x3d1a18af	0.037621196
225	0xbbe4e4a3	-0.0069852634
226	0x3ddab371	0.10678757
227	0x3c6919f5	0.01422738
228	0xbca7f9e4	-0.0205049
229	0xbd80d5f8	-0.06290811
230	0x3cda6e12	0.026663814
231	0xbd75f9c5	-0.060052652
232	0x3cdd3a72	0.027005408
233	0x3e35ae60	0.177423
234	0x3bdfac17	0.0068259346
235	0x3d17967a	0.03700874
236	0xbc59a398	-0.013283633
237	0x3cda9608	0.026682869
238	0x3cb4a3d5	0.022050777
239	0x3c2f62cb	0.010704706
240	0x3b502761	0.0031761753
241	0x3e2b5eed	0.1673543
242	0x3d69c083	0.05706836
243	0x3ceb9c0b	0.02876093
244	0x3cd1b3ce	0.025598433
245	0xbd4aacf2	-0.04948134
246	0x3d9da604	0.076976806
247	0xbd6dc2fd	-0.058047283
248	0x3d9e04ab	0.07715734
249	0xbcc764e1	-0.024340095
250	0x3d32130d	0.0434752
251	0x3e09f540	0.13472462
252	0xbd8dc846	-0.06922965
253	0x3c65c450	0.014023855
254	0x3d919f43	0.07110455
255	0xbc40ca51	-0.011766986

layers.9.weight f4 [480, 256]
0	0xbd046e3f	-0.0323317
1	0x3d27faca	0.041010655
2	0xbcc47309	-0.023980634
3	0xbd3c196a	-0.045922674
4	0xbd1a410b	-0.037659686
5	0xbc8ebd63	-0.017424291
6	0x3ca09058	0.019600078
7	0xbdb500a1	-0.088380106
8	0x3cdbe547	0.026842726
9	0xbd1491a8	-0.03627172
10	0x3c817b95	0.015805999
11	0x3c0d99b6	0.008642605
12	0x3c533bc1	0.012892664
13	0xbce81d66	-0.02833433
14	0x3b9a5b93	0.0047106235
15	0x3d30fe3d	0.04321121
16	0xbd73b99b	-0.05950318
17	0xbc587bba	-0.013213092
18	0x3c2370ff	0.009975671
19	0x3d817647	0.06321388
20	0xbc2a76da	-0.010404313
21	0x3c43e657	0.011956773
22	0xbbf00cc0	-0.0073257387
23	0x3d20117f	0.039079186
24	0xbc922f52	-0.01784483
25	0xbd5e1a0f	-0.05422407
26	0x3cc07984	0.023495443
27	0xbd1b6787	-0.03794053
28	0xbd7da43a	-0.061924197
29	0xbcf3e557	-0.029772444
30	0x3d79dd03	0.06100179
31	0xbc00f368	-0.007870533
32	0xbd2404ce	-0.040043645
33	0x3d08b34e	0.033374123
34	0x3c9cef41	0.019157054
35	0x3d2225d5	0.03958686
36	0x3d62d0a6	0.055374764
37	0x3c9c49a5	0.019078085
38	0xbc9eb38b	-0.019372722
39	0xbce550a7	-0.02799256
40	0x3d53c4ec	0.05170147
41	0xbcfa0f02	-0.030524734
42	0x3c7620d5	0.015022476
43	0xbd7f1966	-0.06228008
44	0x3b6c7ce3	0.003608518
45	0x3c799ff8	0.015235893
46	0xbd637db2	-0.055539794
47	0xbcf27c22	-0.029600207
48	0xbd707d57	-0.058713283
49	0x3d304fe1	0.04304493
50	0x3cbaf020	0.022819579
51	0x3b53850c	0.0032275347
52	0xbcd5184c	-0.026012562
53	0x3ce53663	0.027980035
54	0x3c4c8bf5	0.01248454
55	0xbc63aa6b	-0.013895611
56	0xbcf34db8	-0.029700145
57	0xbd87b368	-0.06626016
58	0x3d3732ec	0.044726297
59	0x3d735531	0.059407417
60	0x3c0fc73b	0.008775528
61	0x3cd131ea	0.025536496
62	0xbd37b648	-0.04485157
63	0xbc3b130d	-0.011418116
64	0xbd8534cd	-0.065042116
65	0x3d359fd3	0.044341873
66	0x3ce537a2	0.02798063
67	0x3cfc09a3	0.030766314
68	0x3d779ee0	0.06045425
69	0xbd2c3189	-0.042039428
70	0xbadb4fd1	-0.0016732161
71	0xbd56d5e6	-0.052450083
72	0x3d33ee7a	0.0439286
73	0x3d4516c5	0.048117418
74	0xbcf03bec	-0.029325448
75	0xbd83a208	-0.064273894
76	0xbc9169db	-0.017750671
77	0xbd62165b	-0.0551971
78	0xbd5b2e4e	-0.053510956
79	0xbcc2b0df	-0.02376598
80	0x3cbc5749	0.02299084
81	0x3d2e509e	0.04255735
82	0x3d5d0be0	0.053966403
83	0x3d5e5ed5	0.054289658
84	0xbcb03ee5	-0.021514365
85	0xb9a1d1ab	-0.00030864528
86	0xbd3adb7f	-0.045619484
87	0xbd2a1004	-0.04151918
88	0x3cd89706	0.026439201
89	0xbd98469d	-0.074353434
90	0x3c480db1	0.012210296
91	0xbd757300	-0.059924126
92	0xbd34d762	-0.044150718
93	0x3d8a55fe	0.06754683
94	0x3b77f5b5	0.0037835662
95	0x3c80d5a3	0.01572687
96	0x3d21af68	0.03947392
97	0x3d06e727	0.032935288
98	0x3d7cf075	0.061752755
99	0x3d3d74ad	0.04625385
100	0xbd1250a3	-0.035721432
101	0xbd1f87ab	-0.038947742
102	0xbd0c092f	-0.034188446
103	0xbcfd204b	-0.030899188
104	0x3cfa917b	0.030586949
105	0xbbf16fd4	-0.0073680673
106	0x3cbe5175	0.023232201
107	0x3d0a5a82	0.03377772
108	0x3cb678f7	0.022274477
109	0xba358f72	-0.0006925977
110	0x3d01aafd	0.031657208
111	0xbd56069d	-0.0522524
112	0x3cd6aac1	0.026204469
113	0xbcb63d0b	-0.022245904
114	0xbda27559	-0.079325385
115	0xbd2712b1	-0.04078931
116	0xbcd7d5df	-0.026347099
117	0xbd280039	-0.041015837
118	0xbcae7ac4	-0.021298774
119	0xbd42d14a	-0.047562875
120	0xbcfd5608	-0.030924812
121	0x3d387883	0.045036804
122	0xbd1598b0	-0.036522567
123	0xbd227e1c	-0.03967105
124	0x3d5d1d12	0.0539828
125	0xbd1aa0e6	-0.0377511
126	0xbd7976c3	-0.060904276
127	0x3c891455	0.016733328
128	0xbd071f69	-0.03298894
129	0xbcf31636	-0.029673677
130	0x3d11bab4	0.035578445
131	0x3d77802d	0.060424972
132	0x3a9801a9	0.0011597174
133	0xbd02fc40	-0.031978846
134	0xbc8de59b	-0.017321398
135	0x3c15296d	0.009104115
136	0x3cc0b525	0.023523876
137	0xbd48fa84	-0.049067035
138	0xbd1ac5a2	-0.037786134
139	0x3d169780	0.036765575
140	0xbd51085c	-0.051033363
141	0xbd3e00c0	-0.046387434
142	0xbb9c52dc	-0.00477062
143	0x3d1f4819	0.038887117
144	0x3b11df04	0.0022258172
145	0x3d002ac4	0.031290784
146	0xbd66dd85	-0.0563636
147	0xbbe97802	-0.0071249017
148	0x3d62c1f0	0.055360734
149	0xbd0cd8a7	-0.034386303
150	0x3bf5ab42	0.007497222
151	0xbc36e196	-0.011162182
152	0xbcca4814	-0.024692573
153	0x3a47bc32	0.0007619291
154	0xbda21984	-0.07915023
155	0xbd5ff9ba	-0.054681517
156	0xbd5754c9	-0.05257109
157	0xbb3827e7	-0.0028099956
158	0x3ae8ea39	0.0017769999
159	0xbc40b49e	-0.0117618125
160	0x3d25e4f8	0.040501565
161	0xbd6b7c2a	-0.05749146
162	0xbd46c281	-0.048525337
163	0x3d0bea78	0.034159154
164	0xbd5188c7	-0.05115583
165	0xbd03721e	-0.032091253
166	0xbd262063	-0.04055823
167	0x3d19f9c4	0.03759171
168	0x3d88c8ce	0.066789255
169	0xbca4f31a	-0.020135451
170	0x3d0663c8	0.032810003
171	0x3c3ee87b	0.011652107
172	0xbd11f9e7	-0.035638716
173	0x3c82cd19	0.015966939
174	0xbcee4301	-0.029084684
175	0x3b0441f0	0.0020180903
176	0xbda54293	-0.08069339
177	0xbd98ff93	-0.07470622
178	0xbc87c032	-0.016571138
179	0xbda3fb4d	-0.08006916
180	0xbd725e27	-0.059171822
181	0x3d1114d1	0.035420243
182	0x3cb50676	0.022097807
183	0x39e1d877	0.00043076623
184	0xbc21f6b8	-0.0098854825
185	0xbd3024b7	-0.043003764
186	0xbbf8b5f4	-0.00759005
187	0xbbb99892	-0.0056639398
188	0xbd783a37	-0.060602393
189	0x3c95ef88	0.018302694
190	0x3cc328dd	0.023823196
191	0x3c9c11b5	0.019051412
192	0x3d2c0f4c	0.042006776
193	0xbc505386	-0.012715226
194	0x3d5a88d4	0.053353146
195	0x3d66b09c	0.05632077
196	0xbc757ad6	-0.0149829
197	0x3d51c3fa	0.05121229
198	0x3b6174a4	0.0034401799
199	0x3cdca3bb	0.026933542
200	0xbcc7c6cc	-0.024386786
201	0xbc5bcbc0	-0.013415277
202	0xbd6d7aeb	-0.05797855
203	0x3d7dc9b7	0.06195995
204	0x3abe3dd8	0.001451428
205	0xbc177d90	-0.009246245
206	0x3d2f0c67	0.042736437
207	0xbd855f28	-0.0651229
208	0xba57e25b	-0.0008235329
209	0x3b78b0ec	0.003794725
210	0x3d45429b	0.048159223
211	0xbcd07d44	-0.025450356
212	0x3b86db5e	0.004115506
213	0x3cca9c7d	0.024732823
214	0xbc98420b	-0.01858618
215	0x3c747b53	0.014921981
216	0xbc558b81	-0.013033749
217	0x3d16bc77	0.036800828
218	0x3c97e9f0	0.018544167
219	0x3b8ee254	0.0043604765
220	0xbc8f53b7	-0.017495973
221	0xbd0eca9f	-0.034861203
222	0x3af0244b	0.0018321363
223	0xbd53d187	-0.051713493
224	0x3b526b28	0.0032107327
225	0x3b96c99a	0.0046016695
226	0x3ca044af	0.019564
227	0x3cfcc24d	0.030854369
228	0xbc8832db	-0.016625812
229	0x3d568c91	0.05238015
230	0xbd0f1506	-0.03493216
231	0x3d17f4a9	0.03709856
232	0xbce6146b	-0.028085908
233	0xbc14d269	-0.009083369
234	0xbcdc30ac	-0.026878677
235	0xba814064	-0.0009861109
236	0xbcc218aa	-0.023693401
237	0x38155125	3.559994e-05
238	0x3cd31bd4	0.025770105
239	0xbd0b1af1	-0.03396124
240	0xba69b506	-0.0008915219
241	0x3caa89ae	0.020817604
242	0x3c6c9c2b	0.01444153
243	0x3d0c0a99	0.034189794
244	0x3ce4c955	0.027928034
245	0x3d88e602	0.066844955
246	0xbcac2d29	-0.021017628
247	0xbc96af13	-0.018394029
248	0xbca4937a	-0.020089854
249	0xbccb366f	-0.02480623
250	0x3ccca492	0.024980817
251	0xbd02946f	-0.03187984
252	0x3cd19191	0.025582107
253	0x3d461bee	0.04836648
254	0x3ceb9d8d	0.02876165
255	0x3d558fec	0.052139208
