checkpoints/checkpoint_epoch_60.pt (torch, 895184 bytes, 8 tensors)

layers.0.weight f4 [128, 4]
000000 22 cb 97 3e 5b 6c 0b 3e f2 7c 57 bd be 10 a6 3d
       0.29647166 0.13615553 -0.05260939 0.08108662
000010 1a ab 13 3e 1f d7 57 3d 33 39 01 3e 2e 52 a1 be
       0.14420739 0.05269539 0.12619476 -0.3150801
000020 23 36 34 3e fb 7e c6 be 5a 61 a8 3e 29 d6 aa be
       0.17598777 -0.38768753 0.32886773 -0.33366516
000030 71 af 08 bf 4a 8c 93 bd eb 45 15 be 62 9a a0 bc
       -0.533927 -0.072044924 -0.14577453 -0.019604865
000040 14 16 e8 be c5 d5 74 be 6f e0 e3 3e 6c 65 e1 bd
       -0.45329344 -0.23909672 0.44507167 -0.11005673
000050 96 00 c2 3e 5e 42 bc be 85 d9 58 3e e5 3e c6 bd
       0.37891072 -0.36769384 0.21176727 -0.09679965
000060 70 95 0c bf a8 dd e8 3d a3 69 3a be ef d0 ad 3d
       -0.54915524 0.113704026 -0.1820436 0.084871165
000070 77 5a a2 3e 84 5f fb bc c7 2f c7 3e f8 fd 13 3e
       0.31709644 -0.030685194 0.3890364 0.1445235
000080 14 b8 17 bd 43 11 42 be 1a 46 b6 3e 41 81 56 3e
       -0.037040785 -0.18951897 0.35600358 0.20947744
000090 94 b4 14 bf cc 9d cf be bd c7 03 bc 54 bc 4d 3e
       -0.5808804 -0.40550077 -0.008043227 0.20091373
0000a0 96 41 f2 bc fd 06 fc 3e db fc 05 3e ec bf 37 be
       -0.02957229 0.49224082 0.13084738 -0.17944306
0000b0 f3 17 25 be 1c a6 89 3e fb 40 b0 be 9a fd bd be
       -0.16122417 0.26884544 -0.34424576 -0.37107545
0000c0 f6 33 c5 3d fc be 5c be 2f f7 64 3e d7 87 2a 3e
       0.096290514 -0.2155723 0.22359918 0.16653381
0000d0 cf 1e 8c bd 10 40 e3 3e b8 c6 c3 3e 78 33 b4 be
       -0.06841814 0.44384813 0.38237548 -0.35195518
0000e0 11 6e 01 3f be 2d 7d 3c 45 4f eb be 22 77 29 3e
       0.50558573 0.0154528 -0.45958915 0.16549352
0000f0 9c 45 97 3e 5a 4a a4 3e 08 d5 ca be 69 f0 f9 be
       0.29545295 0.32087976 -0.39615655 -0.4881623
000100 f6 33 81 be f5 b9 19 bd 02 c0 54 bd 49 44 a4 bd
       -0.25234956 -0.037530858 -0.051940925 -0.08020837
000110 05 69 82 be 5d 21 bb 3e 06 ab f0 be e3 b8 b6 be
       -0.2547075 0.36548892 -0.4700548 -0.35687932
000120 04 1b b4 be b2 50 d4 3e 05 9e ef be 3c 93 d2 be
       -0.3517686 0.41467816 -0.46800247 -0.41127956
000130 ec 4e 15 3e 08 97 88 3b 29 06 fb 3e c3 9e ae be
       0.14580888 0.004168395 0.49028137 -0.341055
000140 64 68 e2 be eb 97 33 be cf 7d e6 3e ab a4 a5 3e
       -0.4422027 -0.17538421 0.4501786 0.32352194
000150 38 23 c8 be 1b f9 b5 3e 3c 78 2f be 12 26 e9 3e
       -0.3908937 0.35541615 -0.1713571 0.45536858
000160 de d5 84 3e 3e 2c 22 bd e3 f9 e4 3e 9c 23 1b be
       0.25944418 -0.039592974 0.44721898 -0.15150303
000170 81 a5 07 bf 09 13 e0 be 4e 98 96 bd 64 13 21 be
       -0.52986914 -0.43764523 -0.073532686 -0.15730053
000180 e9 f7 c3 bd 02 09 d5 be 2e a6 a7 be 7d fa 7f bc
       -0.095687695 -0.41608435 -0.32743973 -0.015623686
000190 bf b8 58 3e 48 e5 98 3c 0a 27 bb be 3b c0 40 3e
       0.21164225 0.018664017 -0.36553222 0.1882333
0001a0 82 bb 7a 3e c2 02 99 bd db e3 89 3d 2c e8 f4 3d
       0.24485591 -0.07471229 0.06732913 0.11958346
0001b0 ec fd 8f be c7 96 2c 3e 82 d5 01 be ce 53 90 be
       -0.28123415 0.16854392 -0.12679103 -0.28188938
0001c0 e5 13 c0 3e 1a 24 35 3c e3 0c e1 be fb 49 ab 3e
       0.37515178 0.011055971 -0.43955144 0.3345488
0001d0 4f e4 1a 3d f6 cb b4 3e d6 c3 dd 3d 33 bd dd be
       0.03781539 0.3531186 0.10828368 -0.4330841
0001e0 33 45 54 be 65 b5 29 be 1f df bd 3e 46 57 06 be
       -0.20729522 -0.16573103 0.3708429 -0.1311923
0001f0 bc 5f 37 bd 7f d1 b0 be 0b 02 13 be 40 a2 3e 3e
       -0.044769034 -0.34534833 -0.14356248 0.18616581
000200 16 83 c8 3e c7 a9 a3 be 56 6a 6c be 68 7c 87 be
       0.3916251 -0.31965467 -0.23087439 -0.26462102
000210 12 41 85 bd 71 7c 04 3e 22 e3 e8 3d 60 70 a4 3d
       -0.06506552 0.12938096 0.11371447 0.08029246
000220 b3 e1 f7 3d 41 fb 89 be 43 01 55 be 55 6d d6 3e
       0.121035956 -0.26949504 -0.20801263 0.4188029
000230 46 4f c5 be 72 b6 04 bc e8 d5 e0 3e cc 8d 77 3e
       -0.38537043 -0.008100139 0.43913198 0.24175185
000240 e1 c5 b8 be dd d7 a4 3e 72 22 52 3d 57 d4 63 3e
       -0.3608847 0.3219594 0.05130238 0.2224897
000250 90 40 34 3e c9 7e b4 be cd 00 a3 be e4 4d a1 be
       0.17602754 -0.3525298 -0.31836548 -0.31504738
000260 3f 5d 12 3e b0 59 08 be ee 20 84 3d ad d7 e1 3e
       0.14293383 -0.13315463 0.06451593 0.4410986
000270 6a 6a 3f bd 85 7c 1f 3d 38 7d 59 39 a2 6a bc 3e
       -0.046732344 0.03893711 0.0002074138 0.36800104
000280 1d 53 03 bf f3 89 4e bd af 1f a1 be a7 ef 7a 3e
       -0.51298696 -0.050424527 -0.31469485 0.24505483
000290 18 1a 27 be e2 9c 47 3e 8d 9a 80 be 82 fd 49 be
       -0.16318548 0.1949344 -0.25117913 -0.19725612
0002a0 3d 7c b3 bc 60 65 e2 be 02 00 46 3d 1a 35 8f bd
       -0.021909827 -0.44217968 0.04833985 -0.0699255
0002b0 99 e2 f7 3e 4b be df be ad 32 9b be ae 36 fa bd
       0.48415068 -0.4369987 -0.303121 -0.122174606
0002c0 ea 5c 34 be 53 39 1b 3e 91 1b 9a 3e d8 36 bf be
       -0.17613569 0.15158586 0.30099156 -0.3734653
0002d0 03 81 05 3f b0 18 95 3e 89 68 90 3d 63 d8 9a bd
       0.5214998 0.29120398 0.070511885 -0.07560804
0002e0 28 56 bc 3e c4 c2 34 3e bb 14 e2 3e 73 24 1f bd
       0.36784482 0.17652422 0.4415644 -0.03885312
0002f0 94 60 25 be e1 42 00 3f 38 96 19 be f6 98 41 be
       -0.16150123 0.5010205 -0.1499871 -0.18906006
000300 b5 19 d9 be aa fd b2 be e7 dc 57 be c2 f3 cb 3d
       -0.42402425 -0.34959155 -0.21080361 0.099586025
000310 07 f6 02 3f 2a 31 4b 3d da 68 94 be 2a b3 35 bb
       0.5115666 0.049607433 -0.28986245 -0.0027725198
000320 e5 b6 ca 3d 19 cd 9b 3e cf f7 15 3e 60 d0 c3 3e
       0.098981656 0.30429915 0.14645313 0.38244915
000330 46 98 94 be 7e f0 16 be ea 99 eb 3d 20 50 28 be
       -0.29022425 -0.14740178 0.11503966 -0.16436815
000340 93 09 f6 be fc 41 b0 bd 54 6d f4 3e 81 46 c0 be
       -0.4805418 -0.086063355 0.4773966 -0.3755379
000350 10 20 13 3d 00 ed dd be ea 2d e5 3e 7f 3a dc be
       0.03591925 -0.4334488 0.44761592 -0.4301338
000360 ad 28 c0 3d aa d4 cb 3e 2d 4a 6f bd 41 f0 9f 3e
       0.09382758 0.39810687 -0.05842035 0.31237987
000370 e0 b2 a7 3d 7f b4 89 be 17 0d 80 3c f7 b4 5d 3e
       0.081884146 -0.2689552 0.015631242 0.21651064
000380 af 54 01 bf 5e 14 f6 bd 72 9e d9 be ba a6 89 3e
       -0.5051984 -0.120156035 -0.42503697 0.26885015
000390 bb 16 99 3d 88 1e ce be 58 4a dd be 41 de 99 be
       0.074750386 -0.40257668 -0.43220782 -0.3005238
0003a0 09 bd 1f bf ef 22 5e 3e 17 ea cf be e9 7b d6 be
       -0.6239782 0.21693014 -0.40608284 -0.4189141
0003b0 4c ed 3d be a4 1d a1 3e b5 e6 e9 bc d1 dc 87 3e
       -0.18547553 0.31467927 -0.028552392 0.26535657
0003c0 bb 2b 4c 3e 36 fd d5 3e f1 d1 00 bf 83 b2 ba bc
       0.19938557 0.41794747 -0.50320345 -0.0227902
0003d0 01 19 a3 3e ad 5a f3 3e 52 8e b4 3d a8 d4 e9 3c
       0.31855014 0.47530118 0.08816208 0.028543785
0003e0 67 09 aa 3e c7 e6 9e 3d 79 63 55 be 5f 8a c7 bd
       0.33210298 0.07758861 -0.20838727 -0.09743189
0003f0 67 c2 54 bd 17 75 f7 bb 33 90 a3 3e e2 b9 ba 3e
       -0.05194321 -0.0075518 0.31945953 0.36469942

layers.0.bias f4 [128]
000000 20 60 f2 be 67 d7 97 3e 5a 4b 19 bd e8 43 89 3d
       -0.47338963 0.29656526 -0.037425376 0.06702405
000010 75 62 ea be 6a 32 09 bd 0d e9 71 bc c9 a7 b9 bd
       -0.45778242 -0.033495344 -0.014765036 -0.090652056
000020 36 4d 85 3e 82 47 cc 3d d0 7a 12 be 94 68 40 be
       0.2603547 0.099745765 -0.14304662 -0.18789893
000030 7b a2 9c 3e 38 3f a2 be 68 1d b7 be 8b e2 cf be
       0.30592713 -0.31688857 -0.35764623 -0.40602526
000040 c2 ea d1 be ea ae c7 3e 23 9d 83 be 28 e5 ea 3d
       -0.40999418 0.39000636 -0.25705823 0.11469489
000050 3e b1 ae be cc 4a 90 bc 29 8b b6 be 35 9e d4 3d
       -0.341196 -0.01761379 -0.35653046 0.10381738
000060 b3 d5 e5 be 09 b5 a0 be 6e 8e b5 3e e5 81 40 bd
       -0.44889602 -0.3138812 0.35460228 -0.046998877
000070 34 ab 8d 3e 18 07 8f 3e 0a 04 9e 3e 49 c7 ce be
       0.2766968 0.279351 0.30862457 -0.40386418
000080 46 49 c0 bd 11 ab a3 3e 7f c7 61 bd 74 b4 8e be
       -0.09388976 0.3196645 -0.055121895 -0.2787205
000090 c5 48 a0 3e 88 37 d7 be 32 79 e5 3e 28 fe be be
       0.3130552 -0.42034554 0.44819027 -0.3730328
0000a0 69 9c c6 3e ef dc c8 3d 3b a6 ff 3e 7e ec ea be
       0.38791206 0.09807765 0.4993151 -0.45883554
0000b0 9f 99 f7 be b1 56 cb bc 81 b7 f6 be 24 56 67 be
       -0.4835939 -0.024821611 -0.48186877 -0.22591454
0000c0 ad 22 8f bc 40 88 eb 3e 0e 07 57 3e 46 9f e8 3e
       -0.01747259 0.46002388 0.20998785 0.45434016
0000d0 da c5 40 3e 31 aa ec be 1e 38 09 3e a6 dc b4 3e
       0.18825474 -0.46223596 0.13400313 0.3532459
0000e0 9e bb 6c 3d cf 89 38 3e 0f 21 a2 bc 39 5c e6 3e
       0.057796113 0.1802132 -0.019791154 0.44992235
0000f0 41 22 9f be fa 62 0f be 16 0c 75 3e de 6e d1 3e
       -0.3108082 -0.140026 0.23930392 0.40904897
000100 e1 41 70 3e d7 0d eb 3e cf 34 ed 3e d4 9a 00 3f
       0.23462631 0.45908996 0.46329352 0.5023625
000110 9f 76 17 3d 18 60 49 3e 76 6b 04 3f ae f7 bc 3d
       0.03697836 0.19665563 0.5172647 0.09226929
000120 aa 68 d5 be 70 cb 2d be fc 55 27 be 5e 3a f8 3e
       -0.41681415 -0.16972136 -0.16341394 0.4848203
000130 bd 11 cc 3e 1e 44 c3 be ed be d0 3e cc 88 df 3e
       0.39857283 -0.38137907 0.40770665 0.43659055
000140 45 81 0e 3f 6d 4e 0c 3e 06 ae 83 3e 23 e0 cd bd
       0.55666 0.13701792 0.25718707 -0.10052516
000150 25 a3 62 3e 10 af 33 3e f2 84 57 3e e5 a1 b0 be
       0.22132547 0.1754725 0.21046808 -0.34498516
000160 38 82 1c 3e 76 54 90 be ca 13 9b 3d 27 41 cc be
       0.1528405 -0.2818944 0.07572134 -0.39893457
000170 26 9b f4 3e 5e e0 c1 3d 8c dc c2 3e 36 6a 5d 3e
       0.4777462 0.09466623 0.3805889 0.21622548
000180 52 de 41 3c c1 7e fd 3e 60 2f 8e 3d 38 d0 c8 bd
       0.01183279 0.49510768 0.0694263 -0.098053396
000190 d4 d2 ba 3e 1c cb 7e 3d 27 10 f5 be 1d 30 cf bd
       0.36488974 0.06220542 -0.47863886 -0.10116599
0001a0 ee 59 ec 3e 97 5d e7 3e 85 9d be 3c 2f 5f d9 3e
       0.4616236 0.4518859 0.02326847 0.42455432
0001b0 ad 8a 84 be ad 7b c2 3e 7c fc 90 3e 50 20 50 be
       -0.2588705 0.37984982 0.2831763 -0.20324826
0001c0 5f 98 a2 bc 73 6a 92 3d 79 0c 2c be a8 16 28 be
       -0.019848047 0.0714921 -0.16801633 -0.16414893
0001d0 15 1e 0e be 75 e2 ad be f4 e7 a1 3e b3 21 d2 3d
       -0.13878663 -0.33961836 0.3162228 0.10260334
0001e0 8f 74 cf 3d 71 a6 d4 3e ff 7a d2 be 4d 26 01 be
       0.10129654 0.41533235 -0.41109464 -0.12612267
0001f0 f8 04 e9 be d7 23 e8 be 02 21 0e be ed b2 a2 3e
       -0.45511603 -0.45339844 -0.13879779 0.31777135

layers.3.weight f4 [256, 128]
000000 7b bd 3e bd 02 b2 fe 3b 63 89 ab bd 61 21 97 bd
       -0.04656742 0.007772685 -0.08375814 -0.073794134
000010 ae b4 84 3c e9 4a 3e 3c 9a 9a 9c 3c 14 4d a3 bd
       0.016199436 0.01161454 0.019116689 -0.07973686
000020 eb 27 c3 3d e7 f4 b0 bd c2 fe 8d bd cd 33 0d bd
       0.09529098 -0.086404614 -0.06933357 -0.03447323
000030 4d 92 77 bc 2b 45 54 bd c6 bc a4 3d 56 53 96 bc
       -0.015110564 -0.051823776 0.08043818 -0.018350285
000040 5b 3d 3d 3c 99 8c 99 3d d2 af 01 bb 60 d8 f7 3b
       0.011550273 0.0749752 -0.0019788635 0.0075636357
000050 c6 70 52 bd 4b cf 00 bc 10 97 ec 3c 4d 3a bf bd
       -0.05137708 -0.0078619225 0.028880626 -0.09337292
000060 88 7c 3a 3d d1 14 0f 3d 33 fa 8f 3c 26 05 4a bd
       0.04552892 0.03493196 0.017575359 -0.049321316
000070 13 c3 27 bd 35 b6 93 bd 4a 9e 21 3d f6 d8 ee 3a
       -0.04095752 -0.072124876 0.039457597 0.0018222618
000080 79 12 78 3d 0a 5d 6f bd 6d 53 14 bc c9 b1 9a bd
       0.060564492 -0.05843834 -0.009053093 -0.07553441
000090 ff 64 7f bd 78 9f 6a 3d 11 c8 8b 3d 75 ec fa 3c
       -0.062352177 0.057280988 0.06825269 0.03063033
0000a0 a4 75 37 bd 02 f4 60 bd 98 2c da 3c 4b d4 95 3d
       -0.044789925 -0.054920204 0.026632592 0.07315882
0000b0 bc 45 85 3d 35 d8 25 bd 8c c5 fe bc 34 5e 71 bd
       0.065074414 -0.040489394 -0.031100057 -0.05892773
0000c0 29 dc 89 3d f6 51 df 3d 9f 1f 08 3c c0 22 43 3d
       0.06731445 0.10904305 0.00830832 0.047640562
0000d0 2b 63 3c bd 95 fd 87 3d cd 17 06 3d f5 f0 c6 b9
       -0.04599301 0.06640164 0.032737542 -0.0003794503
0000e0 79 d2 5a bd 94 63 f7 bc c5 09 ba bd 05 4a 92 3c
       -0.05342338 -0.03019885 -0.09083895 0.01785756
0000f0 6a 14 3c bc a9 0d 89 bc 96 2c cf bc 66 8a 39 3d
       -0.0114794765 -0.016730146 -0.025289815 0.045298003
000100 97 d8 bc bc 8e 80 b9 3d 2d 9a e4 3d 0e 32 b9 3d
       -0.023052497 0.09057723 0.11162219 0.0904275
000110 82 bc d0 bc ea 54 47 bd f5 19 88 bc 58 15 92 bb
       -0.025480513 -0.048664965 -0.01661394 -0.004458111
000120 cf 7d 02 3d c7 4a 99 bd 02 46 87 3d 43 d4 a0 3d
       0.03185826 -0.07484966 0.0660515 0.07852986
000130 b1 2f a6 bb d4 de b7 bc 16 95 c0 3d e3 f0 63 3b
       -0.005071603 -0.02244512 0.09403436 0.003478103
000140 d2 66 53 3d bd 97 9c bc 98 5d 48 bd bc b4 b7 bd
       0.05161173 -0.019115323 -0.048917383 -0.08970019
000150 d5 7a 46 bd 86 c0 9c bd be 94 bf 3c 18 a1 9f 3d
       -0.048456986 -0.076539084 0.023386355 0.07794398
000160 0a 53 8d 3d 22 10 3a bd 9d 6f 42 3d 59 5f f0 3c
       0.06900604 -0.04542554 0.047469724 0.02934234
000170 13 3b ab 3d 79 fb 3d 3d 0c e5 9c 3d 5b bc 7f 3d
       0.08360877 0.0463824 0.07660875 0.06243549
000180 f9 d0 91 bc 5c 62 c8 3b 52 46 83 3b e6 df 88 bc
       -0.017799841 0.006115241 0.0040061856 -0.016708326
000190 b1 e6 66 3d ea 59 5f 3d ad c1 97 bd f8 bf c2 bc
       0.05637235 0.054529108 -0.074099876 -0.023773178
0001a0 a8 cb 4c bc e4 93 9f bb 63 1f 95 3c 0b c0 50 bc
       -0.012499727 -0.004869925 0.018203443 -0.012741099
0001b0 9b 5c a0 bc 43 cf d1 bc f1 d0 10 3d f8 73 ea bc
       -0.019575408 -0.025611525 0.035355512 -0.028619751
0001c0 00 9b ad bd 53 09 4f 3c 5a 44 01 3c e7 be 89 bd
       -0.084768295 0.0126365 0.007889831 -0.06725865
0001d0 f9 96 a6 3c d7 e5 b1 bd 88 02 a4 3d fa 4d c2 3c
       0.020335661 -0.086864166 0.08008295 0.023718823
0001e0 10 7d ff 3b e0 42 8f 3d 27 c9 4a 3c 0d 6c 79 bd
       0.007796891 0.06995177 0.01237706 -0.06089406
0001f0 4d 2f 28 bd 00 9d e4 3c af 4f 97 bc 13 6b de 3c
       -0.041060735 0.027906895 -0.018470613 0.027150666
000200 6e d9 77 3d 9f cc 26 3d c4 a4 b2 bc 0a 3d e8 bc
       0.06051009 0.040722486 -0.021807082 -0.028349418
000210 6b 9c 7a bd 81 e4 37 bd 2c d9 4c bd 0d 4e 90 3d
       -0.061184328 -0.044895653 -0.0500118 0.07046137
000220 23 fe 0d bd ab ef 14 bd 23 29 8d 3d ee 15 70 bd
       -0.03466619 -0.036361378 0.06892612 -0.058614664
000230 42 6b 91 3d 87 08 58 3c f8 77 9b bb 4a 3b 6d bd
       0.07100536 0.013185627 -0.004744526 -0.05791787
000240 b8 db ae bd 4d 4b 04 3d 2b 0b a7 bd 37 63 b3 3d
       -0.08538002 0.032298375 -0.08156427 0.08759158
000250 5d 9e 64 bc fe d8 89 bd 62 8a 95 ba ea ef 42 3c
       -0.013953772 -0.06730841 -0.0011409039 0.01189802
000260 43 d9 8a bd 27 95 94 bd 0d 74 aa bc 02 ca 26 bd
       -0.06779721 -0.07255011 -0.02080729 -0.040719993
000270 53 19 db 3d 6c 4b 13 3d 2a 39 37 bd 29 38 b2 bd
       0.106981896 0.0359606 -0.04473225 -0.08702118
000280 e3 72 aa bd 5b a2 41 3d 35 0d 05 3d fe 9e 82 bd
       -0.08322694 0.047273975 0.0324833 -0.063779816
000290 c7 41 62 3c 8e 65 4b bd 24 1f b5 3d 41 dd 66 3d
       0.013809628 -0.049657397 0.0884383 0.056363348
0002a0 dd 04 56 bd a3 08 9b 3b dc 95 92 3d c9 eb 91 bd
       -0.05225073 0.004731254 0.0715749 -0.071250506
0002b0 b0 12 2f bd f5 56 34 bd 12 5c 3a 3d 73 54 90 bd
       -0.04274243 -0.04402824 0.04549796 -0.070473574
0002c0 c4 c2 ef bc a8 90 00 3d 30 0b 7f 3d 77 e5 07 bc
       -0.029267676 0.031387955 0.06226653 -0.008294455
0002d0 0a 64 00 bd 69 b3 99 bb 4e ad 95 bd d2 78 87 bc
       -0.031345405 -0.004690577 -0.07308446 -0.016537104
0002e0 51 bd 44 bd de 00 b9 3d 05 1e 51 3c bf 26 d1 3d
       -0.04803211 0.090333685 0.012763505 0.10212468
0002f0 08 92 ea bc b1 2a 00 3d 75 43 bb 3c 8a 6b 0f bc
       -0.028634086 0.031290714 0.022859314 -0.008753667
000300 e0 69 26 bc c1 97 1e bd ae 86 7e 3d f1 8b 1b 3a
       -0.0101570785 -0.038718943 0.06214016 0.00059336337
000310 91 6b bb bd 5a 56 56 bd 10 d0 db 3b 9c 3d ef bc
       -0.09151376 -0.052328445 0.0067081526 -0.029204182
000320 df 05 74 bc 9e a6 1c bc d3 63 23 bd 58 49 aa 3d
       -0.014893978 -0.009561209 -0.03989012 0.083147705
000330 f0 b4 1e bd 8c c1 a6 bc 94 6f 79 3d e5 47 b7 3d
       -0.038746774 -0.020355962 0.060897425 0.0894926
000340 79 b7 85 3c 60 2b dd 3c a4 69 30 3d 3e 43 c4 bd
       0.016322838 0.026998222 0.043069497 -0.09583138
000350 48 5b 95 3d bc 77 12 bd d1 46 1a 3d 58 ac 10 bd
       0.07292801 -0.03575872 0.037665192 -0.03532061
000360 f3 bf 99 3c 5f 39 74 bd 5c 7e 8e bd 44 fe f3 3a
       0.018768286 -0.059625026 -0.06957695 0.0018615206
000370 a1 0b 2c 3d dd 63 70 bc db 57 a0 bc 62 fb bb 3c
       0.042003278 -0.014672247 -0.019573143 0.022947017
000380 6f 41 57 bd d6 34 21 bb 9c 4b 81 bc bb 5f 96 3d
       -0.052552637 -0.0024598143 -0.015783124 0.07342478
000390 f6 53 cb 3d 61 bd a4 bd b6 d5 ac bc ef 3a 4f 3d
       0.09928124 -0.08043934 -0.021097999 0.050593313
0003a0 3d 7a 4d 3b ef 61 b1 3d c9 73 e2 bc 47 d8 23 3d
       0.0031353377 0.086612575 -0.027643101 0.04000118
0003b0 0b c6 ab bd 8b 6c 44 bd 40 cf 88 3c ea 81 9d bd
       -0.08387383 -0.047955077 0.016700387 -0.07690795
0003c0 56 5f ad bd b3 23 8c bd 3b 0f 86 3b fa f5 45 3d
       -0.084654495 -0.068427466 0.004091171 0.048330285
0003d0 6a 9b 62 bd 48 27 94 bd 06 32 ae b9 d0 48 18 3d
       -0.055323996 -0.07234055 -0.00033225137 0.037178814
0003e0 b5 0e 4e 3d c0 9b 2a bc 48 05 97 3c 9d 8f 32 3d
       0.050306994 -0.01041311 0.018435135 0.04359399
0003f0 df 61 8b 3d 82 f8 57 bd 45 3b 17 3d 31 61 9b bc
       0.06805777 -0.05272723 0.03692176 -0.018967243

layers.3.bias f4 [256]
000000 a4 cb 3b 3d 19 42 ab bc c1 3f bf bc bb 45 8c bd
       0.045848504 -0.020905541 -0.02334583 -0.068492375
000010 f0 3d 44 3b c2 48 00 3e b3 4d fa 3d 00 04 37 3d
       0.0029944144 0.12527755 0.12221851 0.04468155
000020 e3 cf 1f 3c d4 47 8d bd 79 5a 9f bd 11 3e 7e 3c
       0.009754154 -0.06898466 -0.07780928 0.0155177275
000030 db 0e e1 3d 6b e8 96 3d 5a c0 a0 bd 1c 6e c6 3d
       0.109891616 0.07368549 -0.07849188 0.096889704
000040 ae 0d cb bc 2f 59 68 3d 41 42 72 3d 3d 16 4a bd
       -0.024786796 0.056725677 0.059145216 -0.049337614
000050 a6 f3 b3 bd f4 43 97 3d d3 e8 ea 3d b4 04 90 3c
       -0.087867066 0.07386008 0.11470189 0.017580368
000060 73 88 ce 3d c0 7d bb 3d 30 8e 0d 3d a0 43 38 3c
       0.100846194 0.09154844 0.03455943 0.011246592
000070 a2 68 00 3d a8 08 13 3e f8 1b a0 bd 79 b1 ab 3d
       0.031349786 0.14358771 -0.078178346 0.083834596
000080 0e a7 21 3e 92 41 4c 3b ed 04 8c 3d cc 92 04 3e
       0.15786383 0.0031167013 0.06836877 0.12946624
000090 91 a3 70 3d 53 60 db ba a7 78 13 3e b9 2e c3 3d
       0.05874974 -0.0016737081 0.14401494 0.09530396
0000a0 b6 d2 a3 ba 17 1b f9 3c cb ee a3 3b f2 df 18 3c
       -0.001249871 0.030408425 0.0050028316 0.0093307365
0000b0 44 5f 81 3d 7b 89 9c 3d 1c be 58 bd 3a 9a b6 3d
       0.063169986 0.0764341 -0.052915677 0.08916135
0000c0 0a b4 98 3d 8c 12 c2 bc 67 92 56 bc a1 be e3 bc
       0.07456215 -0.023690484 -0.0130964285 -0.02780086
0000d0 02 cd 67 3d 61 9d eb 3d 85 05 e5 3d 15 dc b7 bd
       0.056591995 0.11504627 0.111826934 -0.08977524
0000e0 1a c3 70 bd 25 74 f2 3d 09 8d 58 bd ea ec 5d bd
       -0.058779813 0.11838559 -0.052868877 -0.054181017
0000f0 d5 1b 62 3c 4d 9d 01 bc b3 57 a1 bd 54 40 97 3b
       0.013800581 -0.007911039 -0.078780554 0.004615823
000100 44 d1 cd 3d f0 d4 3b bb ce c5 aa bd 04 97 99 3c
       0.1004968 -0.0028660856 -0.083385095 0.018748768
000110 82 e3 4c 3d 11 c0 94 bc 60 52 94 3d 3c a6 cf 3d
       0.050021656 -0.01815799 0.07242274 0.101391286
000120 62 8b b8 bd b8 25 2b 3e 3d 9e 28 3c 39 7c c6 3d
       -0.0901096 0.16713607 0.010291633 0.09691662
000130 2a 7d 6e 3c 1b de 9f bd e5 46 83 3d 7e 11 68 3c
       0.014556209 -0.07806035 0.064100064 0.014164327
000140 0b 30 e7 bc 23 8d a5 bb 72 50 b2 3d 8b 17 f1 3b
       -0.02822115 -0.005052225 0.0870675 0.007357543
000150 16 d5 9f bd 54 51 5e bd b6 f5 29 bc 25 f0 f8 3d
       -0.07804315 -0.05427678 -0.010373523 0.12155179
000160 d8 4e af 3d 56 b4 ad 3c 3f f1 77 bd ce de bb 3c
       0.0855996 0.021204155 -0.060532805 0.02293339
000170 f6 b0 7b bd e4 09 73 bc f5 67 68 3d ee 76 7f 3d
       -0.06144806 -0.014833901 0.056739766 0.06236928
000180 cc 38 63 3d 9d 60 cd 3d b5 b3 21 bb 6e d7 0f 3e
       0.055474088 0.10028193 -0.0024673764 0.14047024
000190 d8 f7 a7 3d 47 0e 62 3c 49 0c fe 3d 6c f2 1d 3e
       0.08201569 0.013797349 0.12404687 0.15424508
0001a0 42 b5 0d bd 65 a0 4c 3d a4 1e f9 bb 30 ff a7 3d
       -0.03459669 0.04995765 -0.0076025296 0.0820297
0001b0 6e 75 d8 3d 88 63 5f 3d 8a d4 81 bd 30 81 91 bd
       0.10569273 0.05453828 -0.06339367 -0.07104719
0001c0 32 38 2e 3d e1 43 c5 3c 7a ba 69 bd d0 ee 17 bc
       0.04253406 0.024080219 -0.057062604 -0.009273246
0001d0 23 8c 94 bd 5f 82 0c 3d ae 25 c3 bd be a8 f4 bc
       -0.072532915 0.03430402 -0.09528671 -0.029865619
0001e0 c2 94 79 3d af 0b 8a 3c e1 e2 60 bc 9d e6 07 3d
       0.060932882 0.016851274 -0.013725967 0.033178914
0001f0 7a 2e 78 3d d8 4b 5b bd 74 62 31 bb 3f de 70 3c
       0.0605912 -0.053539127 -0.002706674 0.014701425
000200 36 59 44 3d b5 42 b1 bd 94 16 02 bb 7d 94 05 3d
       0.04793664 -0.086553015 -0.0019849883 0.032612313
000210 91 d4 da ba 7f ea d1 bb 21 69 0f bc 6c b1 2d 3e
       -0.001669543 -0.006406128 -0.008753092 0.16962212
000220 da 69 61 3d 83 b3 bc 3c 3a 84 85 3d 60 dd 87 bb
       0.05503259 0.023034817 0.06519361 -0.004146263
000230 68 ee 9b 3d 36 b2 97 ba 51 c3 06 bd e4 13 c7 bc
       0.07613832 -0.0011573497 -0.032901112 -0.024301477
000240 bf dc 9e 3d 78 72 3e 3c 8d ff 7d 3d 37 c9 66 bd
       0.07756948 0.011623971 0.06201129 -0.056344237
000250 e1 6a 65 bd 33 e1 1c 3e 72 f9 ea bc 49 6d a4 bd
       -0.05601013 0.15320282 -0.028683398 -0.08028657
000260 2c d5 a1 3d 80 c9 8c 3d b7 bb 12 3d 60 d0 98 3d
       0.079019874 0.068743706 0.03582355 0.074616194
000270 e7 26 75 bd 80 f7 b0 3d 63 87 2c bc cf 46 87 bc
       -0.059851553 0.08640957 -0.010530326 -0.016513256
000280 dc f0 02 3e fd 17 75 bd 08 f5 dd 3d ca 42 ad bc
       0.12787193 -0.05983733 0.108377516 -0.021150012
000290 be a4 0d bd 6f 10 9e bd 44 ef f4 3c 0c 62 03 3e
       -0.03458094 -0.07717978 0.029899247 0.1283037
0002a0 db 15 97 3c d8 0d 25 3d 68 db 67 bc 68 7d fb bc
       0.018443039 0.040296406 -0.014151432 -0.030699447
0002b0 ae 62 48 3d cc 10 1f 3d 35 f6 66 3d 25 a1 3e bd
       0.048922233 0.038834378 0.056387145 -0.0465404
0002c0 69 5a f0 bc 5d 4f 5a 3d 75 73 62 3d bb 52 47 bc
       -0.029339986 0.053298343 0.05528589 -0.012165721
0002d0 8d ac 50 3c 7c 52 66 bd 29 4c 66 3d 78 6e de 3c
       0.012736452 -0.056231007 0.056224976 0.027152285
0002e0 9a d9 02 3c ee 61 4c bd 70 3b 6a bd 35 20 9b 3c
       0.007986451 -0.04989808 -0.05718559 0.018936256
0002f0 2c ad 1b bd cd 0d 34 3d a2 b3 05 3e 89 2d 15 3c
       -0.038006946 0.043958474 0.13056806 0.009105095
000300 ec 3c 7b bd 4a 25 31 3d 9a 66 84 bc 1e c0 d5 3d
       -0.061337397 0.043248452 -0.016162205 0.10437034
000310 89 7a 80 3d fe 8f 0a 3c 19 3a 47 bd 77 aa 13 3d
       0.06273372 0.008457182 -0.04863939 0.03605124
000320 18 06 9b 3d 50 d3 1b 3e 70 d2 f3 3d 15 31 7a 3c
       0.07569522 0.15217328 0.11905372 0.015270491
000330 13 eb 95 bd 23 bd 6d bd f2 eb 72 bd 0f 8c af bd
       -0.073202275 -0.058041703 -0.059307046 -0.08571636
000340 1b da 74 3d 35 ed ea 3c 42 e3 39 3e 41 47 6c bc
       0.059778314 0.028677562 0.18153098 -0.014421285
000350 5f 87 f3 3d 4e f9 26 b9 12 68 ee 3d c1 88 fc 38
       0.11891054 -0.00015923867 0.116409436 0.00012041769
000360 91 22 77 3d 2c 7e 0c 3d eb 38 5a bc 9c ff 4d 38
       0.0603357 0.034300014 -0.013319234 4.9113863e-05
000370 df 63 0e bb 54 3d f4 3c e0 0c 27 bd 36 20 fb 3d
       -0.0021727008 0.0298144 -0.040783763 0.12262003
000380 96 93 60 bd 2c e1 89 3d 4b 8e 9c 3d 7d 78 02 bd
       -0.05482825 0.06732401 0.07644328 -0.031853188
000390 6e 7a 2f bd 53 4c d8 3c 3d 55 b5 3d 2c ba 08 3e
       -0.042841367 0.026403582 0.088541485 0.13352269
0003a0 ce 00 64 3a 7d 9c 0a 3d ad 89 4b 3d 0d b3 9d 3d
       0.00086976297 0.033840645 0.049691845 0.07700167
0003b0 76 a0 13 3d 2f 1e 86 3d 88 8f bf 3d f7 9f 9d 3d
       0.0360417 0.06548726 0.09353548 0.076965265
0003c0 d4 32 36 3d 4d 6c 20 bd 0e 07 bb 3c b9 32 bc 3d
       0.044482067 -0.039165784 0.022830512 0.09189362
0003d0 e1 ca 96 bd a8 06 67 3d e0 b4 6a 3c 39 4d aa bd
       -0.07362915 0.056402832 0.0143253505 -0.0831551
0003e0 be 7b 59 bd fb ce 2e bd db a4 1c 3e 0f d3 2c 3d
       -0.053096525 -0.04267786 0.15297262 0.04219347
0003f0 17 dc cf 3d a7 d4 fd bc bb 53 93 bd 96 26 8a 3d
       0.10149401 -0.03098519 -0.07193705 0.06745641

layers.6.weight f4 [256, 256]
000000 00 d4 94 bc 86 3e 7f 3d 0e 42 4b 3d 0f a1 b1 3c
       -0.018167496 0.062315486 0.04962354 0.021683244
000010 32 98 18 bc 7a fa 67 bd 0b 4a ec 3c c8 53 43 3d
       -0.00931363 -0.056635357 0.0288439 0.047687322
000020 75 63 08 bd 83 0d 3a bd 6d c8 b8 3b ad bd 58 3c
       -0.033297975 -0.045423042 0.005639127 0.013228816
000030 6d 57 2b 3d 0d d9 01 3d 51 1d cf bc 21 7a 51 bd
       0.041831423 0.031701136 -0.025282534 -0.05114186
000040 01 ee 43 bc 29 fc 14 3d f5 2a 24 bd 77 19 89 bb
       -0.0119586 0.03637329 -0.04008003 -0.004183944
000050 59 87 3e bd 39 2d 20 bd 49 4f 57 3d c0 fb 7d 3d
       -0.046515796 -0.039105628 0.052565847 0.062007666
000060 2d 32 2f 3b 84 bc 22 3d a8 cc 51 bc aa cf 4d 3d
       0.0026732788 0.039730564 -0.0128051415 0.050246872
000070 75 6e 38 bd 13 a1 09 3b f3 0b 41 3d b7 26 57 bd
       -0.045027215 0.0021000549 0.047130536 -0.052527156
000080 f1 de 8e bc e1 3b 2e 3d da 23 63 3c 55 c1 70 bd
       -0.017440291 0.042537574 0.013863528 -0.058778126
000090 fb 38 dc bb e1 a7 cb 3c 6e ef e6 bc 73 c8 a9 bc
       -0.00672066 0.024860324 -0.02819034 -0.020725464
0000a0 c2 53 53 3d b0 c0 f1 3c 7d 74 20 3c 71 1d ac bb
       0.05159355 0.029510826 0.009793398 -0.005252533
0000b0 d5 4c 30 bd c8 6c 2e 3c 31 29 d5 bc 4d ae 00 bd
       -0.043042023 0.010646053 -0.026020618 -0.031416226
0000c0 44 5f 13 bd af 43 cb bc 3c d4 47 bd 2f d3 df 3c
       -0.035979524 -0.024812547 -0.048786387 0.02732238
0000d0 03 6f 98 3c 5e 04 e9 bc 93 41 00 bc ee af e6 bb
       0.018607622 -0.028444465 -0.007828134 -0.0070400154
0000e0 69 f3 4b 3d 42 34 b5 3b ea 61 7a bd f3 71 f5 bc
       0.04979268 0.0055299113 -0.061128534 -0.029961562
0000f0 00 a6 e1 3c c3 d0 88 3c b6 99 e7 bc b4 bc 7b 3d
       0.027544975 0.016701108 -0.028271537 0.06145926
000100 36 8b df bc 9d 38 73 bc 2b 50 74 3b 8b 4a 83 3c
       -0.02728806 -0.014845041 0.003727923 0.016026756
000110 4a 27 d3 bc a5 d5 21 3c fd b0 ac bc 35 14 55 bc
       -0.02577557 0.009877597 -0.021080488 -0.013005306
000120 8e 2e 0e bd 9f 1a 45 bd f9 f6 db bc 0a 1f 4b 3d
       -0.034712367 -0.04812109 -0.026851164 0.049590148
000130 69 03 38 3d 05 fc a4 bc 88 5d 78 3d d4 59 03 bd
       0.044925127 -0.020139704 0.060636073 -0.03206809
000140 0b 89 8e 3c f5 83 2f bd fd 38 1c 3d 4d ec 3d 3d
       0.017399332 -0.042850453 0.038140286 0.046367932
000150 76 cd ae 3c 29 98 32 3d ea 4f e0 3c c0 0c 11 bd
       0.021338206 0.043602142 0.027381856 -0.03541255
000160 f0 40 2a 3d c3 64 e8 3c 0b 5b 9e bc cd 1b 0a 3c
       0.041565835 0.02836836 -0.019330522 0.00842948
000170 ff dc 37 3c b8 ca e3 3c fa 00 a8 bc 58 e5 8a 3c
       0.011222123 0.027806625 -0.020508278 0.016955063
000180 d7 e9 58 3d 60 45 35 bd 17 a6 62 3d b2 1e 49 bd
       0.052957382 -0.044255614 0.055334177 -0.04910154
000190 11 99 2e 3c af 28 43 3d 11 57 1c bc ca c8 69 3d
       0.010656611 0.04764622 -0.009542243 0.057076253
0001a0 7f 90 1a bd a5 3d 3b bd d3 ea 2d bc fb 5a 7f 3b
       -0.03773546 -0.045713086 -0.0106150685 0.003896414
0001b0 9b 50 59 bd da 9b 51 3d 05 38 d1 3c 0f d2 6a bd
       -0.053055387 0.051174022 0.025539408 -0.057329234
0001c0 77 a3 b2 bb a7 5e 14 bd 56 52 16 bc 0b 8f 64 bd
       -0.0054516154 -0.03622308 -0.009174904 -0.05580048
0001d0 8a 5d 6c bd 32 73 00 bd f7 95 1e 3d 19 21 ee bc
       -0.057706393 -0.03135986 0.038717236 -0.029068517
0001e0 a8 7a 72 3c 64 da 22 bd 6f 3c 26 bd 13 c2 2b bd
       0.014799751 -0.039759055 -0.040584978 -0.04193313
0001f0 fd d8 7f bd ea 6d 2c 3c 09 c5 0f bd ac 68 b2 ba
       -0.062462796 0.010524252 -0.035100017 -0.0013611517
000200 4d 64 95 bc b3 7f 4d bd 85 f9 bd 3c 15 c2 44 3d
       -0.018236304 -0.05017061 0.02319027 0.048036654
000210 5f e6 e9 3c 51 9a 6d bd 94 13 35 bc d7 97 49 bd
       0.028552232 -0.058008496 -0.011052031 -0.04921707
000220 d0 a7 db bc e6 44 48 3d b4 a7 36 bc 1a 27 61 3d
       -0.026813418 0.04889383 -0.011148382 0.05496893
000230 2f 11 e9 3c 25 4b b4 bb f2 cc 53 3d 7f 10 61 bb
       0.028450577 -0.005502122 0.051709123 -0.0034342108
000240 0b 9a 2e bd d2 34 25 3d 46 cf 19 3d 53 89 93 bc
       -0.042627376 0.040333577 0.037551187 -0.018009817
000250 a0 db 60 3c f9 44 59 3d 0c ba 0f 3d 4b cb 1e 3c
       0.013724238 0.053044293 0.035089538 0.0096920235
000260 99 97 bb bc c6 d3 25 3d 2e cc e6 bc 11 f8 94 bc
       -0.022899436 0.040485166 -0.028173532 -0.018184694
000270 68 c9 07 bc 38 0d 55 bc c8 3f 73 bc e2 59 31 bd
       -0.008287765 -0.01300364 -0.01484675 -0.04329861
000280 1f c2 dd 3c c1 28 3d 3d 92 28 29 bd a8 81 7f bd
       0.027070103 0.046181444 -0.041298456 -0.06237951
000290 fe e8 6b 3d 0b 10 05 3d 4e 08 43 bc 84 58 b4 bc
       0.057595246 0.032486003 -0.011903835 -0.022014864
0002a0 ca 35 d4 bb 93 15 45 bd c8 61 f1 3c d7 20 13 bd
       -0.0064761387 -0.048116278 0.029465571 -0.03591999
0002b0 b3 3f 21 3d 0f 99 61 bd 19 96 11 3a 7e 23 6c 3d
       0.03936739 -0.05507761 0.00055536773 0.057651035
0002c0 6d ee 3d bd 31 cf 65 bd e6 f0 0a bd 22 44 ea 39
       -0.04636996 -0.056105796 -0.033921145 0.0004468272
0002d0 43 71 21 bb ab eb 19 3d 06 fa 43 bb 12 2a 7d ba
       -0.002463416 0.037578266 -0.0029903664 -0.0009657453
0002e0 f4 fc 83 bc 9e 34 15 bd 28 32 5d bc 21 ab 8a bb
       -0.016111828 -0.036427133 -0.013500728 -0.004231826
0002f0 2b 9d 81 bb 40 38 a2 bc 79 f5 34 3c 1a 00 56 bd
       -0.0039555035 -0.019802213 0.011044853 -0.05224619
000300 93 44 b8 3c 4c df 3b 3d 30 74 59 3d 50 f4 1d 3d
       0.022493636 0.04586725 0.05308932 0.038563073
000310 e1 0c 51 bd d7 60 6a 3d 49 ff 7a bd d7 c2 03 3d
       -0.051037673 0.05722126 -0.061278615 0.032168236
000320 73 91 a5 bc 29 0e ac bc e5 ba 4c 3d 25 62 68 bd
       -0.020210957 -0.021002846 0.049982924 -0.056734223
000330 49 10 05 3d 39 02 0d bd 66 24 27 bd 84 f4 ab 3c
       0.032486234 -0.034425948 -0.040806197 0.020990618
000340 e8 ef 24 bd 13 24 2a bd fa 97 5c 3d 7c b8 03 bd
       -0.040267855 -0.04153831 0.053855874 -0.03215836
000350 f1 76 67 bd 9d 56 ba 3c f8 14 00 3d c3 67 9b 3c
       -0.056509916 0.022746379 0.031269997 0.018970376
000360 c7 41 be 3c 93 67 5c bd c3 8f 04 3d 41 bf 1a 3d
       0.023224724 -0.053809714 0.032363664 0.03778005
000370 fb 83 74 bd e4 64 41 3c 39 c4 2b 3d a4 05 24 bd
       -0.05969618 0.011803839 0.04193518 -0.04004444
000380 fb ed 48 bd 2d 9a 15 3c 34 6c 7e bd 31 e4 43 3d
       -0.04905508 0.009130997 -0.06211491 0.047825042
000390 b4 27 6a 3c 90 35 0f 3d 50 20 46 3d 16 e6 cf 3c
       0.0142916925 0.03496319 0.04837066 0.025378268
0003a0 90 b8 37 bd 44 80 df bc 13 68 1a 3d 8c a9 61 bc
       -0.044853747 -0.027282842 0.03769691 -0.013773333
0003b0 11 0c 2d 3d d9 a3 59 bd e5 b3 36 bd 08 6b 99 bc
       0.042247836 -0.053134773 -0.044605155 -0.018727794
0003c0 5a 3e 10 3d ea 14 b0 3c 9a f9 ba bc de b8 c1 bc
       0.035215713 0.021494348 -0.022824097 -0.023647722
0003d0 a9 de 6f 3d 46 a1 ce bc 00 c3 03 3d 23 01 c4 bc
       0.058561955 -0.025223386 0.03216839 -0.023926323
0003e0 30 f5 33 3d 88 b7 30 3d a0 9d 4a bd 83 03 0d bd
       0.043935 0.04314378 -0.04946673 -0.034427177
0003f0 20 1f f1 bb d5 07 90 3c 27 28 a2 bc bc 23 88 bc
       -0.0073584467 0.01758186 -0.019794537 -0.016618602

layers.6.bias f4 [256]
000000 73 39 01 3c 34 ce 16 3d c8 5a 4e bc e6 86 82 3d
       0.007887232 0.036817744 -0.012594886 0.06373386
000010 b2 76 55 3d 38 ad 57 bd 9c 28 e9 3d ce f3 c2 3d
       0.05211515 -0.05265543 0.11384699 0.09519158
000020 ba b9 82 3d 63 af 36 bd e5 04 58 bd 42 7b fc bb
       0.06383081 -0.044600856 -0.052739043 -0.007705123
000030 9e 99 f9 3d ba f2 e7 3d 3d 25 57 3c de f3 2b 3b
       0.12187503 0.11325593 0.013131437 0.0026237885
000040 fe 21 07 3d 34 76 a2 3b 3a a3 e1 bc 37 4e 41 bd
       0.0329914 0.0049579386 -0.027543653 -0.047193732
000050 7a 3e 20 3d 9f a8 28 3d 8a e6 d1 3b ea b8 a7 bc
       0.039122082 0.041176435 0.006405656 -0.020473916
000060 d8 41 12 3e 5c 2e 1a bd c0 ba 23 bc cd 89 0f 3c
       0.1428293 -0.037641868 -0.009993255 0.008760882
000070 c4 10 f5 3d 75 27 2c bd 41 e0 cf bb 45 4e 59 bd
       0.119660884 -0.042029817 -0.006343872 -0.05305316
000080 eb eb 01 3d 0c 4a 63 bc aa 61 64 bc ed 3c ce 3c
       0.03171913 -0.013872635 -0.013939301 0.025175536
000090 04 6d 7f bd fc be 11 bc 9a ed 72 bc 97 6a 2b 3e
       -0.062359825 -0.008895632 -0.014827156 0.1673988
0000a0 7e 5b 56 bd 18 32 d8 3c a6 d7 32 bc 6a 61 1a 3c
       -0.052333347 0.026391074 -0.010915672 0.009422639
0000b0 5a 45 c2 bc b5 e2 81 bd e4 6e 59 bd 2e a4 d7 3d
       -0.02371471 -0.06342069 -0.05308427 0.10529362
0000c0 f0 49 14 3e 47 aa 94 3d 72 a9 7b 3d 7f a5 97 bb
       0.1448133 0.0725904 0.061440893 -0.004627883
0000d0 fb 29 2f 3b 0f 1c fc bc 81 26 ad bc 6e 01 50 3d
       0.0026727903 -0.030775098 -0.021136524 0.050782613
0000e0 87 91 30 3b ae 72 b4 3d a0 38 5c 3b 72 3c db bc
       0.002694221 0.08810936 0.0033603087 -0.026762221
0000f0 a0 7e 0c 3d 5f f0 30 bd fd ea 6c bd 94 a4 89 3c
       0.034300447 -0.043197986 -0.05784129 0.01680211
000100 1a 96 92 3d c9 37 2b 3c dc 0f 19 bd 91 89 00 3c
       0.07157536 0.010450312 -0.03736864 0.007845298
000110 06 3a 4f bd f7 00 ed bc 64 50 19 3e e0 ed e1 bc
       -0.050592445 -0.028931124 0.14972073 -0.027579248
000120 3f 09 09 bd aa 56 0c bd bb ea 09 3d 22 b9 cd ba
       -0.033456083 -0.034262337 0.033671122 -0.0015695433
000130 e3 fd 3c bd 06 8f f9 ba b5 85 71 bc ed a0 ee 3c
       -0.046140563 -0.0019039817 -0.014741351 0.02912947
000140 b1 16 2c 3d d0 a1 c4 bb 55 f7 c1 3c 79 65 10 bd
       0.042013828 -0.006000735 0.023677507 -0.035253022
000150 83 ff 3a bd 12 25 29 bd c1 e1 d4 3c 82 cb 4e 3d
       -0.04565383 -0.04129512 0.025986554 0.05048705
000160 41 ad dc 3d 2f 7d a7 3c 45 84 fe 3c 26 9a 44 bd
       0.10775233 0.020445434 0.03106893 -0.04799857
000170 0d 7c 73 bd f6 a2 94 bc 7c 04 e3 3d 9f 1d 0a 3e
       -0.059444476 -0.018144112 0.1108484 0.13487862
000180 02 b4 59 bd df 55 3c 3c 79 a1 86 bc 0f 96 ce bc
       -0.053150184 0.011495083 -0.016434418 -0.025218038
000190 b5 aa 8e 3d aa f3 82 3c 85 c2 2d bd 1d c2 b6 3d
       0.069661535 0.015985329 -0.042421836 0.08923743
0001a0 fa 37 65 bd 0c a0 1c bd 41 86 26 3d 11 cd b9 bc
       -0.055961587 -0.03823857 0.04065538 -0.022680791
0001b0 fb ef 24 bd c7 56 93 bc 29 4c a4 3c 19 ed 14 bd
       -0.040267926 -0.017985715 0.020055847 -0.036358926
0001c0 cd 5d be 3d ef 1e af 3c 86 df 1c 3e 25 93 70 3d
       0.09295235 0.021377055 0.15319642 0.058734078
0001d0 eb 9c d9 3d c2 92 63 bc 7c b2 5d 3d e4 4a d5 3c
       0.10625633 -0.01388997 0.054125294 0.026036687
0001e0 8e cb f2 bb 37 da 55 3d e8 f4 27 3e 73 a2 c8 3d
       -0.0074095195 0.05221006 0.16402018 0.0979661
0001f0 05 1f 82 3d 05 41 38 bd 20 39 0a 3d ff 21 74 bd
       0.06353573 -0.044983882 0.033745885 -0.059602734
000200 94 00 3f 3c 0b 4a ec bc 10 b7 59 bd 95 b3 15 bd
       0.011657853 -0.0288439 -0.053153098 -0.036548216
000210 45 c4 33 3e a8 d8 18 bc 23 24 d8 3c df bc 2f bd
       0.1755534 -0.009328999 0.026384419 -0.04290473
000220 79 c4 3f 3d 94 37 ea 3d 83 57 fa ba ea 95 7b bb
       0.04681823 0.11436382 -0.0019099567 -0.0038388916
000230 1c 3e 9a 3d 51 be 13 bb d9 d7 15 3d 1c 83 98 3b
       0.07531378 -0.0022543857 0.0365828 0.0046543013
000240 5e f8 0a 3e 7f 3d 9f 3b 1b 6f 96 3c 31 a9 7e 3d
       0.13571307 0.004859626 0.018363526 0.062173072
000250 12 c3 21 3b 6f 83 bb 3d 12 2a 88 3d 21 88 c5 bc
       0.0024682921 0.09155928 0.06648649 -0.024112763
000260 c1 69 a5 3d 8a ad 38 bd 32 78 c1 3d 7c fb 06 bd
       0.080768116 -0.045087375 0.094467536 -0.032954678
000270 35 fd 86 39 b9 68 0f 3d 01 5a 76 bc 49 09 7b bd
       0.00025747126 0.03501198 -0.015036107 -0.061288152
000280 3d ac 1c 3d a0 b3 78 bc b3 bb c3 3c b1 88 25 3d
       0.038250197 -0.015179545 0.023893213 0.040413562
000290 f0 e6 81 3d 2f 5c 5d 3d b0 29 b2 3c 49 d6 c3 bc
       0.06342876 0.05404299 0.021748394 -0.02390589
0002a0 85 2a a3 3d 9c a2 8a 3c 60 b7 23 3c 5b 5a f4 3d
       0.07967094 0.016923241 0.0099924505 0.119312964
0002b0 7a 6d 0e bd 7d 59 73 bc 6b 10 af 3d 5b b5 dc 3c
       -0.034772374 -0.014852879 0.08548053 0.026941946
0002c0 5f 9c d7 3d 67 bb f4 3c ae 7d 0f 3d f6 1c c2 3d
       0.10527872 0.029874517 0.035031967 0.0947818
0002d0 2e f8 ec 3d d3 b8 ed bc ae 2a 2b bd 6e c6 d1 bc
       0.11570774 -0.029018795 -0.04178875 -0.025607314
0002e0 a0 3a a7 3d cf 02 10 3d 19 9f 42 3d 64 9e 19 3d
       0.08165479 0.03515893 0.04751501 0.03750457
0002f0 7d 4b 08 3d 55 db dd bc 0d 5f 73 3c a1 7a 3e 3d
       0.033275116 -0.027082125 0.014854205 0.046503667
000300 9c ed f7 3c e9 ca e0 bc aa 14 14 bd 6a 80 70 bd
       0.030264668 -0.027440505 -0.03615252 -0.058716215
000310 b1 11 18 3b fb fc 77 3c af 32 0d bc c6 2a 91 bc
       0.0023203904 0.015135999 -0.008618041 -0.017720591
000320 fd ea 56 bd e4 7c 5f 3c a0 62 11 3e 2d 7f 03 3d
       -0.052470196 0.013640616 0.14197779 0.032103706
000330 bc 16 8a 3d 37 05 25 3d 76 81 47 bd fa de 5c 3d
       0.067426175 0.040288176 -0.048707448 0.053923585
000340 bf 03 ba 3d a3 58 18 bd 71 f9 a0 bc b5 d7 21 bd
       0.09082746 -0.037193906 -0.019650193 -0.039512355
000350 fc 70 d2 bc 89 22 2f bd dc 13 0f 3d d9 f3 93 3b
       -0.02568864 -0.042757545 0.03493105 0.004515153
000360 8e 8b 39 3d a1 a2 fa 3c 3d ca 5f bd 2e a8 b6 3d
       0.045299105 0.030595126 -0.05463623 0.089187965
000370 a8 0a e3 bc 57 55 bc 3c 08 4b 4b 3c 32 45 63 bc
       -0.027715042 0.022989912 0.012408026 -0.013871478
000380 f4 ad 13 3d ae e8 e2 bb c1 0a b1 3d a5 32 a8 3b
       0.036054567 -0.0069247102 0.08644629 0.0051329904
000390 38 a8 a0 bc e9 5f 81 bd 77 d4 74 3c ed fc 6f bd
       -0.019611463 -0.063171215 0.014943234 -0.05859082
0003a0 5d 77 e8 3c c0 ac 1c 3e f3 ff 06 3c b1 17 10 3d
       0.02837723 0.15300274 0.008239734 0.035178844
0003b0 3d 56 56 bc 47 96 c8 3c 31 d8 9e 3c 8f ba 54 3c
       -0.013082084 0.02448572 0.019390197 0.012983932
0003c0 a9 86 e1 bb 75 67 17 3e e6 60 30 3d 70 11 cf 3c
       -0.006882508 0.1478556 0.04306116 0.02527687
0003d0 a2 4e d9 3c 3e 82 48 bd b3 af 73 3d 2b 87 6b bd
       0.026526753 -0.048952334 0.05949373 -0.057501953
0003e0 28 84 89 3d d5 8d e0 bc e6 e2 20 3d 23 90 f0 3d
       0.0671466 -0.02741138 0.039278887 0.11746242
0003f0 c8 dd 88 bd 7d 50 71 3c a0 d8 92 3d 83 2d 36 bc
       -0.066829264 0.014728663 0.07170224 -0.011119249

layers.9.weight f4 [480, 256]
000000 51 99 04 bd 1c 46 28 3d 48 c5 c0 bc 4a db 3b bd
       -0.032372776 0.041082487 -0.023531571 -0.045863427
000010 a3 b0 0f bd b0 ae 8e bc 60 62 99 3c 74 d8 b4 bd
       -0.035080563 -0.017417282 0.018723667 -0.08830348
000020 28 ff 02 3d db 8d 14 bd f6 b2 81 3c 47 dc 0d 3c
       0.031981617 -0.036268096 0.015832406 0.008658475
000030 c9 4b 6e 3c d3 86 ff bc 07 e8 91 3b 45 13 31 3d
       0.014544436 -0.031192219 0.0044527086 0.043231267
000040 6c 3c 6f bd 02 f1 5c bc f1 c3 23 3c 8a 62 80 3d
       -0.058407232 -0.013485195 0.009995447 0.06268795
000050 5b 42 35 bc 7e 5a 44 3c db 42 91 b8 75 15 20 3d
       -0.011063184 0.011984466 -6.9265916e-05 0.039082963
000060 49 62 7a bc 21 cb 5d bd 73 59 ab 3c 57 5a 1b bd
       -0.015282222 -0.054148797 0.020916676 -0.03792795
000070 d8 0a 6d bd d8 ab f4 bc e9 2f 7c 3d 29 c3 01 bc
       -0.05787167 -0.029867098 0.06156913 -0.007920065
000080 f2 09 24 bd e7 b3 08 3d c2 00 9d 3c 70 3f 1d 3d
       -0.040048547 0.033374693 0.0191654 0.038390577
000090 69 dd 63 3d 71 0d a4 3c f3 de 83 bc 88 c0 c7 bc
       0.055631075 0.02002594 -0.016097521 -0.024383798
0000a0 ea c4 53 3d 22 6a f3 bc c9 bd 76 3c 62 24 7f bd
       0.051701464 -0.029713694 0.015059897 -0.062290557
0000b0 e2 92 9a 3b 63 60 a0 3c ba 7d 63 bd 2b be e7 bc
       0.004717217 0.01957721 -0.055539824 -0.028288921
0000c0 d7 a1 6b bd ce 48 30 3d d3 c6 d0 3c 55 54 26 3c
       -0.05752739 0.043038182 0.025485432 0.010151942
0000d0 e0 e0 d4 bc ec 2f e8 3c 8e 86 4c 3c c2 a7 12 bc
       -0.025986135 0.028343163 0.012483252 -0.008951129
0000e0 6e 49 f3 bc 9a 0b 7e bd 69 32 30 3d 6a 07 74 3d
       -0.0296981 -0.062022783 0.043016825 0.059577383
0000f0 2b 10 13 3c 49 1d d0 3c 4e 94 37 bd f7 2c 3a bc
       0.008976023 0.02540459 -0.04481917 -0.0113632595
000100 d5 16 86 bd ad 25 36 3d 9c 42 e5 3c b0 73 fb 3c
       -0.065473236 0.044469524 0.027985863 0.030694813
000110 21 63 77 3d a9 24 2c bd c7 29 5e 3a 41 67 4e bd
       0.06039727 -0.04202715 0.0008474853 -0.05039144
000120 57 4e 37 3d b1 21 45 3d 97 a5 e5 bc 12 53 83 bd
       0.044752445 0.048127834 -0.028033061 -0.06412329
000130 e5 84 91 bc 04 13 61 bd 53 72 4e bd 0f e4 c2 bc
       -0.017763564 -0.054949775 -0.050401997 -0.023790387
000140 e8 ca c4 3c 08 56 2d 3d 2a 1b 5d 3d 1b ad 5e 3d
       0.024022534 0.042318374 0.053980984 0.054364305
000150 a1 0b af bc 66 2c a1 b9 07 d1 3a bd 82 ff 1f bd
       -0.02136785 -0.00030741392 -0.0456095 -0.03906203
000160 8e a8 f2 3c bd 08 91 bd 95 ff 47 3c 9f 71 75 bd
       0.029621389 -0.07081745 0.012206932 -0.05992281
000170 6c 94 34 bd e6 8d 86 3d b3 13 c3 3b 5d 0f 9e 3c
       -0.04408686 0.06570034 0.005953276 0.019294435
000180 56 af 21 3d c1 c9 06 3d b6 f3 7c 3d 28 86 3d 3d
       0.039473854 0.03290725 0.06175586 0.04627052
000190 fc 10 16 bd 9d 80 1f bd 54 01 0c bd e1 bd f7 bc
       -0.03663729 -0.038941015 -0.034180954 -0.030241909
0001a0 b4 b7 fa 3c fa 88 fd bb b0 00 bf 3c 99 92 0a 3d
       0.030605175 -0.007737276 0.023315758 0.033831213
0001b0 fa 78 b6 3c 26 d4 06 bb 10 b0 01 3d 67 01 56 bd
       0.022274483 -0.0020573228 0.031662047 -0.05224743
0001c0 f1 24 e3 3c bc 48 b6 bc 2b f8 a3 bd f4 96 24 bd
       0.027727576 -0.02225148 -0.08006319 -0.040183023
0001d0 86 12 d6 bc 69 e5 26 bd 1b 22 c0 bc b6 9d 56 bd
       -0.02613188 -0.040746126 -0.023453763 -0.0523965
0001e0 85 1b fb bc 5f a6 35 3d d0 e5 13 bd c1 de 1f bd
       -0.03065277 0.044348117 -0.03610784 -0.039030794
0001f0 1f 22 67 3d 85 1b 11 bd c9 cd 6c bd 22 19 89 3c
       0.056429025 -0.035426635 -0.05781344 0.016735617
000200 41 55 09 bd 29 16 f3 bc e5 7b 0b 3d 2a 54 78 3d
       -0.03352857 -0.029673653 0.034053702 0.06062714
000210 45 6d 91 3b 06 f0 02 bd d7 93 72 bc 6b 41 15 3c
       0.004438075 -0.031967185 -0.014805756 0.009109835
000220 83 7a c6 3c f5 2d 2e bd 4d cb 1a bd bd 1f 16 3d
       0.02422834 -0.042524297 -0.03779154 0.03665136
000230 59 a4 3f bd 42 8e 48 bd bd bf 8b b9 ed d5 21 3d
       -0.046787594 -0.048963793 -0.00026655002 0.039510656
000240 b5 e8 86 3b e6 2e 00 3d d8 31 64 bd 4b e0 d3 bb
       0.0041170963 0.031294726 -0.055711597 -0.006465947
000250 a7 9b 5c 3d 92 d8 d8 bc d9 08 31 3c 5d ac 45 bc
       0.05385938 -0.026470456 0.010805332 -0.01206502
000260 36 f8 d7 bc e7 1a 78 b9 cb cc 99 bd b0 e9 5f bd
       -0.026363473 -0.00023661145 -0.07509764 -0.05466622
000270 5c e5 56 bd cd e7 35 bb e5 f0 0a 3b 87 25 41 bc
       -0.052464828 -0.0027756572 0.0021200713 -0.011788732
000280 5a 93 26 3d 8a 5b 66 bd 77 cb 46 bd 15 fb 07 3d
       0.04066787 -0.056239642 -0.048533883 0.033198435
000290 df ab 56 bd 05 e9 e3 bc 6d f8 25 bd 4f 0b 1c 3d
       -0.052410003 -0.027821073 -0.04052012 0.038096722
0002a0 ac 22 88 3d e8 3a 86 bc 86 60 06 3d 21 2c 7a 3c
       0.06647238 -0.01638551 0.032806896 0.01526931
0002b0 8d 97 00 bd ed 8e 82 3c 2a 8e 09 bd 35 be 59 3b
       -0.03139453 0.015937293 -0.033582844 0.0033224944
0002c0 2e b0 a1 bd b8 8e 8e bd aa 60 25 bc ac a6 9d bd
       -0.07894932 -0.06960815 -0.010093847 -0.07697806
0002d0 f0 c4 6f bd 4e d6 22 3d bc 59 bf 3c 6e c7 0b 3a
       -0.058537424 0.039755158 0.023358218 0.00053321465
0002e0 24 68 63 bc 5f d9 2f bd b5 66 e2 bb 47 79 b9 bb
       -0.0138798095 -0.04293191 -0.0069092163 -0.0056602093
0002f0 21 c1 76 bd d2 5f 9e 3c 66 32 c3 3c b0 7e 9f 3c
       -0.060242776 0.0193328 0.023827743 0.019469589
000300 d5 d1 2e 3d 33 54 50 bc 56 84 5a 3d ef b1 66 3d
       0.04268058 -0.012715387 0.05334886 0.056322034
000310 4f 67 51 bc b8 c8 51 3d 9e 56 c1 3b b6 d6 dc 3c
       -0.012780978 0.05121681 0.005900218 0.02695785
000320 8e aa c7 bc 4d 45 ff bb bb cf 68 bd de e8 7d 3d
       -0.024373319 -0.0077902437 -0.056838732 0.061989658
000330 c0 15 73 3b 62 fd f0 bb 23 a7 2b 3d b3 57 82 bd
       0.0037091821 -0.0073544243 0.04190744 -0.063643835
000340 c5 a6 18 ba bc 94 7b 3b 51 4b 45 3d 92 46 cd bc
       -0.00058231904 0.0038388213 0.04816753 -0.025058065
000350 0c 72 14 3c cb 01 b8 3c 00 10 8d bc 22 91 75 3c
       0.009060394 0.022461792 -0.017219543 0.014988216
000360 0a 20 2d bc 50 21 17 3d 89 79 a4 3c 46 13 eb 3b
       -0.010566721 0.036897004 0.020077484 0.0071739284
000370 2c 82 90 bc 27 91 09 bd 6b ea 8d 3b a1 c3 53 bd
       -0.017640196 -0.033585694 0.0043309233 -0.05170024
000380 d3 62 86 3a a4 e3 96 3b 39 db b1 3c bb de 0b 3d
       0.0010252841 0.0046047736 0.021710979 0.03414796
000390 44 dd 8c bc 88 15 54 3d a1 ec 08 bd 8c f8 15 3d
       -0.017195351 0.051778346 -0.033428792 0.036613986
0003a0 89 5f e5 bc db 3e c9 bb ab 24 dc bc e1 ec 75 3b
       -0.027999656 -0.006141526 -0.026872953 0.0037525224
0003b0 27 1a c2 bc 39 f0 a4 ba b8 d5 e2 3c 9d 9c 11 bd
       -0.023694111 -0.0012583799 0.0276898 -0.03554975
0003c0 ec 92 c8 ba aa 7d cb 3c fc 62 83 3c 9f b1 08 3d
       -0.0015302575 0.024840195 0.01603841 0.033372518
0003d0 64 74 e9 3c 84 ed 86 3d 66 fe 9d bc 71 8e 96 bc
       0.028497882 0.06588271 -0.019286346 -0.018378468
0003e0 4e 7c 94 bc 36 1a ac bc 6e 1c c9 3c 0e ea e1 bc
       -0.01812568 -0.021008592 0.02454969 -0.027577426
0003f0 59 92 d1 3c f3 01 40 3d b6 c5 ef 3c 4b 91 55 3d
       0.02558248 0.04687686 0.02926908 0.052140515
