checkpoints/checkpoint_epoch_50.pt (torch, 895184 bytes, 8 tensors)

layers.0.weight f4 [128, 4]
0	0x3e978333	0.29592285
1	0x3e0aee2d	0.1356742
2	0xbd5620e8	-0.052277476
3	0x3da4f7e6	0.080550954
4	0x3e16bb20	0.1471982
5	0x3d5ea6e2	0.05435837
6	0x3e0378d6	0.12839064
7	0xbea20b15	-0.3164908
8	0x3e34ab51	0.17643477
9	0xbec63c63	-0.38717946
10	0x3ea89b22	0.32930857
11	0xbeaaeadd	-0.3338231
12	0xbf04a868	-0.5181947
13	0xbd947143	-0.072481655
14	0xbe1f6a42	-0.15567878
15	0xbc9acc46	-0.018896233
16	0xbee853f2	-0.45376545
17	0xbe7398b7	-0.23788725
18	0x3ee43927	0.44574854
19	0xbddfaf07	-0.10922056
20	0x3ec175c9	0.37785175
21	0xbebc7f98	-0.36816096
22	0x3e586c18	0.21134984
23	0xbdc3a89c	-0.09553644
24	0xbf076a07	-0.5289616
25	0x3de7ee7a	0.11324783
26	0xbe4852d6	-0.1956285
27	0x3dc42833	0.0957798
28	0x3ea29916	0.3175742
29	0xbcf6ea42	-0.030141
30	0x3ec70c86	0.38876742
31	0x3e13a230	0.14417338
32	0xbd2a99a5	-0.041650433
33	0xbe3f2337	-0.18665777
34	0x3eb6f116	0.3573081
35	0x3e572e47	0.21013747
36	0xbf1182d2	-0.5684024
37	0xbed30c46	-0.412203
38	0xbc0cc059	-0.008590781
39	0x3e581ca2	0.21104673
40	0xbcf34277	-0.029694779
41	0x3efb8987	0.49128363
42	0x3e060124	0.13086373
43	0xbe398f10	-0.1812098
44	0xbe230b02	-0.15922168
45	0x3e8987a1	0.2686129
46	0xbeb06347	-0.34450743
47	0xbebe5b2e	-0.3717894
48	0x3dc54f6d	0.0963429
49	0xbe5ae7b1	-0.21377446
50	0x3e659ef0	0.22423911
51	0x3e2b8846	0.16751203
52	0xbd8a1ccc	-0.06743774
53	0x3ee28cd8	0.4424808
54	0x3ec35c0f	0.38156173
55	0xbeb4b5c7	-0.35294935
56	0x3f00c781	0.5030442
57	0x3c623f4b	0.0138090355
58	0xbeead7a4	-0.45867646
59	0x3e297910	0.16550088
60	0x3e98015a	0.2968853
61	0x3ea46f80	0.32116318
62	0xbeca85bf	-0.39555165
63	0xbef9bc00	-0.48776245
64	0xbe81336d	-0.25234547
65	0xbd19b5a0	-0.037526727
66	0xbd54bc19	-0.051937196
67	0xbda4421e	-0.08020423
68	0xbe800222	-0.25001627
69	0x3eb7d809	0.3590701
70	0xbef2f727	-0.47454187
71	0xbeb9472c	-0.36187112
72	0xbeb194a5	-0.3468372
73	0x3ed39d5c	0.41330993
74	0xbef09393	-0.4698759
75	0xbed37ae8	-0.41304708
76	0x3e14e6b5	0.14541133
77	0x3ba8d1d3	0.005151966
78	0x3efb2e24	0.4905864
79	0xbeaf3c57	-0.34225723
80	0xbee278a6	-0.44232672
81	0xbe33ccbb	-0.17558567
82	0x3ee72706	0.4514696
83	0x3ea52156	0.32251996
84	0xbec4db40	-0.38448524
85	0x3eb3f447	0.35147306
86	0xbe2fca5a	-0.17167035
87	0x3eec1550	0.4611001
88	0x3e850871	0.25983003
89	0xbd22fa16	-0.03978928
90	0x3ee4cd89	0.4468806
91	0xbe1ada26	-0.1512228
92	0xbf051a7e	-0.5199355
93	0xbee27bba	-0.4423502
94	0xbd93ec4c	-0.072228044
95	0xbe235124	-0.15948921
96	0xbdc3975f	-0.09550356
97	0xbed4f1fc	-0.4159087
98	0xbea793b8	-0.32729888
99	0xbc7f1c07	-0.015570647
100	0x3e57e157	0.21082054
101	0x3c97cc90	0.01853016
102	0xbeba7523	-0.36417493
103	0x3e3fb273	0.18720417
104	0x3e778aa4	0.24173981
105	0xbd8d7a2f	-0.0690807
106	0x3d8f7736	0.070051596
107	0x3dfdb510	0.123880506
108	0xbe8d8a05	-0.27644363
109	0x3e281868	0.1641556
110	0xbe027768	-0.12740862
111	0xbe91fa8c	-0.28511465
112	0x3ebdd88b	0.37079272
113	0x3c34b8fc	0.011030432
114	0xbee09489	-0.43863323
115	0x3eb0912d	0.3448576
116	0x3d2f9b2e	0.0428726
117	0x3eb20282	0.34767538
118	0x3ddaa919	0.10676784
119	0xbee0b3d3	-0.43887195
120	0xbe5580b8	-0.20849884
121	0xbe28072b	-0.16408984
122	0x3ebea7f5	0.37237516
123	0xbe07d4ad	-0.13264723
124	0xbd39a04f	-0.045318898
125	0xbeb11f61	-0.34594253
126	0xbe1317e0	-0.14364576
127	0x3e3f1d02	0.1866341
128	0x3ec723ed	0.38894597
129	0xbea46f7e	-0.32116312
130	0xbe6d4bbc	-0.23173422
131	0xbe87fe12	-0.26561028
132	0xbd8644a5	-0.06556062
133	0x3e0174ed	0.1264226
134	0x3de46cd2	0.11153568
135	0x3da80a6a	0.08205111
136	0x3df98fb7	0.121856146
137	0xbe8968da	-0.26837808
138	0xbe54ef95	-0.20794518
139	0x3ed6f6c6	0.41985148
140	0xbec4032b	-0.38283667
141	0xbc265a5f	-0.010153382
142	0x3ee067cb	0.43829188
143	0x3e77ba81	0.2419224
144	0xbeb58239	-0.35450915
145	0x3ea3fce5	0.3202888
146	0x3d4f496d	0.050607134
147	0x3e688799	0.22707976
148	0x3e347ee1	0.17626525
149	0xbeb4678d	-0.35235253
150	0xbea332cc	-0.31874692
151	0xbea18178	-0.3154409
152	0x3e0f5bf2	0.13999918
153	0xbe0232de	-0.12714717
154	0x3d89a426	0.06720762
155	0x3ee3bffd	0.44482413
156	0xbd41f808	-0.04735568
157	0x3d1f65b0	0.038915336
158	0x3a115a86	0.00055448
159	0x3ebc25b3	0.36747512
160	0xbf027cc0	-0.50971603
161	0xbd4b87af	-0.049689945
162	0xbea20301	-0.31642917
163	0x3e7c8f67	0.24664079
164	0xbe22ce42	-0.15898994
165	0x3e4514a6	0.19246158
166	0xbe81c2a5	-0.25343814
167	0xbe4c9717	-0.19979511
168	0xbcc289e5	-0.023747394
169	0xbedf58bd	-0.4362239
170	0x3d5194bc	0.051167235
171	0xbd93ebdc	-0.07222721
172	0x3ef7e126	0.48413962
173	0xbedfbddd	-0.43699542
174	0xbe9b2a0b	-0.30305514
175	0xbdfa15cd	-0.122111894
176	0xbe32b10b	-0.17450349
177	0x3e1ad375	0.15119727
178	0x3e9a62c8	0.3015349
179	0xbebebfe2	-0.3725577
180	0x3f03afaa	0.5143992
181	0x3e98729b	0.29774937
182	0x3d9ab562	0.07554127
183	0xbd9a7faf	-0.07543885
184	0x3ebc96a0	0.36833668
185	0x3e355311	0.17707469
186	0x3ee23d62	0.44187456
187	0xbd203b24	-0.0391189
188	0xbe1e0a4c	-0.15433615
189	0x3f002f3b	0.5007207
190	0xbe1a50e8	-0.15069926
191	0xbe44c7ab	-0.19216792
192	0xbed506bd	-0.41606703
193	0xbeb48f7c	-0.3526572
194	0xbe59687b	-0.21231262
195	0x3dcf2c8b	0.10115918
196	0x3efa5e7e	0.48900217
197	0x3d6a0a4b	0.057138722
198	0xbe924d3a	-0.28574544
199	0xbaefc784	-0.0018293713
200	0x3dcb5e39	0.09930081
201	0x3e9b0b79	0.3028219
202	0x3e1592b9	0.14606752
203	0x3ec68551	0.38773587
204	0xbe93ec11	-0.28891042
205	0xbe182cee	-0.1486089
206	0x3defcd1d	0.11709044
207	0xbe2b52e0	-0.16730833
208	0xbef2e3c5	-0.474394
209	0xbdb3e1cd	-0.087833025
210	0x3ef692cc	0.48158872
211	0xbec2243b	-0.37918267
212	0x3d113321	0.03544915
213	0xbede0449	-0.43362644
214	0x3ee57e60	0.4482298
215	0xbedc431d	-0.43019953
216	0x3dc946b5	0.098279394
217	0x3ec974fc	0.39347064
218	0xbd77ac51	-0.060467068
219	0x3ea263c4	0.3171674
220	0x3da0136d	0.07816205
221	0xbe871583	-0.263836
222	0x3c8f3917	0.017483277
223	0x3e610f3b	0.21978466
224	0xbeff2e4d	-0.49840012
225	0xbdf1b8aa	-0.118028
226	0xbedaa072	-0.42700535
227	0x3e8c4ecc	0.27403867
228	0x3d96b479	0.07358641
229	0xbecd1ea2	-0.40062433
230	0xbedcc308	-0.43117547
231	0xbe9b273f	-0.3030338
232	0xbf1bda2e	-0.6087979
233	0x3e6137ff	0.21994017
234	0xbed1a787	-0.40948126
235	0xbedd917b	-0.43275055
236	0xbe3b48f9	-0.18289556
237	0x3e9eaf44	0.30993092
238	0xbced8e79	-0.0289986
239	0x3e8a6cec	0.27036226
240	0x3e4b56e7	0.1985737
241	0x3ed64627	0.41850397
242	0xbf005a9f	-0.50138277
243	0xbcb09753	-0.021556532
244	0x3ea299ec	0.31758058
245	0x3ef357bc	0.47527874
246	0x3db6bf4d	0.089232065
247	0x3cf841dd	0.030304844
248	0x3ea8cdf1	0.3296962
249	0x3d9e2b66	0.07723121
250	0xbe549824	-0.20761162
251	0xbdcc275d	-0.099684455
252	0xbd534b75	-0.051585633
253	0xbc09363b	-0.008374746
254	0x3ea3c425	0.31985584
255	0x3ebca2ed	0.36843053

layers.0.bias f4 [128]
0	0xbef2ac6b	-0.4739717
1	0x3e9734f8	0.295326
2	0xbd18daba	-0.03731797
3	0x3da48e4b	0.08034953
4	0xbeea5a83	-0.4577218
5	0xbd1640cb	-0.036682885
6	0xb9e6390a	-0.00043911516
7	0xbdba96d0	-0.091107965
8	0x3e858a7f	0.26082227
9	0x3dc9e616	0.098583385
10	0xbe13e325	-0.14442118
11	0xbe40d077	-0.18829523
12	0x3e9b38e8	0.30316854
13	0xbea2b023	-0.31775007
14	0xbeb88668	-0.36040044
15	0xbed03f40	-0.40673256
16	0xbed1eb4b	-0.40999827
17	0x3eca1387	0.39468023
18	0xbe839ab9	-0.25703982
19	0x3debfbec	0.1152266
20	0xbeaeed40	-0.34165382
21	0xbc7e14b6	-0.015507868
22	0xbeb6ac05	-0.35678115
23	0x3dd62d48	0.104578555
24	0xbee5f708	-0.44915032
25	0xbea1a6f9	-0.31572703
26	0x3eb33cf6	0.35007447
27	0xbd4875ef	-0.048940595
28	0x3e8e2fc8	0.2777083
29	0x3e8e0938	0.27741408
30	0x3e9ce5dd	0.30644122
31	0xbece750a	-0.4032367
32	0xbdbf59bd	-0.09343288
33	0x3ea3140b	0.3185123
34	0xbd621e21	-0.055204514
35	0xbe8fb18b	-0.28065142
36	0x3ea338b7	0.31879207
37	0xbed70465	-0.4199554
38	0x3ee54a0d	0.4478306
39	0xbebf4317	-0.37355873
40	0x3ecaa555	0.39579263
41	0x3dc6473a	0.09681554
42	0x3f005bfe	0.5014037
43	0xbeeaf583	-0.45890436
44	0xbef80575	-0.48441663
45	0xbca8c093	-0.020599639
46	0xbef65e7b	-0.48118958
47	0xbe671097	-0.22564922
48	0xbc638a2f	-0.013887926
49	0x3ef4bf22	0.47802073
50	0x3e58f512	0.21187237
51	0x3eea1938	0.45722365
52	0x3e4113af	0.18855165
53	0xbeec73ed	-0.46182194
54	0x3e07966d	0.13240977
55	0x3eb25fe5	0.34838787
56	0x3d86efad	0.06588683
57	0x3e354191	0.17700793
58	0xbc19fc5f	-0.009398549
59	0x3eeb8451	0.45999387
60	0xbea0585c	-0.31317413
61	0xbe10a2ca	-0.14124599
62	0x3e7758ac	0.2415492
63	0x3ed1bde5	0.4096519
64	0x3e743eb3	0.23852043
65	0x3eeca8ac	0.46222436
66	0x3eed1034	0.46301425
67	0x3f00b5af	0.5027723
68	0x3d1ace98	0.03779468
69	0x3e454b91	0.19267108
70	0x3f05ed47	0.5231518
71	0x3db3ce06	0.0877953
72	0xbed51431	-0.41616967
73	0xbe2d7abc	-0.1694135
74	0xbe26f3e6	-0.16303977
75	0x3ef79633	0.4835678
76	0x3ecfef68	0.4061234
77	0xbec34a8f	-0.3814282
78	0x3ed38d7a	0.41318876
79	0x3ee0a46f	0.43875453
80	0x3f0e9746	0.55699575
81	0x3e098a27	0.13431607
82	0x3e83b9e2	0.25727755
83	0xbdd01422	-0.1016009
84	0x3e63cdbe	0.22246453
85	0x3e41d537	0.18928991
86	0x3e51ae5b	0.20476668
87	0xbeb0eeaa	-0.34557086
88	0x3e1bf27e	0.15229222
89	0xbe906d2b	-0.2820829
90	0x3d91812a	0.07104714
91	0xbecc3361	-0.3988295
92	0x3ef64845	0.48102012
93	0x3dbe1b56	0.09282558
94	0x3ec4ae36	0.38414162
95	0x3e5c4e7f	0.21514319
96	0x3c068aed	0.008211833
97	0x3f00dcf0	0.50337124
98	0x3d8e6768	0.06953317
99	0xbdcb1670	-0.09916389
100	0x3eb89869	0.3605378
101	0x3d7a75d8	0.06114754
102	0xbef51e6e	-0.47874779
103	0xbdd5142b	-0.10404237
104	0x3eeeaef6	0.4661786
105	0x3ee7361f	0.4515848
106	0x3cba80b5	0.02276645
107	0x3eda5df3	0.42649803
108	0xbe83ef5d	-0.25768557
109	0x3ec0ebbd	0.37679854
110	0x3e906283	0.28200158
111	0xbe4ff640	-0.2030878
112	0xbcabb609	-0.020960825
113	0x3d962df1	0.073329814
114	0xbe2ea90f	-0.17056678
115	0xbe287872	-0.16452196
116	0xbe0ed5f7	-0.13948809
117	0xbeae2491	-0.34012273
118	0x3ea0b74a	0.31389838
119	0x3dce96f8	0.10087389
120	0x3dcf0e22	0.101101175
121	0x3ed45e72	0.41478306
122	0xbed3efd0	-0.413939
123	0xbe00ee77	-0.12590967
124	0xbee9073c	-0.45513332
125	0xbee8cfad	-0.45470944
126	0xbe10e5ee	-0.14150211
127	0x3ea59ec4	0.3234769

layers.3.weight f4 [256, 128]
0	0xbd3eb114	-0.046555594
1	0x3c013f6e	0.007888658
2	0xbdabd34e	-0.083899125
3	0xbd8e3c1d	-0.069450594
4	0x3c7c2ff3	0.015392291
5	0x3c40b990	0.011762992
6	0x3cbf3d58	0.02334468
7	0xbda240f1	-0.07922543
8	0x3dc4904f	0.09597837
9	0xbdaaab3d	-0.08333442
10	0xbd8cb6a2	-0.06870772
11	0xbd116339	-0.035495017
12	0xbc7a4235	-0.015274574
13	0xbd53051d	-0.05151855
14	0x3da73e34	0.08166161
15	0xbc9c5125	-0.019081661
16	0x3c3d3d9a	0.0115503315
17	0x3d97ffc4	0.0742183
18	0xbb2da965	-0.0026498672
19	0x3c07df8f	0.008293047
20	0xbd547ae5	-0.051875014
21	0xbbc5ffbd	-0.0060424493
22	0x3cecfac0	0.02892816
23	0xbdb8bbf7	-0.090202264
24	0x3d3c2ab8	0.045939177
25	0x3d0f40fb	0.03497408
26	0x3c8b801b	0.017028859
27	0xbd47b593	-0.048757147
28	0xbd2e263d	-0.042516936
29	0xbd9301de	-0.071780905
30	0x3d2aa518	0.041661352
31	0x3b0164ed	0.0019743994
32	0x3d767cf2	0.06017775
33	0xbd6a084e	-0.057136826
34	0xbc252827	-0.010080374
35	0xbd9afe1e	-0.07568
36	0xbd773acc	-0.060358807
37	0x3d6a6d2c	0.05723302
38	0x3d8d8cac	0.06911597
39	0x3cfbfa08	0.030758873
40	0xbd38eeb9	-0.04514954
41	0xbd6350f1	-0.055497114
42	0x3cd82f00	0.026389599
43	0x3d95db44	0.07317212
44	0x3d8571c3	0.06515839
45	0xbd1e4004	-0.03863527
46	0xbcfc5d32	-0.030806158
47	0xbd716d5f	-0.058942195
48	0x3d8e17bc	0.06938121
49	0x3ddcd12f	0.10782086
50	0x3c2ebbe2	0.010664912
51	0x3d46b69b	0.04851399
52	0xbd321086	-0.04347279
53	0x3d880152	0.06640877
54	0x3d0c9d4f	0.03432971
55	0xba92c990	-0.0011198986
56	0xbd581aea	-0.052760042
57	0xbd045dd2	-0.032316037
58	0xbdbb10c4	-0.09134057
59	0x3ca2c7eb	0.019870719
60	0xbc409ecf	-0.011756613
61	0xbc703666	-0.014661407
62	0xbce77f58	-0.028258964
63	0x3d424850	0.047432244
64	0xbcb44b5c	-0.02200859
65	0x3db78e5d	0.089627005
66	0x3de3c235	0.111210264
67	0x3db8542e	0.09000431
68	0xbcba1dc4	-0.022719271
69	0xbd5304d1	-0.051518265
70	0xbc6dc654	-0.014512617
71	0xbb0b24c2	-0.0021231626
72	0x3d067a35	0.03283139
73	0xbd99bf9c	-0.0750725
74	0x3d8cef49	0.068815775
75	0x3da48310	0.08032811
76	0xbb90e80d	-0.004422194
77	0xbcb7aff1	-0.022422763
78	0x3dbb0aa9	0.09132893
79	0x3beb8d08	0.007188443
80	0x3d5c4cc7	0.053784158
81	0xbca0cbc3	-0.019628411
82	0xbd4d1623	-0.05006994
83	0xbdb11c58	-0.08647984
84	0xbd421911	-0.047387186
85	0xbd983b5b	-0.07433196
86	0x3cb5e297	0.022202773
87	0x3d9ebd48	0.07750946
88	0x3d8c55a7	0.068522744
89	0xbd37e356	-0.04489454
90	0x3d3cb33a	0.04606936
91	0x3cf068fa	0.029346932
92	0x3dac37b5	0.08409063
93	0x3d3e1dc4	0.046415105
94	0x3da4c076	0.080445215
95	0x3d824faa	0.06362851
96	0xbc78b67a	-0.015180225
97	0x3c0b61f2	0.008507239
98	0x3bb9df71	0.0056723882
99	0xbc92a026	-0.01789863
100	0x3d6404d4	0.055668667
101	0x3d5f693e	0.054543726
102	0xbd97ffca	-0.07421835
103	0xbcbe570e	-0.02323487
104	0xbc4369d5	-0.011927088
105	0xbba7d0e1	-0.005121336
106	0x3c93f902	0.018063072
107	0xbc21dc27	-0.009879149
108	0xbca1db8d	-0.01975801
109	0xbcc9f93d	-0.024654979
110	0x3d1bdcd8	0.03805241
111	0xbced5168	-0.028969482
112	0xbdab0157	-0.08349865
113	0x3c704900	0.014665842
114	0x3c0f809a	0.008758688
115	0xbd895c09	-0.067070074
116	0x3ca6002a	0.02026375
117	0xbdb20d0a	-0.08693893
118	0x3da97d65	0.0827587
119	0x3ccd62ae	0.025071468
120	0x3c0be6f5	0.008538951
121	0x3d8bd82b	0.0682834
122	0x3c653864	0.013990495
123	0xbd75ef4b	-0.06004266
124	0xbd282df8	-0.041059464
125	0x3ce551aa	0.027993042
126	0xbc9ed4e0	-0.019388616
127	0x3ce4ff6a	0.027953822
128	0x3d77e321	0.06051934
129	0x3d27b2fc	0.040942177
130	0xbcafbd5f	-0.021452604
131	0xbcd33e52	-0.025786553
132	0xbd7b01b4	-0.06128092
133	0xbd367ccb	-0.044552606
134	0xbd433a6e	-0.047663145
135	0x3d910560	0.07081103
136	0xbd0bb3d6	-0.03410705
137	0xbd0db543	-0.034596693
138	0x3d8c9f35	0.06866304
139	0xbd72a44b	-0.059238713
140	0x3d91b749	0.07115037
141	0x3c52c525	0.012864386
142	0xbb774e4f	-0.0037735885
143	0xbd6e79bf	-0.058221575
144	0xbdaedbb8	-0.08538002
145	0x3d02823d	0.031862486
146	0xbda7d0a7	-0.08194094
147	0x3db48488	0.08814341
148	0xbc66d92a	-0.014089862
149	0xbd88aeb4	-0.06673947
150	0xba92fce5	-0.0011214284
151	0x3c60f442	0.013730111
152	0xbd8aad20	-0.06771302
153	0xbd94713c	-0.0724816
154	0xbcac97f5	-0.021068553
155	0xbd256bab	-0.040385883
156	0x3dda9b13	0.10674109
157	0x3d144edf	0.03620803
158	0xbd31c290	-0.04339844
159	0xbdb220f6	-0.08697693
160	0xbdaa8d49	-0.08327729
161	0x3d4392cd	0.047747422
162	0x3d033d10	0.032040656
163	0xbd82fc22	-0.06395747
164	0x3c6b4b76	0.014361253
165	0xbd4be88c	-0.04978232
166	0x3db6694f	0.08906805
167	0x3d67263a	0.05643294
168	0xbd5b21de	-0.053499095
169	0x3b8c54fa	0.004282591
170	0x3d932c69	0.07186205
171	0xbd91e493	-0.07123675
172	0xbd2f19f9	-0.04274938
173	0xbd30d8ac	-0.043175384
174	0x3d3afbeb	0.045650404
175	0xbd9074eb	-0.0705355
176	0xbce73ff4	-0.028228737
177	0x3d001d03	0.031277668
178	0x3d8165b5	0.06318227
179	0xbc027c47	-0.0079642
180	0xbcf572af	-0.029961912
181	0xbb9198f7	-0.0044432837
182	0xbd94ce52	-0.07265915
183	0xbc8a2976	-0.016865473
184	0xbd453026	-0.04814162
185	0x3db567d0	0.08857691
186	0x3c4915aa	0.0122732315
187	0x3dd432ff	0.10361289
188	0xbcec668e	-0.028857496
189	0x3d0266f4	0.031836465
190	0x3cae8460	0.021303356
191	0xbbf7745c	-0.007551713
192	0xbc24dba9	-0.010062137
193	0xbd22dcfd	-0.039761532
194	0x3d7f1158	0.0622724
195	0x3a6929b3	0.00088944583
196	0xbdb90d83	-0.0903578
197	0xbd5e74be	-0.054310553
198	0x3c01afc2	0.007915439
199	0xbce78321	-0.02826077
200	0xbc6b01b7	-0.014343671
201	0xbc1d1715	-0.009588023
202	0xbd1e34ef	-0.0386247
203	0x3dae84b1	0.085214026
204	0xbd1ec3fc	-0.038761124
205	0xbca6c839	-0.020359145
206	0x3d74934e	0.059710793
207	0x3dbb5b4c	0.09148273
208	0x3c967579	0.018366562
209	0x3cde51ce	0.027138617
210	0x3d2f92d6	0.042864643
211	0xbdbfde9c	-0.09368631
212	0x3d970b18	0.07375163
213	0xbd0e9a55	-0.03481515
214	0x3d180cf7	0.03712174
215	0xbd10c6d7	-0.03534588
216	0x3c9abecf	0.018889813
217	0xbd748c3b	-0.059704047
218	0xbd902096	-0.07037465
219	0x3af478e6	0.0018651753
220	0x3d2f4b9b	0.042796712
221	0xbc6696ad	-0.01407401
222	0xbc8d5137	-0.01725064
223	0x3cc4ee7f	0.024039505
224	0xbd52e3da	-0.051486827
225	0xba8d31ec	-0.0010772324
226	0xbc6fe93b	-0.014643009
227	0x3d94efc5	0.07272295
228	0x3dcb1be0	0.09917426
229	0xbda3893c	-0.0798516
230	0xbcacec28	-0.021108702
231	0x3d507fba	0.05090306
232	0x3b50963d	0.003182783
233	0x3db1d3ed	0.08683
234	0xbcdf54a0	-0.027262032
235	0x3d291ea4	0.041288987
236	0xbdaba724	-0.08381489
237	0xbd41f292	-0.047350474
238	0x3c90bd05	0.017668257
239	0xbd9dd330	-0.077062964
240	0xbdab2051	-0.08355773
241	0xbd899053	-0.06716981
242	0x3b61a2fa	0.0034429417
243	0x3d4638ea	0.04839412
244	0xbd62a8a3	-0.055336606
245	0xbd93c150	-0.07214606
246	0x3a6ffd8d	0.00091549085
247	0x3d190f58	0.03736815
248	0x3d50cdac	0.050977394
249	0xbc44bbda	-0.012007678
250	0x3c9afcbc	0.018919341
251	0x3d347030	0.044052303
252	0x3d8b61eb	0.06805786
253	0xbd5728c0	-0.052529097
254	0x3d14efec	0.03636162
255	0xbc9eed19	-0.019400166

layers.3.bias f4 [256]
0	0x3d358e13	0.044324946
1	0xbcba191a	-0.022717047
2	0xbcb8a473	-0.022539353
3	0xbd8c4420	-0.06848931
4	0x3aa65c5c	0.001269232
5	0x3df72255	0.12067095
6	0x3df1f69f	0.11814617
7	0x3d42fc70	0.047604024
8	0x3bfff860	0.007811591
9	0xbd8d6e7c	-0.06905839
10	0xbd9efbf9	-0.07762904
11	0x3c96a738	0.018390283
12	0x3dd9a5e0	0.10627341
13	0x3d99c304	0.075078994
14	0xbda37d5f	-0.07982897
15	0x3db9895e	0.09059404
16	0xbccca9bb	-0.024983278
17	0x3d7853eb	0.060626905
18	0x3d76a2d7	0.06021389
19	0xbd464c2c	-0.048412487
20	0xbdb3f157	-0.08786266
21	0x3d984fd8	0.07437104
22	0x3de9048d	0.11377821
23	0x3c8fe2f2	0.01756427
24	0x3dca9206	0.09891133
25	0x3db778f0	0.08958614
26	0x3d0239b0	0.031793296
27	0x3c0099b4	0.007849146
28	0x3d08f62c	0.033437893
29	0x3e0e7300	0.13911057
30	0xbda09511	-0.07840932
31	0x3dabaec8	0.08382946
32	0x3e1abf3c	0.15112013
33	0x3a19bd5c	0.00058647036
34	0x3d89b274	0.0672349
35	0x3e00b668	0.12569582
36	0x3d6b5c1c	0.05746089
37	0xbacb4331	-0.0015507695
38	0x3e0e9d30	0.1392715
39	0x3dc09c3c	0.09404799
40	0x3a9d0341	0.0011979119
41	0x3cf9b5e2	0.030482236
42	0x3baa0363	0.005188392
43	0x3bb39c3b	0.0054812706
44	0x3d8234f9	0.0635776
45	0x3d9a579d	0.07536242
46	0xbd57d62b	-0.05269448
47	0x3dacc92a	0.084368065
48	0x3d93327c	0.071873635
49	0xbcd3bd18	-0.025847003
50	0xbc7bca9e	-0.015368132
51	0xbcdf3f48	-0.027251855
52	0x3d8168f1	0.06318844
53	0x3de39ab3	0.11113491
54	0x3de5daa7	0.11223345
55	0xbdb6f8e7	-0.08934193
56	0xbd726a1f	-0.059183236
57	0x3de4f558	0.11179608
58	0xbd58452a	-0.052800335
59	0xbd5ec032	-0.05438251
60	0x3c58c2cf	0.01323004
61	0xbc108a85	-0.008822088
62	0xbd9fa3a9	-0.077948876
63	0x3bd96f0a	0.0066355513
64	0x3dc268b9	0.094926305
65	0xbb3b5578	-0.002858488
66	0xbda59548	-0.08085114
67	0x3c8e8cc2	0.017401103
68	0x3d4d1e9d	0.050078023
69	0xbc94798b	-0.018124362
70	0x3d944739	0.07240147
71	0x3dda2a58	0.10652608
72	0xbdaf23c2	-0.08551742
73	0x3e247198	0.16058958
74	0x3c2587fe	0.010103224
75	0x3dbfb1d0	0.09360087
76	0x3c63ad57	0.013896308
77	0xbda16c4e	-0.078819856
78	0x3d80fb92	0.06297983
79	0x3c603866	0.013685321
80	0xbce6186a	-0.028087813
81	0xbb913332	-0.004431152
82	0x3dad5522	0.084635034
83	0x3c06e834	0.0082340725
84	0xbd9f3064	-0.07772902
85	0xbd5e5355	-0.05427869
86	0xbc238d28	-0.009982385
87	0x3df0da2f	0.11760365
88	0x3da7d2c9	0.08194501
89	0x3cbaf74b	0.022822997
90	0xbd77b5c0	-0.060476065
91	0x3cbdf62d	0.023188675
92	0xbd7d43c6	-0.061832212
93	0xbc7c3a68	-0.0153947845
94	0x3d5c8808	0.053840667
95	0x3d73d947	0.059533384
96	0x3d6619ee	0.056177072
97	0x3dc89d30	0.09795606
98	0xbb40bfe4	-0.002941125
99	0x3e0ef1c3	0.13959412
100	0x3da6d560	0.08146167
101	0x3c594019	0.013259911
102	0x3df9088d	0.12159834
103	0x3e16bcba	0.14720431
104	0xbd0d2790	-0.034461558
105	0x3d47ffee	0.048828058
106	0xbb82d72c	-0.0039929356
107	0x3da8679e	0.082228884
108	0x3dcc30a5	0.09970216
109	0x3d56b8de	0.052422397
110	0xbd81b4e9	-0.06333334
111	0xbd911500	-0.070840836
112	0x3d269c10	0.040676177
113	0x3cc7e999	0.02440338
114	0xbd699bea	-0.057033457
115	0xbc3c7410	-0.011502281
116	0xbd948c92	-0.07253374
117	0x3d081262	0.033220656
118	0xbdb955e1	-0.09049583
119	0xbd062b19	-0.032755945
120	0x3d77b0f7	0.0604715
121	0x3c8a02c9	0.016847031
122	0xbc4bfbba	-0.012450153
123	0x3d0934e8	0.03349772
124	0x3d711b8e	0.05886417
125	0xbd588269	-0.052858744
126	0xbb4d1852	-0.0031295014
127	0x3c8f1de4	0.017470308
128	0x3d3617c7	0.04445627
129	0xbdb15d15	-0.08660332
130	0xbb1cfccb	-0.0023954387
131	0x3d05d59b	0.032674413
132	0xba9d1d81	-0.0011986942
133	0xbbae7227	-0.0053236666
134	0xbb861577	-0.0040919143
135	0x3e28178b	0.16415231
136	0x3d62eeef	0.055403646
137	0x3cbf002f	0.023315517
138	0x3d7eaccc	0.06217651
139	0xbb85aae5	-0.00407921
140	0x3d961948	0.07329041
141	0xbaa48248	-0.0012551034
142	0xbd0fd8fd	-0.035119046
143	0xbccfa05f	-0.025345026
144	0x3d9a8be5	0.07546214
145	0x3c3266c5	0.01088876
146	0x3d721eed	0.059111524
147	0xbd665888	-0.056236774
148	0xbd6138b1	-0.054985706
149	0x3e1a79c2	0.1508551
150	0xbce254c4	-0.02762831
151	0xbda36d77	-0.07979863
152	0x3da1f692	0.07908358
153	0x3d8dd66c	0.06925663
154	0x3d161196	0.036637865
155	0x3d901caf	0.07036721
156	0xbd74979f	-0.05971491
157	0x3dadd984	0.084887534
158	0xbc2b1f8a	-0.010444531
159	0xbc804d34	-0.015661813
160	0x3dfb1619	0.12260074
161	0xbd75bd12	-0.059994765
162	0x3dd94043	0.1060796
163	0xbcb10940	-0.021610856
164	0xbcfbf7b3	-0.03075776
165	0xbd9d5fc4	-0.076842815
166	0x3cf09baa	0.029371101
167	0x3df7a9b9	0.12092919
168	0x3c9a2fce	0.018821623
169	0x3d184bc1	0.03718162
170	0xbc673e7f	-0.014114021
171	0xbd069e4c	-0.032865807
172	0x3d401a50	0.046900094
173	0x3d2086f8	0.039191216
174	0x3d694c34	0.05695744
175	0xbd3d1352	-0.046161003
176	0xbceb761d	-0.028742844
177	0x3d525d50	0.05135852
178	0x3d6c1914	0.057641104
179	0xbc70f2ca	-0.014706323
180	0x3c511747	0.012761897
181	0xbd66527c	-0.056231007
182	0x3d768834	0.060188487
183	0x3cc7807a	0.024353255
184	0x3b8f5e34	0.0043752436
185	0xbd4a97f3	-0.049461316
186	0xbd6c281a	-0.05765543
187	0x3c8f3b1d	0.017484242
188	0xbd258046	-0.040405534
189	0x3d31e6e0	0.04343307
190	0x3e045da0	0.1292634
191	0x3bb5778e	0.0055379337
192	0xbd78892c	-0.060677692
193	0x3d22df29	0.039763603
194	0xbc83fd63	-0.016112035
195	0x3dce52da	0.100743964
196	0x3d7f96f8	0.062399834
197	0x3c0e5cb6	0.008689096
198	0xbd471c1b	-0.048610788
199	0x3d15d6b2	0.036581703
200	0x3d9b2b63	0.07576635
201	0x3e180761	0.14846565
202	0x3def0d31	0.11672438
203	0x3c792a3b	0.015207822
204	0xbd94eeb1	-0.07272089
205	0xbd6bd2df	-0.05757415
206	0xbd6e5454	-0.05818589
207	0xbdafd02d	-0.08584628
208	0x3d754bbc	0.05988668
209	0x3d04a71c	0.03238593
210	0x3e32c84f	0.17459224
211	0xbc4745a7	-0.0121626025
212	0x3dec548f	0.11539566
213	0x389404e9	7.0581045e-05
214	0x3de78b4e	0.11305867
215	0xbaee5d89	-0.0018185835
216	0x3d76172b	0.06008069
217	0x3d1a9cef	0.03774732
218	0xbc59f5ee	-0.013303263
219	0x3a238a66	0.00062385795
220	0xbaec387c	-0.0018022205
221	0x3cf7bb89	0.03024079
222	0xbd21b67f	-0.039480682
223	0x3df798df	0.12089705
224	0xbd55b2ff	-0.052172657
225	0x3d89ebba	0.067344144
226	0x3d98c3d1	0.07459224
227	0xbd13143c	-0.03590797
228	0xbd2f2ffe	-0.04277038
229	0x3cd5c854	0.0260965
230	0x3db1621d	0.08661292
231	0x3e049232	0.12946394
232	0x3b0addff	0.002118945
233	0x3d09c358	0.03363356
234	0x3d4615f9	0.0483608
235	0x3da2688b	0.07930096
236	0x3d11e43d	0.035618056
237	0x3d8312b4	0.06400052
238	0x3db9d7ef	0.09074389
239	0x3da0039c	0.078131884
240	0x3d2bdf26	0.041960858
241	0xbd27fb74	-0.04101129
242	0x3cc7dda9	0.024397688
243	0x3dbc0770	0.09181106
244	0xbd96c68b	-0.07362088
245	0x3d6618ac	0.056175873
246	0x3c8d7007	0.017265333
247	0xbdac4961	-0.084124334
248	0xbd586c4d	-0.05283766
249	0xbd34f0af	-0.044174846
250	0x3e183d9c	0.14867252
251	0x3d2d3a77	0.042292085
252	0x3dc77e5e	0.097408995
253	0xbcfb2ec3	-0.030661946
254	0xbd93f0e6	-0.07223682
255	0x3d8a8441	0.06763507

layers.6.weight f4 [256, 256]
0	0xbc9479a3	-0.018124407
1	0x3d7f4478	0.062321156
2	0x3d4b533a	0.049639918
3	0x3cb1a0e8	0.021683171
4	0xbc18b59a	-0.009320641
5	0xbd67fe28	-0.056638867
6	0x3cec4074	0.028839327
7	0x3d434140	0.04766965
8	0xbd0838b3	-0.033257198
9	0xbd3a113d	-0.045426596
10	0x3bb8c4a3	0.0056386753
11	0x3c573084	0.013134126
12	0x3d2b0b38	0.041758746
13	0x3d01b81a	0.031669714
14	0xbccf1c1e	-0.025281962
15	0xbd515b90	-0.05111271
16	0xbc440b85	-0.011965637
17	0x3d14dccd	0.036343385
18	0xbd24a41e	-0.040195577
19	0xbb88e8bd	-0.004178135
20	0xbd3e875a	-0.0465158
21	0xbd202f63	-0.03910769
22	0x3d57710c	0.052598044
23	0x3d7dfbad	0.062007595
24	0x3b297e37	0.0025862583
25	0x3d22d13a	0.039750315
26	0xbc51c839	-0.012804084
27	0x3d4db131	0.05021781
28	0xbd383bae	-0.04497879
29	0x3b0f29cd	0.0021844984
30	0x3d4107ea	0.047126688
31	0xbd5726c0	-0.05252719
32	0xbc8e8086	-0.01739527
33	0x3d2e481b	0.042549234
34	0x3c6310bd	0.013858971
35	0xbd70deb2	-0.05880613
36	0xbbdce4e6	-0.006741154
37	0x3ccba7ba	0.024860252
38	0xbce6dffb	-0.028182974
39	0xbca9e719	-0.020740079
40	0x3d533867	0.05156746
41	0x3cf17cce	0.029478457
42	0x3c205636	0.009786179
43	0xbbaa17df	-0.005190834
44	0xbd3050d9	-0.043045852
45	0x3c2ec564	0.010667179
46	0xbcd54660	-0.026034534
47	0xbd0097af	-0.031394657
48	0xbd135108	-0.03596595
49	0xbccba09a	-0.024856854
50	0xbd47b1b7	-0.048753466
51	0x3cdfd580	0.027323484
52	0x3c97e156	0.018540066
53	0xbce8e6d1	-0.028430374
54	0xbc004633	-0.007829237
55	0xbbe6be22	-0.0070417086
56	0x3d4bf1f9	0.04979131
57	0x3bb6e8a3	0.0055819317
58	0xbd7a61a2	-0.061128266
59	0xbcf572c1	-0.029961945
60	0x3ce0c65b	0.027438333
61	0x3c88cc0c	0.01669886
62	0xbce7deb2	-0.028304432
63	0x3d7bb133	0.061448287
64	0xbcdf4bcd	-0.027257824
65	0xbc734542	-0.014848055
66	0x3b74fcc9	0.0037382117
67	0x3c83429a	0.016022969
68	0xbcd329ef	-0.025776831
69	0x3c21d4b8	0.009877376
70	0xbcacb109	-0.02108051
71	0xbc54f1c6	-0.012997096
72	0xbd0e3afa	-0.034724213
73	0xbd4511c4	-0.048112646
74	0xbcdbfbb5	-0.026853422
75	0x3d4b57a5	0.04964413
76	0x3d3813f7	0.044940915
77	0xbca4f05f	-0.02013415
78	0x3d784270	0.060610235
79	0xbd036439	-0.032078
80	0x3c8e7d41	0.01739371
81	0xbd2f82cc	-0.042849347
82	0x3d1c3e8c	0.038145587
83	0x3d3df7d7	0.046378937
84	0x3caecd97	0.021338267
85	0x3d32961d	0.04360019
86	0x3ce05090	0.027382165
87	0xbd1113f9	-0.035419438
88	0x3d2a6929	0.041604195
89	0x3ce84470	0.028352946
90	0xbc9e5c97	-0.01933126
91	0x3c09f388	0.008419879
92	0x3c3689e7	0.011141277
93	0x3ce3ab3e	0.027791616
94	0xbca808fa	-0.020512093
95	0x3c8a3844	0.016872533
96	0x3d58e579	0.052953217
97	0xbd354991	-0.04425961
98	0x3d62a036	0.05532857
99	0xbd491d7b	-0.04910038
100	0x3c2e5984	0.010641459
101	0x3d434040	0.047668695
102	0xbc1ba72f	-0.009500309
103	0x3d6a45b6	0.057195388
104	0xbd1a90b2	-0.03773565
105	0xbd3b404f	-0.045715626
106	0xbc2e0438	-0.010621123
107	0x3b7fc440	0.0039026886
108	0xbd5921be	-0.053010695
109	0x3d51d0e6	0.05122461
110	0x3cd15fd2	0.025558386
111	0xbd6ad24e	-0.05732947
112	0xbbb4ff72	-0.0055236155
113	0xbd145f23	-0.036223542
114	0xbc165599	-0.0091756815
115	0xbd64837a	-0.05578945
116	0xbd6c5d8a	-0.057706393
117	0xbd009b8e	-0.03139835
118	0x3d1e60a9	0.0386664
119	0xbcedcfd8	-0.029029772
120	0x3c72cebb	0.014819796
121	0xbd22fa32	-0.039789386
122	0xbd265f1e	-0.040618055
123	0xbd2be9dd	-0.041971076
124	0xbd800531	-0.0625099
125	0x3c2c5e56	0.010520538
126	0xbd0fd201	-0.035112385
127	0xbab31a2d	-0.0013664417
128	0xbc957ebc	-0.018248908
129	0xbd4d7fa2	-0.05017055
130	0x3cbdba0f	0.023160009
131	0x3d44bc9d	0.04803144
132	0x3ce9d992	0.028546128
133	0xbd6dbb54	-0.05803998
134	0xbc360f0f	-0.011111989
135	0xbd499f71	-0.04922432
136	0xbcdba89d	-0.0268138
137	0x3d483f4a	0.048888482
138	0xbc369497	-0.011143825
139	0x3d612718	0.054968923
140	0x3ce91f79	0.02845739
141	0xbbb4dbfe	-0.005519389
142	0x3d53aff4	0.051681474
143	0xbb5ee41b	-0.0034010473
144	0xbd2e7e84	-0.042601123
145	0x3d2530ff	0.04032993
146	0x3d19e3c9	0.03757075
147	0xbc936f13	-0.0179973
148	0x3c6099a8	0.0137085095
149	0x3d59b0b5	0.053147037
150	0x3d0fcf53	0.03510983
151	0x3c1ee170	0.009697303
152	0xbcbbd232	-0.022927377
153	0x3d25c4c2	0.040470846
154	0xbce6d909	-0.028179662
155	0xbc94d400	-0.018167496
156	0xbc07bd6d	-0.008284909
157	0xbc55053d	-0.013001737
158	0xbc734397	-0.014847658
159	0xbd3154ad	-0.043293644
160	0x3cdd674f	0.0270268
161	0x3d3d28b3	0.046181392
162	0xbd29578e	-0.041343264
163	0xbd7f7bdb	-0.062373977
164	0x3d6bd14f	0.05757266
165	0x3d050b76	0.032481633
166	0xbc430985	-0.011904125
167	0xbcb43387	-0.021997226
168	0xbbd57097	-0.006513666
169	0xbd45020f	-0.048097666
170	0x3cf16140	0.029465318
171	0xbd134ee8	-0.035963923
172	0x3d213fc7	0.039367463
173	0xbd61a8e9	-0.055092726
174	0x3a0dd227	0.0005410038
175	0x3d6c23d1	0.057651345
176	0xbd3df1c1	-0.046373133
177	0xbd65cd0f	-0.056103762
178	0xbd0b0094	-0.0339361
179	0x3a002bc9	0.0004889337
180	0xbb21d850	-0.0024695583
181	0x3d19ebab	0.037578266
182	0xbb44e515	-0.003004377
183	0xba6d71be	-0.00090577814
184	0xbc844b49	-0.01614918
185	0xbd15348c	-0.036427066
186	0xbc5d33ed	-0.01350115
187	0xbb8bb6ba	-0.004263726
188	0xbb810635	-0.0039375075
189	0xbca24059	-0.019806074
190	0x3c350e85	0.011050825
191	0xbd55fd60	-0.05224359
192	0x3cb83d4b	0.022490164
193	0x3d3bf767	0.045890238
194	0x3d5973ab	0.053088825
195	0x3d1e1887	0.03859761
196	0xbd51183c	-0.051048502
197	0x3d69c6d6	0.05707439
198	0xbd7b0066	-0.061279677
199	0x3d03b428	0.032154232
200	0xbca5922b	-0.0202113
201	0xbcac3c3c	-0.021024816
202	0x3d4ce5b1	0.05002374
203	0xbd6861b1	-0.05673379
204	0x3d0506b0	0.03247708
205	0xbd0d121c	-0.0344411
206	0xbd272997	-0.040811148
207	0x3cabf491	0.020990642
208	0xbd24f04f	-0.04026824
209	0xbd2a4051	-0.041565243
210	0x3d5cefc7	0.053939607
211	0xbd03bdbd	-0.03216337
212	0xbd67988c	-0.056541964
213	0x3cb9b1e6	0.022667836
214	0x3d002ff4	0.03129573
215	0x3c9b876b	0.01898547
216	0x3cbd474f	0.023105292
217	0xbd5c7482	-0.053822048
218	0x3d048fbe	0.032363646
219	0x3d1acee4	0.037794963
220	0xbd7485d1	-0.05969793
221	0x3c414162	0.011795374
222	0x3d2bbfc3	0.041930925
223	0xbd23f0e8	-0.040024668
224	0xbd48d6b4	-0.04903288
225	0x3c159a1d	0.009130982
226	0xbd7e7095	-0.062119085
227	0x3d43d46c	0.047810003
228	0x3c6a26f6	0.014291516
229	0x3d0f3556	0.034962974
230	0x3d465004	0.048416153
231	0x3ccfddd5	0.025374332
232	0xbd37b9d8	-0.04485497
233	0xbcdf87ca	-0.027286429
234	0x3d1a483f	0.037666555
235	0xbc61ae8f	-0.013774528
236	0x3d2d078c	0.042243525
237	0xbd599d9b	-0.05312882
238	0xbd36b88b	-0.044609588
239	0xbc99ba80	-0.018765688
240	0x3d103be4	0.035213366
241	0x3cb0297b	0.021504154
242	0xbcbc0c0e	-0.022954967
243	0xbcc1d542	-0.02366126
244	0x3d6fdea8	0.05856195
245	0xbcceadb4	-0.025229312
246	0x3d0383b9	0.032108042
247	0xbcc3f8cd	-0.023922348
248	0x3d33f475	0.043934304
249	0x3d30cbf0	0.04316324
250	0xbd4a7741	-0.049430136
251	0xbd0d3d84	-0.034482494
252	0xbbf2067f	-0.0073860283
253	0x3c901423	0.017587727
254	0xbca20d75	-0.019781807
255	0xbc88246d	-0.016618932

layers.6.bias f4 [256]
0	0x3bff59b4	0.007792676
1	0x3d1f118f	0.038835105
2	0xbc42f01b	-0.011898066
3	0x3d767704	0.060172096
4	0x3d3fe59c	0.046849832
5	0xbd56cc8b	-0.05244116
6	0x3ddc2ddb	0.10750934
7	0x3db492bc	0.0881705
8	0x3d66704a	0.05625943
9	0xbd35cf74	-0.044387296
10	0xbd531aa0	-0.051539063
11	0xbbfce5cd	-0.007717824
12	0x3de9f9a7	0.114245705
13	0x3ddaae52	0.1067778
14	0x3c48e89e	0.0122624915
15	0x3b7e930a	0.0038844966
16	0x3d046eab	0.032332104
17	0x3b2e900e	0.0026636156
18	0xbcdefed8	-0.027221128
19	0xbd42e607	-0.047582652
20	0x3d20611b	0.039155107
21	0x3d295e84	0.041349903
22	0x3be3ffa1	0.0069579636
23	0xbca49071	-0.020088406
24	0x3e0ad54a	0.13557926
25	0xbd1b9911	-0.037987772
26	0xbc4c2943	-0.012461009
27	0x3c14a358	0.009072147
28	0x3de07b09	0.10960967
29	0xbd2aa536	-0.041661464
30	0xbbefdcf8	-0.0073200427
31	0xbd582d7b	-0.05277775
32	0x3d0472dd	0.032336105
33	0xbc63206b	-0.0138627095
34	0xbc640d2e	-0.013919158
35	0x3cce4a0a	0.025181789
36	0xbd7fed33	-0.06248207
37	0xbc150ea9	-0.009097734
38	0xbc7dcfae	-0.015491409
39	0x3e22812c	0.15869588
40	0xbd561e84	-0.052275196
41	0x3cbe7cf6	0.023252945
42	0xbc2a11a4	-0.010380182
43	0x3c1d9398	0.009617709
44	0xbcc1a6ca	-0.023639102
45	0xbd815317	-0.06314676
46	0xbd596d72	-0.05308289
47	0x3dcd3c47	0.100212626
48	0x3e0c9533	0.1372879
49	0x3d8a999c	0.0676758
50	0x3d685840	0.056724787
51	0xbbf07581	-0.0073382263
52	0x3b6b385b	0.0035891745
53	0xbcfe2357	-0.03102271
54	0xbcabe4c3	-0.020983106
55	0x3d47f125	0.048813958
56	0x3b330887	0.0027318315
57	0x3dad94df	0.084756605
58	0x3acf3797	0.0015809414
59	0xbcdf339c	-0.027246289
60	0x3d0d51e9	0.034501944
61	0xbd2ba024	-0.04190077
62	0xbd6c7070	-0.057724416
63	0x3c94f797	0.018184466
64	0x3d84b44b	0.06479701
65	0x3c3d4885	0.011552935
66	0xbd185bf8	-0.037197083
67	0x3c0df9bb	0.008665497
68	0xbd4f1e2e	-0.05056589
69	0xbce6df49	-0.028182643
70	0x3e11fd3d	0.14256759
71	0xbcebb01a	-0.028770495
72	0xbd18d503	-0.03731252
73	0xbd0b50b4	-0.03401251
74	0x3d0073df	0.031360503
75	0xbbb2743e	-0.005445986
76	0xbd3d7500	-0.046254158
77	0xbb8f5c77	-0.0043750363
78	0xbc90a23a	-0.01765548
79	0x3cf4c71a	0.029880095
80	0x3d1dac3c	0.038494334
81	0xbbe897b3	-0.007098162
82	0x3cc35132	0.023842428
83	0xbd10c8f6	-0.0353479
84	0xbd38002e	-0.044922046
85	0xbd28dffd	-0.041229237
86	0x3cd65087	0.026161445
87	0x3d38ac58	0.045086235
88	0x3dd4822b	0.1037639
89	0x3ca3aed8	0.019980833
90	0x3cf69a1e	0.030102786
91	0xbd43a81a	-0.047767736
92	0xbd7404f3	-0.059575032
93	0xbc8f70a1	-0.01750976
94	0x3dd3cff6	0.103424
95	0x3e036810	0.12832665
96	0xbd59b3bb	-0.05314992
97	0x3c43e73d	0.011956987
98	0xbc85266a	-0.016253669
99	0xbcceeff2	-0.0252609
100	0x3d80d080	0.06289768
101	0x3c8450a2	0.01615173
102	0xbd2cfdd7	-0.042234268
103	0x3db0550d	0.08609972
104	0xbd6451a1	-0.05574191
105	0xbd232ac8	-0.03983572
106	0x3d2475b5	0.040151317
107	0xbcb64b02	-0.022252563
108	0xbd24effb	-0.040267926
109	0xbc9a4324	-0.018830843
110	0x3ca483e2	0.020082418
111	0xbd105940	-0.035241365
112	0x3db5e1a9	0.08880932
113	0x3cb1ffc4	0.021728404
114	0x3e158543	0.14601617
115	0x3d528d28	0.05140415
116	0x3dcc641c	0.09980032
117	0xbc5d9542	-0.013524355
118	0x3d4c9939	0.049950812
119	0x3cb85b56	0.02250449
120	0xbbf71eb4	-0.007541502
121	0x3d51079d	0.05103265
122	0x3e1ff65e	0.15621325
123	0x3dc22cfe	0.09481238
124	0x3d7033e0	0.05864322
125	0xbd34e0a0	-0.04415953
126	0x3d08ba50	0.033380806
127	0xbd73f618	-0.059560865
128	0x3c1d2caf	0.009593173
129	0xbcec4b7b	-0.028844586
130	0xbd5c39ad	-0.05376594
131	0xbd113e07	-0.035459545
132	0x3e2d0e71	0.1690004
133	0xbc0fddf8	-0.008780949
134	0x3cd209ac	0.025639378
135	0xbd2e0f88	-0.04249528
136	0x3d408a08	0.047006637
137	0x3dd501d5	0.1040074
138	0xbaeb2564	-0.001794022
139	0xbb74efd5	-0.0037374396
140	0x3d8f9e41	0.070126064
141	0xbb0930fb	-0.0020933736
142	0x3d1755f2	0.0369472
143	0x3ba370c3	0.0049878075
144	0x3e038e92	0.12847355
145	0x3ba4dbb7	0.005031075
146	0x3c954566	0.018221568
147	0x3d65a51a	0.056065656
148	0x3b61bc6a	0.003444458
149	0x3db4f04d	0.08834896
150	0x3d83a468	0.064278424
151	0xbcdea8c9	-0.027180092
152	0x3d9be6d9	0.0761239
153	0xbd3cb3b4	-0.046069816
154	0x3dbe8af8	0.0930385
155	0xbd06bb1e	-0.032893293
156	0x3a0bdd11	0.00053353707
157	0x3d112542	0.035435922
158	0xbc83306f	-0.016014306
159	0xbd7b0f47	-0.061293866
160	0x3d1fea2a	0.039041676
161	0xbc768913	-0.0150473295
162	0x3cc99ea8	0.024611786
163	0x3d211e7c	0.039335713
164	0x3d70c7f7	0.05878445
165	0x3d44ca03	0.048044216
166	0x3cba48b9	0.022739755
167	0xbcc9cbea	-0.024633367
168	0x3da54c5f	0.08071207
169	0x3c8a7fa5	0.016906569
170	0x3c239d69	0.00998626
171	0x3dea1287	0.11429315
172	0xbd09c6f1	-0.03363699
173	0xbc7650ce	-0.015033914
174	0x3da5ec82	0.08101751
175	0x3cca0d10	0.024664432
176	0x3dc7b587	0.097514205
177	0x3cf48803	0.029850012
178	0x3d01c6ce	0.031683736
179	0x3db4a8e4	0.08821276
180	0x3de1f8d2	0.11033787
181	0xbcddd4fc	-0.027079098
182	0xbd335711	-0.043784205
183	0xbcc5f18e	-0.024163034
184	0x3da9a2e6	0.082830235
185	0x3d123907	0.035698917
186	0x3d42f3e3	0.04759587
187	0x3d1ac364	0.037783995
188	0x3d06ba5c	0.03289257
189	0xbcf2a741	-0.029620769
190	0x3c81dd00	0.015852451
191	0x3d3e416e	0.046449117
192	0x3cf33622	0.029688898
193	0xbce0fba4	-0.027463742
194	0xbd134392	-0.035953112
195	0xbd6f7618	-0.058462232
196	0xbab8b6a0	-0.0014092512
197	0x3c78e0ce	0.015190316
198	0xbc588e2b	-0.013217489
199	0xbc8c7882	-0.017147306
200	0xbd5571f9	-0.052110646
201	0x3c1b9f0c	0.009498369
202	0x3e09c5b6	0.13454327
203	0x3d047997	0.03234252
204	0x3d7ed2a4	0.0622126
205	0x3d140fc3	0.036147844
206	0xbd44eba0	-0.048076272
207	0x3d598668	0.053106695
208	0x3db2254c	0.0869852
209	0xbd14057d	-0.036138047
210	0xbc9ffd0f	-0.019529847
211	0xbd1f6184	-0.038911358
212	0xbce2ef6f	-0.027702061
213	0xbd2e1557	-0.04250082
214	0x3d017714	0.031607702
215	0x3b8b8dd4	0.0042588506
216	0x3d2e9ec7	0.04263189
217	0x3d00c91e	0.0314418
218	0xbd60dc6f	-0.05489772
219	0x3daca586	0.084300086
220	0xbce00644	-0.027346738
221	0x3c9b3932	0.018948171
222	0x3bd81ed3	0.0065954714
223	0xbc5e7d71	-0.013579712
224	0x3d14c1fd	0.036317814
225	0xbbe288b7	-0.0069132703
226	0x3da2a890	0.07942307
227	0x3ad6c45e	0.0016385426
228	0xbc9d1ec9	-0.019179719
229	0xbd820e4a	-0.06350382
230	0x3c2d350f	0.010571732
231	0xbd6dd29a	-0.058062173
232	0x3cee1146	0.029060971
233	0x3e146eee	0.14495441
234	0x3c108b44	0.008822266
235	0x3d0d813f	0.034547087
236	0xbc557f5a	-0.013030851
237	0x3cc8c751	0.024509104
238	0x3c932b5a	0.017965008
239	0x3c5ac842	0.013353409
240	0xbc2e3a96	-0.010634085
241	0x3e10f218	0.14154851
242	0x3d1aefc9	0.037826333
243	0x3cc94e36	0.024573427
244	0x3cdc73d4	0.0269107
245	0xbd48129c	-0.048845872
246	0x3d5c4507	0.053776767
247	0xbd6ac6e5	-0.057318587
248	0x3d835de8	0.064143956
249	0xbcf2019b	-0.029541781
250	0x3d1cbb25	0.038264412
251	0x3de4181a	0.111374095
252	0xbd862757	-0.06550472
253	0x3c70201a	0.014656091
254	0x3d927c85	0.071526565
255	0xbc330b48	-0.010927983

layers.9.weight f4 [480, 256]
0	0xbd04a662	-0.032385238
1	0x3d2861d3	0.041108917
2	0xbcbf24c5	-0.023332963
3	0xbd3c681e	-0.04599773
4	0xbd09dc28	-0.033657223
5	0xbc8eab8e	-0.017415788
6	0x3c945d29	0.018110828
7	0xbdb4a7df	-0.08821081
8	0x3d0e13fb	0.034687024
9	0xbd148ca9	-0.036266956
10	0x3c81c156	0.01583926
11	0x3c0dec28	0.008662261
12	0x3c74b2f6	0.014935246
13	0xbd057ab3	-0.03258772
14	0x3b847501	0.0040422683
15	0x3d311225	0.043230195
16	0xbd6c5ae5	-0.05770387
17	0xbc5ea9b8	-0.013590269
18	0x3c23da61	0.010000796
19	0x3d7e986d	0.062157083
20	0xbc3c0e5d	-0.011478034
21	0x3c448224	0.011993919
22	0x3b3d47b0	0.002888184
23	0x3d20171a	0.03908453
24	0xbc6bc3bc	-0.014389928
25	0xbd5dca67	-0.054148104
26	0x3c9f2a33	0.019429302
27	0xbd1b52ad	-0.037920643
28	0xbd62c0c1	-0.055359606
29	0xbcf512cf	-0.029916195
30	0x3d7d3bc1	0.061824564
31	0xbc022f71	-0.007945881
32	0xbd2371f5	-0.0399036
33	0x3d08b3ef	0.033374723
34	0x3c9d0484	0.019167192
35	0x3d19656a	0.03745023
36	0x3d63eb77	0.05564448
37	0x3ca5ff67	0.020263387
38	0xbc72e664	-0.014825437
39	0xbcb71256	-0.02234761
40	0x3d53c4b7	0.051701274
41	0xbcf19a83	-0.029492622
42	0x3c76e4a0	0.015069157
43	0xbd7f140c	-0.062274978
44	0x3ba93ef5	0.0051649758
45	0x3caec07e	0.021332022
46	0xbd637dbc	-0.05553983
47	0xbce3d3b3	-0.027810907
48	0xbd68ab29	-0.056803856
49	0x3d2cf51f	0.042225953
50	0x3cd9b583	0.02657581
51	0x3c539f96	0.012916466
52	0xbcd4cef8	-0.025977597
53	0x3ce8b234	0.028405286
54	0x3c4c87ec	0.012483578
55	0xbbdfdbd3	-0.006831625
56	0xbcf3485b	-0.029697588
57	0xbd772950	-0.060342133
58	0x3d2bfe6a	0.041990675
59	0x3d742915	0.05960949
60	0x3c0f47e6	0.008745169
61	0x3ccf203e	0.025283929
62	0xbd378e0d	-0.044813205
63	0xbc3d3cf9	-0.011550182
64	0xbd86c025	-0.065796174
65	0x3d363a10	0.044488966
66	0x3ce5480b	0.027988454
67	0x3cfb323d	0.030663604
68	0x3d7750f1	0.060379926
69	0xbd2c2093	-0.042023253
70	0x3af801c9	0.001892143
71	0xbd4ad2f1	-0.049517576
72	0x3d377df1	0.04479784
73	0x3d452720	0.048133016
74	0xbce06491	-0.027391704
75	0xbd833e77	-0.064083986
76	0xbc918b2d	-0.01776656
77	0xbd61006f	-0.054932054
78	0xbd48d1d1	-0.04902822
79	0xbcc32914	-0.023823299
80	0x3cc6b8b7	0.024258
81	0x3d2c686a	0.042091765
82	0x3d5d202c	0.05398576
83	0x3d5ec6ed	0.05438893
84	0xbcae97e4	-0.021312661
85	0xb9a236d2	-0.00030939892
86	0xbd3ab8ee	-0.04558652
87	0xbd1a60f7	-0.03769013
88	0x3cfdaed3	0.030967152
89	0xbd8e0696	-0.0693485
90	0x3c47a14c	0.012184452
91	0xbd75717a	-0.059922673
92	0xbd346ede	-0.044051044
93	0x3d839acb	0.06426009
94	0x3bd3b2b1	0.0064605107
95	0x3caae890	0.020862848
96	0x3d21af56	0.039473854
97	0x3d06d728	0.032920033
98	0x3d7cf548	0.061757356
99	0x3d3d8b48	0.046275407
100	0xbd18bd0b	-0.03728966
101	0xbd1f7d42	-0.038937815
102	0xbd0bff07	-0.03417876
103	0xbcf69d94	-0.030104436
104	0x3cfacd93	0.030615604
105	0xbc02734b	-0.007962058
106	0x3cbf116e	0.02332374
107	0x3d0aa5b2	0.033849426
108	0x3cb678fa	0.022274483
109	0xbb517702	-0.0031961803
110	0x3d01b0e5	0.03166284
111	0xbd560382	-0.05224944
112	0x3ce99bbd	0.028516645
113	0xbcb61820	-0.0222283
114	0xbda4cd50	-0.08046973
115	0xbd22d048	-0.039749414
116	0xbcd6d6f8	-0.026225552
117	0xbd26563a	-0.040609576
118	0xbcc96a87	-0.024586929
119	0xbd6263ee	-0.05527108
120	0xbcfaec81	-0.030630352
121	0x3d332b97	0.043742742
122	0xbd13c628	-0.03607765
123	0xbd1f7dd9	-0.038938377
124	0x3d6b1919	0.057396982
125	0xbd0d9316	-0.0345641
126	0xbd67b583	-0.056569587
127	0x3c891a85	0.016736278
128	0xbd0b09d1	-0.03394491
129	0xbcf31627	-0.029673649
130	0x3d061c5c	0.03274189
131	0x3d78d24d	0.060747433
132	0x3bbf9187	0.0058462056
133	0xbd02ec62	-0.031963713
134	0xbc61f63d	-0.013791618
135	0x3c1549a1	0.009111793
136	0x3cc89751	0.024486216
137	0xbd1f7ce7	-0.038937476
138	0xbd1aca7c	-0.03779076
139	0x3d160c82	0.036633022
140	0xbd35f141	-0.04441953
141	0xbd4e8aa5	-0.05042519
142	0x3ad1049f	0.0015946812
143	0x3d22d751	0.039756123
144	0x3b9bf64e	0.0047595864
145	0x3d003009	0.03129581
146	0xbd646346	-0.055758737
147	0xbbd2ed6f	-0.0064369957
148	0x3d5945a0	0.053044915
149	0xbcbd7e5a	-0.023131538
150	0x3c4b0f6d	0.0123938145
151	0xbc49d279	-0.012318247
152	0xbce18b67	-0.027532293
153	0xba5ba938	-0.00083794026
154	0xbd960320	-0.07324815
155	0xbd5fe6b1	-0.054663364
156	0xbd56b82d	-0.052421737
157	0xbb34dd8f	-0.002759788
158	0x3b055dfb	0.0020350206
159	0xbc41884d	-0.011812282
160	0x3d26e118	0.04074201
161	0xbd644c46	-0.055736803
162	0xbd46c2bc	-0.048525557
163	0x3d05c433	0.032657813
164	0xbd58b85b	-0.05291019
165	0xbcd2f0f3	-0.02574966
166	0xbd25d5ed	-0.04048722
167	0x3d1c846f	0.038212236
168	0x3d875dae	0.06609665
169	0xbc73fd0d	-0.014891875
170	0x3d065e4e	0.03280478
171	0x3c8ac9b8	0.01694189
172	0xbcf3fa57	-0.029782457
173	0x3c8275de	0.015925344
174	0xbd1411d3	-0.03614981
175	0x3b878202	0.004135371
176	0xbd9f63fc	-0.077827424
177	0xbd8a88c0	-0.06764364
178	0xbbf9b061	-0.007619903
179	0xbd9ac579	-0.07557196
180	0xbd6f62b2	-0.058443733
181	0x3d296355	0.041354496
182	0x3cc2468c	0.02371528
183	0x3a1b320d	0.0005920239
184	0xbc858286	-0.01629759
185	0xbd2fb800	-0.042900085
186	0xbbda91df	-0.006670221
187	0xbbb962a4	-0.005657511
188	0xbd765235	-0.060136992
189	0x3ca24d19	0.019812154
190	0x3cc331f7	0.023827536
191	0x3c9e5dd3	0.019331848
192	0x3d301b2f	0.042994674
193	0xbc5054d6	-0.012715539
194	0x3d5a8193	0.053346228
195	0x3d66b6b9	0.0563266
196	0xbc3ac849	-0.011400291
197	0x3d51c818	0.051216215
198	0x3bdc661f	0.006726041
199	0x3cdcf3f9	0.026971804
200	0xbcc79801	-0.024364473
201	0xbba20208	-0.00494409
202	0xbd66a590	-0.056310236
203	0x3d7df0ad	0.061997104
204	0x3b985387	0.004648629
205	0xbbcdab52	-0.0062765265
206	0x3d28df45	0.04122855
207	0xbd80fb29	-0.06297905
208	0xba8b0af6	-0.0010608125
209	0x3b7c6f07	0.0038518326
210	0x3d454df8	0.04817006
211	0xbccc5c54	-0.02494637
212	0x3c3a3914	0.011366148
213	0x3caaeb36	0.02086411
214	0xbc868caf	-0.016424505
215	0x3c75c559	0.015000665
216	0xbc1b2525	-0.009469305
217	0x3d1757b7	0.036948886
218	0x3ca8bf23	0.020598954
219	0x3c092681	0.008370996
220	0xbc911fd7	-0.017715378
221	0xbd071415	-0.032978136
222	0x3baf62c9	0.0053523523
223	0xbd53be4b	-0.05169515
224	0xba04cd8e	-0.00050660304
225	0x3b96e873	0.004605347
226	0x3cb8d9da	0.022564817
227	0x3d12f37b	0.035876732
228	0xbc8fbce6	-0.017546128
229	0x3d5261fc	0.051362976
230	0xbd06b7e2	-0.032890208
231	0x3d14d948	0.036340028
232	0xbce4db32	-0.027936552
233	0xbb9d5193	-0.004800984
234	0xbcdc24c3	-0.026872998
235	0x3bb94a17	0.005654584
236	0xbcc21aad	-0.02369436
237	0xbb041e13	-0.0020159527
238	0x3ce8fd5f	0.02844113
239	0xbd15bb27	-0.036555436
240	0xbb154728	-0.0022778008
241	0x3cdabfab	0.026702723
242	0x3c89102d	0.016731346
243	0x3d059fc5	0.03262307
244	0x3cea6b50	0.028615624
245	0x3d855216	0.06509797
246	0xbc96a9e7	-0.018391563
247	0xbc9680ba	-0.018371928
248	0xbc8e685e	-0.01738375
249	0xbc9e55ad	-0.019327963
250	0x3cc449e9	0.023961024
251	0xbcd265f9	-0.02568339
252	0x3cd18bb4	0.025579311
253	0x3d3bf218	0.045885175
254	0x3cf04147	0.029328002
255	0x3d559280	0.052141666
