checkpoints/checkpoint_epoch_20.pt (torch, 895184 bytes, 8 tensors)

layers.0.weight f4 [128, 4]
0	0x3e96cce8	0.29453206
1	0x3e09aefc	0.13445657
2	0xbd52ad13	-0.051434588
3	0x3da226f5	0.07917587
4	0x3e23e119	0.16003837
5	0x3d84f266	0.06491546
6	0x3e0eb777	0.13937174
7	0xbea67332	-0.32509762
8	0x3e38040c	0.17970294
9	0xbec4cb6d	-0.38436452
10	0x3ea95d25	0.33078876
11	0xbeab8876	-0.3350255
12	0xbee98865	-0.45611873
13	0xbd7eb2fb	-0.062182408
14	0xbe34d53e	-0.1765947
15	0xbc4ab8a0	-0.01237312
16	0xbee67e4f	-0.4501824
17	0xbe6e090b	-0.23245637
18	0x3ee409bc	0.44538677
19	0xbdd37f32	-0.10326995
20	0x3ebf88bd	0.3740901
21	0xbebd9f2d	-0.37035504
22	0x3e5602b6	0.20899472
23	0xbdb9e765	-0.09077338
24	0xbeea7ce8	-0.4579842
25	0x3de1f012	0.11032118
26	0xbe6a37fc	-0.22872919
27	0x3e0619a6	0.13095722
28	0x3ea59193	0.32337627
29	0xbcd64424	-0.026155539
30	0x3ec5c610	0.38627672
31	0x3e10a509	0.14125456
32	0xbd54b187	-0.051927116
33	0xbe36038a	-0.17774788
34	0x3eb945cf	0.36186072
35	0x3e5fa5af	0.21840547
36	0xbeffc566	-0.4995529
37	0xbed781df	-0.4209127
38	0xba944af4	-0.0011313842
39	0x3e86cd61	0.26328567
40	0xbcef96a5	-0.029246638
41	0x3ef82ac7	0.48470137
42	0x3e062f5a	0.13104
43	0xbe3f483b	-0.18679897
44	0xbe1a9ea5	-0.1509958
45	0x3e895b53	0.26827487
46	0xbeb123f4	-0.34597743
47	0xbebf75fa	-0.37394696
48	0x3dc31164	0.095248014
49	0xbe5520bb	-0.20813267
50	0x3e6a74e3	0.22896151
51	0x3e31bac8	0.17356408
52	0xbd846f62	-0.06466557
53	0x3ee2ede2	0.44322115
54	0x3ec318c1	0.38104823
55	0xbeb6dfcb	-0.35717615
56	0x3effb6a0	0.4994402
57	0x3c269818	0.010168098
58	0xbee8e718	-0.4548881
59	0x3e26fe33	0.16307907
60	0x3e9cc922	0.30622202
61	0x3ea72bb6	0.32650536
62	0xbec92e1c	-0.3929299
63	0xbef969e4	-0.487136
64	0xbe813194	-0.25233138
65	0xbd19a6d0	-0.0375126
66	0xbd54aec3	-0.05192448
67	0xbda43ab9	-0.08019013
68	0xbe6cfe80	-0.23143959
69	0x3eac5d4b	0.33664927
70	0xbef85338	-0.4850099
71	0xbec1e453	-0.3786951
72	0xbeac68ae	-0.33673614
73	0x3ed0fbd2	0.40817124
74	0xbef27b9f	-0.4735994
75	0xbed3f5f0	-0.41398573
76	0x3e13f7ed	0.14450045
77	0x3c7ab593	0.01530208
78	0x3efc92b6	0.49330682
79	0xbeb1faff	-0.34761807
80	0xbee1a55f	-0.4407148
81	0xbe3493e1	-0.17634536
82	0x3eea388e	0.45746273
83	0x3ea49e2d	0.3215193
84	0xbebb7e93	-0.36620006
85	0x3eb105df	0.34574792
86	0xbe31a2ec	-0.17347306
87	0x3ef1ab70	0.4720111
88	0x3e86b262	0.2630797
89	0xbd1d0296	-0.038332544
90	0x3ee47e50	0.4462762
91	0xbe1a9c53	-0.15098695
92	0xbeee44dd	-0.46536914
93	0xbee53404	-0.44766247
94	0xbd894e94	-0.06704441
95	0xbe3069ac	-0.1722781
96	0xbdc4484e	-0.095841035
97	0xbed51812	-0.41619927
98	0xbea7b33a	-0.32753927
99	0xbc74b066	-0.014934635
100	0x3e53c662	0.20681146
101	0x3c7ecafe	0.015551327
102	0xbeb71c16	-0.35763615
103	0x3e397fb9	0.18115129
104	0x3e6e107e	0.23248479
105	0xbd3c3c4a	-0.045955934
106	0x3da9a1f2	0.08282842
107	0x3e0fc18d	0.14038678
108	0xbe8601a3	-0.26173124
109	0x3e13245f	0.14369343
110	0xbe032ae4	-0.1280933
111	0xbe96b9cc	-0.29438627
112	0x3eb936a6	0.36174506
113	0x3c4eb431	0.012616203
114	0xbedba3fc	-0.42898548
115	0x3ebe5649	0.37175205
116	0x3d7a3c23	0.061092507
117	0x3eaa1c92	0.33224922
118	0x3de08b45	0.109640636
119	0xbee8401d	-0.45361415
120	0xbe571d5b	-0.21007292
121	0xbe2549b3	-0.16141395
122	0x3ec2334c	0.3792976
123	0xbe0d4fb6	-0.13799939
124	0xbd43e616	-0.04782685
125	0xbeb26fe6	-0.34850997
126	0xbe143381	-0.14472772
127	0x3e417d49	0.18895449
128	0x3ec3438b	0.3813747
129	0xbea6efd9	-0.32604864
130	0xbe70fa83	-0.23533063
131	0xbe89cfce	-0.26916355
132	0xbd9ad8f3	-0.07560911
133	0x3df41fe4	0.11920145
134	0x3dddaf3c	0.10824439
135	0x3db60ea0	0.08889508
136	0x3dfe90ad	0.124299385
137	0xbe876804	-0.26446545
138	0xbe550726	-0.20803508
139	0x3ed9a141	0.4250584
140	0xbec0b0f9	-0.3763502
141	0xbc8698d6	-0.0164303
142	0x3ee01d19	0.437722
143	0x3e77cd7c	0.2419948
144	0xbea605bf	-0.3242626
145	0x3ea3bfae	0.31982177
146	0x3d4d0d2d	0.050061394
147	0x3e7d4e83	0.24736981
148	0x3e34a28c	0.17640132
149	0xbeb4470a	-0.35210449
150	0xbea46643	-0.3210927
151	0xbea2cfe1	-0.31799224
152	0x3e064e11	0.13115717
153	0xbdda951c	-0.106729716
154	0x3d9d08dd	0.07667706
155	0x3eeaee7d	0.45885077
156	0xbd4d8838	-0.050178736
157	0x3d210647	0.039312627
158	0x3a814776	0.0009863216
159	0x3ebce86e	0.3689608
160	0xbef4e78b	-0.47832903
161	0xbd40e97c	-0.047097668
162	0xbea7ba89	-0.32759503
163	0x3e85f27c	0.26161563
164	0xbe154828	-0.14578307
165	0x3e3ba99a	0.18326417
166	0xbe85098f	-0.25983855
167	0xbe53a754	-0.206693
168	0xbca9ec24	-0.020742483
169	0xbed273eb	-0.41104063
170	0x3d683855	0.056694347
171	0xbd99e4b6	-0.07514326
172	0x3ef7e044	0.4841329
173	0xbedfbaad	-0.4369711
174	0xbe9b1a39	-0.30293444
175	0xbdf9d9c4	-0.121997386
176	0xbe2c517a	-0.16827956
177	0x3e1834f8	0.14863956
178	0x3e9aad93	0.30210552
179	0xbebc6d46	-0.3680212
180	0x3efb86b2	0.49126202
181	0x3e9c795b	0.30561337
182	0x3db9b587	0.09067827
183	0xbd9d255b	-0.076731406
184	0x3ebd7f92	0.3701139
185	0x3e37554f	0.17903636
186	0x3ee2d846	0.4430563
187	0xbd240e51	-0.040052716
188	0xbe04e4e2	-0.12977937
189	0x3efa55d3	0.48893604
190	0xbe1f35e3	-0.155479
191	0xbe4997c7	-0.19686805
192	0xbebe90fa	-0.37219983
193	0xbeb619f3	-0.35566673
194	0xbe5bbace	-0.21457979
195	0x3de9ee53	0.1142241
196	0x3eddc6c8	0.4331572
197	0x3dbc33ce	0.091895685
198	0xbe8ea099	-0.278569
199	0xbc10f89f	-0.008848338
200	0x3dcccd66	0.10000114
201	0x3e9f93cd	0.3116745
202	0x3e1ab15f	0.15106724
203	0x3ecb9b80	0.39767075
204	0xbe8cd65d	-0.27507296
205	0xbe1be4de	-0.15224025
206	0x3dfceb77	0.12349599
207	0xbe32f05c	-0.17474502
208	0xbee48c85	-0.44638458
209	0xbdcbae8c	-0.099454015
210	0x3efe6bf0	0.49691725
211	0xbec6b2ab	-0.38808188
212	0x3d0f3b7c	0.034968838
213	0xbeddeb7d	-0.43343726
214	0x3ee67228	0.4500897
215	0xbedc5fbe	-0.43041795
216	0x3df99b25	0.121877946
217	0x3ec7a472	0.3899265
218	0xbd7702c8	-0.060305387
219	0x3eaa63e2	0.3327933
220	0x3d888745	0.066664256
221	0xbe8053f4	-0.2506405
222	0x3c99c234	0.018769361
223	0x3e717954	0.2358144
224	0xbee8c823	-0.45465192
225	0xbdd4f4b1	-0.10398234
226	0xbee1260e	-0.43974346
227	0x3e9cbf4a	0.30614692
228	0x3d94e980	0.07271099
229	0xbec76d22	-0.3895045
230	0xbedf4e4c	-0.43614423
231	0xbea00110	-0.3125081
232	0xbf077c6f	-0.52924246
233	0x3e6ca7d8	0.23110902
234	0xbed92e1d	-0.42417994
235	0xbef4992a	-0.47773105
236	0xbe2ada40	-0.16684818
237	0x3e9a9457	0.301913
238	0xbce3169a	-0.027720738
239	0x3e95d92a	0.29267246
240	0x3e49f313	0.19721632
241	0x3ed8f33b	0.4237307
242	0xbefc5a12	-0.49287468
243	0xbc98e6de	-0.018664774
244	0x3ea58999	0.3233154
245	0x3ef8f076	0.48620957
246	0x3dc264ab	0.09491857
247	0x3d0e30c2	0.034714468
248	0x3eabd9de	0.33564657
249	0x3da66e4b	0.081265055
250	0xbe5155be	-0.20442864
251	0xbde74b3e	-0.11293648
252	0xbd586c94	-0.052837923
253	0xbc67a65f	-0.014138787
254	0x3ea72a86	0.3264963
255	0x3ec32d8d	0.3812069

layers.0.bias f4 [128]
0	0xbef36d5a	-0.47544366
1	0x3e90c571	0.28275636
2	0xbd149f3e	-0.036284678
3	0x3e07ecdc	0.13273948
4	0xbeedad7d	-0.46421424
5	0xbd438fd4	-0.047744587
6	0x3d30d8d6	0.04317554
7	0xbdbf78bc	-0.093492
8	0x3e82d8e9	0.25556114
9	0x3dc5477c	0.09632775
10	0xbe19d157	-0.15021263
11	0xbe426cc8	-0.18986809
12	0x3e961d98	0.29319453
13	0xbea17774	-0.31536448
14	0xbebc4ff1	-0.3677974
15	0xbed0057d	-0.40629187
16	0xbed1ed24	-0.41001236
17	0x3ecd3c5b	0.4008511
18	0xbe84ab80	-0.25912094
19	0x3deafab3	0.11473598
20	0xbeaf1583	-0.341961
21	0xbc2088ae	-0.009798212
22	0xbeb65599	-0.3561218
23	0x3dd4e3c9	0.10395009
24	0xbee5dbe7	-0.44894335
25	0xbea67e62	-0.32518297
26	0x3ea45077	0.3209264
27	0xbd68bc68	-0.056820303
28	0x3e83f3f6	0.25772065
29	0x3e879feb	0.26489195
30	0x3e97d8c4	0.29657567
31	0xbeccdf4b	-0.4001411
32	0xbdb84ec3	-0.089993976
33	0x3ea01387	0.31264898
34	0xbd61ef8d	-0.055160094
35	0xbe915a1f	-0.2838907
36	0x3eac3ec6	0.33641642
37	0xbed5a8b6	-0.4173028
38	0x3edd4159	0.4321392
39	0xbebe805c	-0.37207305
40	0x3edc1379	0.42983606
41	0x3db72c96	0.08944051
42	0x3f004fd4	0.5012181
43	0xbeeb0661	-0.45903304
44	0xbefa6bcc	-0.48910367
45	0xbcaec678	-0.021334872
46	0xbef51cf2	-0.47873646
47	0xbe70970d	-0.23495121
48	0xbc83be4b	-0.01608195
49	0x3efbf489	0.49210003
50	0x3e4ff002	0.203064
51	0x3eefb226	0.46815604
52	0x3e4286ec	0.18996781
53	0xbeec070b	-0.46099123
54	0x3de688af	0.11256539
55	0x3eabd93a	0.33564168
56	0x3dbd909f	0.092561
57	0x3e307005	0.17230232
58	0x3c979476	0.018503409
59	0x3efb91ae	0.49134582
60	0xbea42f00	-0.32067108
61	0xbe113da2	-0.14183667
62	0x3e67d1a9	0.22638573
63	0x3ecdb185	0.401745
64	0x3e73804b	0.23779409
65	0x3ef026ee	0.469047
66	0x3edc81e7	0.43067858
67	0x3efe64f5	0.496864
68	0x3cdf225c	0.027238064
69	0x3e45ad49	0.19304384
70	0x3f0cc225	0.5498374
71	0x3d9b33e9	0.075782605
72	0xbed7336d	-0.42031422
73	0xbe2d83f6	-0.1694487
74	0xbe2c74a7	-0.16841374
75	0x3eeb8226	0.45997733
76	0x3ed5675d	0.41680422
77	0xbec35275	-0.38148847
78	0x3ec66f5c	0.38756835
79	0x3ee05fc2	0.43823057
80	0x3f0955df	0.53646654
81	0x3e00badf	0.12571286
82	0x3e770e0c	0.24126452
83	0xbe061b7d	-0.13096423
84	0x3e5dc021	0.21655323
85	0x3e739721	0.2378812
86	0x3e3c30b5	0.18377955
87	0xbeb381d3	-0.35059986
88	0x3e18cfe6	0.14923057
89	0xbe929019	-0.28625563
90	0x3d78a306	0.060702346
91	0xbecc0ba2	-0.39852625
92	0x3edfd2bf	0.43715474
93	0x3da322f6	0.07965653
94	0x3ec41fa6	0.38305396
95	0x3e59e099	0.21277083
96	0xbc04356e	-0.008069379
97	0x3f089899	0.53357846
98	0x3d7fc5ea	0.062444605
99	0xbdd4aed8	-0.10384911
100	0x3ead5cbe	0.3385982
101	0x3d650cda	0.05592046
102	0xbef4b13f	-0.47791478
103	0xbde65973	-0.1124753
104	0x3ef48522	0.47757822
105	0x3ee4a176	0.44654435
106	0x3c9bd65c	0.019023113
107	0x3edee20e	0.4353184
108	0xbe819a20	-0.253129
109	0x3ebf4ee5	0.3736488
110	0x3e7d74c3	0.24751572
111	0xbe4ed3ac	-0.20197934
112	0xbcdee604	-0.02720929
113	0x3da0b23f	0.07846498
114	0xbe33db06	-0.1756402
115	0xbe277408	-0.16352856
116	0xbe11f94c	-0.14255255
117	0xbeae314a	-0.3402198
118	0x3e8d83d0	0.27639627
119	0x3db22cbd	0.086999394
120	0x3db3e19e	0.087832674
121	0x3ed7159b	0.4200867
122	0xbedda376	-0.43288773
123	0xbe00f636	-0.12593922
124	0xbee91250	-0.45521784
125	0xbeeb654e	-0.45975727
126	0xbe178acd	-0.14799042
127	0x3ea985f0	0.3311

layers.3.weight f4 [256, 128]
0	0xbd3e8e7e	-0.04652261
1	0x3bc318e4	0.005953895
2	0xbdaf8217	-0.085697345
3	0xbd63bcea	-0.055600084
4	0x3c6c6de6	0.014430499
5	0x3c451427	0.0120287305
6	0x3d19a5bb	0.03751157
7	0xbd9c4fcc	-0.076324075
8	0x3dbd9000	0.092559814
9	0xbd9a5f29	-0.075376816
10	0xbd7c811c	-0.061646566
11	0xbd14cfef	-0.036331113
12	0xbcbb959f	-0.022898493
13	0xbd41504a	-0.04719571
14	0x3dae2ca4	0.08504608
15	0xbca7f0ea	-0.020500619
16	0x3c3d3e4a	0.011550495
17	0x3d962160	0.073305845
18	0xb93fe581	-0.00018300676
19	0x3c23d0de	0.009998528
20	0xbd57f493	-0.05272348
21	0xb9ac7cfb	-0.00032899514
22	0x3cf12030	0.029434294
23	0xbda20e46	-0.07912879
24	0x3d4198d5	0.047264893
25	0x3d0e9eda	0.03481946
26	0x3bec8515	0.007218013
27	0xbd348894	-0.044075564
28	0xbd625786	-0.05525925
29	0xbd8dbf99	-0.0692131
30	0x3d38598c	0.045007274
31	0x3b212c04	0.0024592886
32	0x3d6d0302	0.057864197
33	0xbd6a5d4b	-0.057217877
34	0xbc850d3a	-0.016241658
35	0xbd9ab81d	-0.07554648
36	0xbd62231c	-0.055209264
37	0x3d6a0535	0.057133872
38	0x3d784e1d	0.06062137
39	0x3d000ca9	0.031262074
40	0xbd5728c2	-0.052529104
41	0xbd670954	-0.05640538
42	0x3c5d46cc	0.013505649
43	0x3d95eb25	0.07320241
44	0x3d873a83	0.06602957
45	0xbcea2ae4	-0.028584905
46	0xbcedf33b	-0.029046645
47	0xbd60a2b7	-0.054842677
48	0x3d9de471	0.07709587
49	0x3dc31c1e	0.09526847
50	0x3c8351d4	0.01603023
51	0x3d3e81f7	0.046510663
52	0xbd0ebe4a	-0.034849443
53	0x3d885ec5	0.06658701
54	0x3d20dc53	0.039272618
55	0xbc509e92	-0.012733119
56	0xbd56069c	-0.052252397
57	0xbd34eace	-0.04416924
58	0xbdb55a71	-0.08855141
59	0x3cbda5aa	0.023150284
60	0xbc46259d	-0.012093929
61	0xbb4bea57	-0.003111502
62	0xbd28e3b7	-0.04123279
63	0x3d3dd90f	0.04634958
64	0xbc92a9b4	-0.017903186
65	0x3d99e418	0.075142086
66	0x3dd38ff1	0.10330189
67	0x3d9c3771	0.07627762
68	0xbc4f20b3	-0.012642073
69	0xbd880bba	-0.06642862
70	0xbc53dffe	-0.012931822
71	0x3b8d7c4a	0.004317795
72	0x3d177dcd	0.036985207
73	0xbd98d4e9	-0.074624844
74	0x3da6fa06	0.08153157
75	0x3da55576	0.08072941
76	0xba704bb3	-0.00091665535
77	0xbcb71e8a	-0.02235343
78	0x3d9455c1	0.07242919
79	0x3c9a20a7	0.018814398
80	0x3d5d5e89	0.054045234
81	0xbcdb05b1	-0.026736112
82	0xbd5384a0	-0.051640153
83	0xbd96b900	-0.07359505
84	0xbd383a8c	-0.04497771
85	0xbd913af5	-0.07091323
86	0x3c61f645	0.013791625
87	0x3da199d3	0.07890668
88	0x3d818bf6	0.063255236
89	0xbd275a82	-0.0408578
90	0x3d20c8e0	0.03925407
91	0x3cf088fd	0.029362196
92	0x3d9ed825	0.0775607
93	0x3d3ae365	0.045627017
94	0x3dc52940	0.096270084
95	0x3d822106	0.06353955
96	0xbab3c65c	-0.0013715732
97	0x3c5b0ab3	0.01336925
98	0x3c6658bb	0.014059241
99	0xbc99109c	-0.018684678
100	0x3d3c2e9e	0.045942895
101	0x3d5e919c	0.054338083
102	0xbd980ee0	-0.07424712
103	0xbc8974b5	-0.016779283
104	0xbc991002	-0.018684391
105	0xbc5c12f4	-0.013432253
106	0x3c8b9692	0.017039571
107	0xbb9ca4ef	-0.004780404
108	0xbcac4edd	-0.021033699
109	0xbcedc85f	-0.029026208
110	0x3d41e3cf	0.047336396
111	0xbcff9a7e	-0.031201597
112	0xbda2bb37	-0.07945865
113	0x3cae3030	0.021263212
114	0x3c7f0b78	0.015566699
115	0xbd8999b9	-0.067187734
116	0x3ca314d0	0.019907385
117	0xbdb1b614	-0.08677307
118	0x3dba5474	0.090981394
119	0x3d057085	0.03257801
120	0x3c1a9f8c	0.009437453
121	0x3d656eb5	0.05601378
122	0x3caac202	0.020844463
123	0xbd6c1c3a	-0.057644106
124	0xbd282a4f	-0.041055974
125	0x3ce96fc6	0.02849568
126	0xbcc0eff3	-0.023551917
127	0x3cf8a912	0.030354057
128	0x3d77fc84	0.060543552
129	0x3d26c74d	0.04071741
130	0xbcac5380	-0.02103591
131	0xbc944dd9	-0.018103527
132	0xbd7a637b	-0.06113003
133	0xbd32b2a5	-0.0436274
134	0xbd273e0c	-0.040830657
135	0x3d9621bd	0.07330654
136	0xbd133850	-0.035942376
137	0xbcf47c42	-0.029844407
138	0x3d9328ab	0.07185491
139	0xbd77a524	-0.060460225
140	0x3d89c8aa	0.06727727
141	0x3c7348d7	0.014848909
142	0xba996072	-0.0011701717
143	0xbd721e8a	-0.059111156
144	0xbdaedbb8	-0.08538002
145	0x3ce5c4c3	0.028047925
146	0xbda66118	-0.08123988
147	0x3dba0dcb	0.09084662
148	0xbc69fcf1	-0.014281497
149	0xbd86eaeb	-0.06587776
150	0xba391663	-0.0007060526
151	0x3cab69be	0.020924445
152	0xbd8a3e67	-0.067501836
153	0xbd949761	-0.07255436
154	0xbcde3f83	-0.027129894
155	0xbd1adbcd	-0.037807275
156	0x3dcad05e	0.09903024
157	0x3d1cc281	0.03827143
158	0xbd283d54	-0.041074112
159	0xbdb1e278	-0.086857736
160	0xbdad0e1a	-0.08449955
161	0x3d3ebca0	0.046566606
162	0x3ce7927f	0.028268097
163	0xbd83202d	-0.064026214
164	0x3c706dd6	0.014674624
165	0xbd4daa6b	-0.05021135
166	0x3da98fb2	0.08279361
167	0x3d684905	0.05671026
168	0xbd822752	-0.06355156
169	0x3b212b37	0.0024592408
170	0x3d83e47c	0.06440064
171	0xbd91d6a8	-0.071210206
172	0xbd2d15c8	-0.0422571
173	0xbd1522f3	-0.036410283
174	0x3d400274	0.04687734
175	0xbd8c2ee5	-0.06844882
176	0xbcc9ce3a	-0.02463447
177	0x3cc00f6d	0.023444856
178	0x3d842b1d	0.06453536
179	0xbc31ff98	-0.010864161
180	0xbcc4e368	-0.024034217
181	0xbb741ef5	-0.0037249897
182	0xbd934bc6	-0.07192187
183	0xbcc7d8b0	-0.024395317
184	0xbd4f32d2	-0.050585575
185	0x3da247f8	0.07923883
186	0x3c5664bd	0.013085541
187	0x3dd59291	0.10428346
188	0xbcf34f91	-0.029701026
189	0x3d1c1f04	0.038115516
190	0x3c58a707	0.013223416
191	0xbc180f64	-0.009281013
192	0xbc357b53	-0.011076766
193	0xbd58bb61	-0.052913073
194	0x3d6ee54f	0.058324154
195	0xbbdaf242	-0.0066817114
196	0xbdaf96aa	-0.08573659
197	0xbd8552ac	-0.06509909
198	0x3c00f3bd	0.007870612
199	0xbcd17da8	-0.025572613
200	0xbc40bcf9	-0.011763805
201	0xbc195b4d	-0.009360147
202	0xbcfcd822	-0.030864779
203	0x3db79b61	0.08965183
204	0xbd278085	-0.04089405
205	0xbca704c9	-0.020388024
206	0x3d41a5ee	0.047277384
207	0x3dc57785	0.09641937
208	0x3cabd211	0.02097419
209	0x3cc37502	0.023859505
210	0x3d29d449	0.041462217
211	0xbdac936c	-0.08426556
212	0x3d9e57ae	0.07731567
213	0xbd0f6c68	-0.035015494
214	0x3d04183a	0.032249667
215	0xbd0d12d8	-0.0344418
216	0x3c8b377c	0.01699423
217	0xbd6c58bb	-0.057701807
218	0xbd991a57	-0.07475727
219	0x3af5f5f4	0.0018765316
220	0x3d2581eb	0.040407103
221	0xbc4d9e23	-0.01254991
222	0xbbe6b68b	-0.007040804
223	0x3cce51cd	0.02518549
224	0xbd352ac5	-0.04423024
225	0xba9a9269	-0.0011792901
226	0xbbfff184	-0.0078107733
227	0x3d9289d8	0.07155198
228	0x3dbfaddf	0.09359335
229	0xbd9f3f48	-0.07775742
230	0xbcabca9d	-0.020970637
231	0x3d5ff698	0.05467853
232	0xbb811b16	-0.0039399965
233	0x3da8faa4	0.08250931
234	0xbcd8da1c	-0.02647119
235	0x3d2eff1c	0.04272376
236	0xbdacb8f5	-0.08433715
237	0xbd4c6400	-0.049900055
238	0x3cb47466	0.02202816
239	0xbda13495	-0.07871357
240	0xbda33639	-0.079693265
241	0xbd80233e	-0.06256722
242	0x3bb65e4c	0.0055654403
243	0x3d456b53	0.048198055
244	0xbd6356b7	-0.05550262
245	0xbd92eeec	-0.07174477
246	0x3b940a5c	0.0045178365
247	0x3d29f50d	0.041493464
248	0x3d521f17	0.05129918
249	0xbcbbca7d	-0.022923702
250	0x3caef70b	0.021358034
251	0x3d372fd7	0.044723358
252	0x3d8b6229	0.06805832
253	0xbd53ec3b	-0.05173896
254	0x3d094de8	0.033521563
255	0xbcc6be7f	-0.024260757

layers.3.bias f4 [256]
0	0x3cc4bec0	0.024016738
1	0xbd1ff251	-0.03904945
2	0xbcaa841a	-0.020814944
3	0xbd8c4474	-0.06848994
4	0xbc55277c	-0.013009902
5	0x3dda474c	0.1065813
6	0x3dd9b34b	0.106299005
7	0x3d547860	0.05187261
8	0x3b495294	0.0030719386
9	0xbd89fab8	-0.06737274
10	0xbd9e2401	-0.07721711
11	0x3c8ab58e	0.016932275
12	0x3dc60f1c	0.09670851
13	0x3d92892e	0.07155071
14	0xbda8a636	-0.08234827
15	0x3d945187	0.072421126
16	0xbcd7b92c	-0.026333414
17	0x3d8d906b	0.06912311
18	0x3d79e23e	0.061006777
19	0xbd3e4a1d	-0.0464574
20	0xbdb3ec5c	-0.08785316
21	0x3d9cf054	0.076630265
22	0x3ddc8442	0.10767414
23	0x3c8f4cb4	0.01749263
24	0x3db0682e	0.08613621
25	0x3d92f73b	0.07176062
26	0x3caebf69	0.021331506
27	0xbba08efe	-0.0048998585
28	0x3d234f61	0.039870623
29	0x3e035a12	0.12827328
30	0xbda05778	-0.07829183
31	0x3daba7c8	0.08381611
32	0x3e0c4be4	0.13700825
33	0xbc7c6dbe	-0.015407024
34	0x3d82afcf	0.06381189
35	0x3dd2f998	0.103015125
36	0x3d4a4244	0.049379602
37	0xba9b80bd	-0.0011863929
38	0x3df92933	0.12166061
39	0x3dba0b15	0.09084145
40	0x3c942237	0.018082721
41	0x3c8b218e	0.016983774
42	0x3bc9cc01	0.0061583524
43	0xbb3bacfb	-0.002863704
44	0x3d84e057	0.06488102
45	0x3d8e26e7	0.06941014
46	0xbd5d4fe7	-0.05403128
47	0x3d9070ad	0.07052741
48	0x3d832265	0.064030446
49	0xbd31c716	-0.043402754
50	0xbca5ae0b	-0.020224592
51	0xbcd41c1a	-0.025892306
52	0x3dadab33	0.08479919
53	0x3dc68896	0.096940205
54	0x3de833cf	0.11338007
55	0xbdb2438a	-0.08704288
56	0xbd78c960	-0.06073892
57	0x3dafa344	0.08576062
58	0xbd570751	-0.05249721
59	0xbd615ae4	-0.05501832
60	0x3c070c5d	0.008242694
61	0xbc8d3525	-0.017237255
62	0xbd976a4b	-0.07393321
63	0x3c2d0b6e	0.010561807
64	0x3da15cd7	0.07879036
65	0xbae4ffc5	-0.0017471245
66	0xbd98e136	-0.074648306
67	0x3bc158af	0.0059004645
68	0x3d52a61f	0.051427957
69	0xbc9222f3	-0.01783893
70	0x3d9436da	0.072370246
71	0x3de5a665	0.11213378
72	0xbd868fd1	-0.065703996
73	0x3e0a0220	0.13477373
74	0x3c2342a0	0.009964615
75	0x3dac1607	0.08402639
76	0x3c5c9219	0.013462567
77	0xbda732ec	-0.081640095
78	0x3d6edffa	0.05831907
79	0x3c4278f2	0.011869656
80	0xbcd22194	-0.025650777
81	0xbb5db61b	-0.0033830467
82	0x3da7e9c8	0.08198887
83	0x3bb7c060	0.0056076497
84	0xbd9b93fc	-0.07596585
85	0xbd5c6686	-0.05380871
86	0xbc003bb9	-0.007826739
87	0x3dde2350	0.10846579
88	0x3d84bb63	0.06481054
89	0x3ced6409	0.028978365
90	0xbd78a609	-0.06070522
91	0x3ca36ad5	0.019948402
92	0xbd8c5769	-0.0685261
93	0xbc75cf1c	-0.015002992
94	0x3d3b9409	0.045795474
95	0x3d242933	0.040078353
96	0x3d71a478	0.05899474
97	0x3db9cccc	0.09072265
98	0xbb594688	-0.0033153612
99	0x3e0cb897	0.1374229
100	0x3d9b2bba	0.075766996
101	0x3bf1e67c	0.007382212
102	0x3dcf3cf4	0.10119048
103	0x3df4f793	0.119612835
104	0xbd0a85ea	-0.033819117
105	0x3d3e2259	0.046419475
106	0x3c12e448	0.008965559
107	0x3da3cf3a	0.0799851
108	0x3da7e5ff	0.08198165
109	0x3d294fc8	0.04133585
110	0xbd86ed66	-0.06588249
111	0xbd8f0f8e	-0.06985389
112	0x3d0fa3ff	0.03506851
113	0x3cd610bb	0.026131025
114	0xbd684156	-0.056702934
115	0xbcacb62d	-0.021082962
116	0xbd948c89	-0.072533675
117	0x3cff2220	0.031144202
118	0xbd9e06f8	-0.07716173
119	0xbd22c195	-0.039735395
120	0x3d733ff5	0.059387166
121	0x3c451ca5	0.012030755
122	0xbc233cf4	-0.009963263
123	0x3d19dc8a	0.037563838
124	0x3d3bca01	0.045846943
125	0xbd58e278	-0.052950352
126	0xbc4971b7	-0.012295178
127	0x3cbb1acf	0.022839932
128	0x3ce24591	0.027621062
129	0xbdb16415	-0.08661667
130	0xbb52006c	-0.0032043708
131	0x3d0b7e27	0.034055855
132	0x3afdf59e	0.0019375568
133	0xbb849a8b	-0.0040467433
134	0x3c9b583b	0.01896297
135	0x3e0cf4c4	0.13765246
136	0x3d653831	0.05596179
137	0x3cc848fd	0.024448866
138	0x3d4d75d7	0.05016121
139	0xbb80d1f8	-0.00393128
140	0x3d711e6a	0.058866896
141	0xbb4118ca	-0.0029464238
142	0xbd2c84b9	-0.04211876
143	0xbce1268d	-0.027484203
144	0x3d7392c3	0.059466135
145	0x3be976d2	0.00712476
146	0x3d4224ad	0.047398258
147	0xbd67fe6d	-0.056639124
148	0xbd5dadfc	-0.054121003
149	0x3e1514f3	0.14558773
150	0xbcc7c233	-0.024384594
151	0xbda565d2	-0.08076061
152	0x3d9779bf	0.07396268
153	0x3d8ff30e	0.07028781
154	0x3d292905	0.041298885
155	0x3d58cf04	0.0529318
156	0xbd82f5fc	-0.06394574
157	0x3da58388	0.08081728
158	0xbc118b62	-0.008883329
159	0xbc6dd1bd	-0.0145153375
160	0x3ddd0820	0.10792565
161	0xbd756e0e	-0.05991941
162	0x3dc088c5	0.09401087
163	0xbcd7ef00	-0.026359081
164	0xbc10323c	-0.008801039
165	0xbd9b3ac2	-0.075795665
166	0x3ce44cdf	0.027868686
167	0x3dbd3f11	0.092405446
168	0x3c7043f8	0.0146646425
169	0x3cd8a2cd	0.026444817
170	0xbc659922	-0.0140135605
171	0xbd2f5ea8	-0.04281488
172	0x3d17c38c	0.037051722
173	0x3d1e3913	0.03862865
174	0x3d745366	0.059649847
175	0xbd390b72	-0.04517693
176	0xbd019955	-0.03164037
177	0x3d1c2a1a	0.03812609
178	0x3d889ccc	0.06670532
179	0xbce9d328	-0.02854307
180	0x3c70d0c9	0.014698216
181	0xbd665205	-0.056230564
182	0x3d941288	0.07230097
183	0x3c9771b5	0.018486837
184	0xbca3ae1b	-0.01998048
185	0xbd408143	-0.046998274
186	0xbd71b6cf	-0.05901223
187	0x3c1af8a3	0.009458694
188	0xbd6318c7	-0.05544355
189	0x3d317dd2	0.043332882
190	0x3dfdb910	0.123888135
191	0xbb9e97a0	-0.0048398525
192	0xbd766f6c	-0.060164854
193	0x3cf45b2e	0.029828634
194	0xbc822a25	-0.015889237
195	0x3dad3429	0.084572144
196	0x3d829fa5	0.06378106
197	0x3bbce33c	0.005764393
198	0xbd430d09	-0.047619853
199	0x3d0e6b6f	0.034770425
200	0x3d9bb4a9	0.076028176
201	0x3e0f8f11	0.14019419
202	0x3ddcfc58	0.10790318
203	0x3c67ec4c	0.014155459
204	0xbd904996	-0.070452854
205	0xbd660f0d	-0.056166697
206	0xbd6cfa04	-0.05785562
207	0xbdaf703a	-0.085663274
208	0x3d767cb4	0.06017752
209	0x3d49b393	0.04924352
210	0x3e1ec22b	0.15503757
211	0xbbd67d8a	-0.006545727
212	0x3dce40c4	0.10070947
213	0xbc0182c4	-0.007904712
214	0x3dd987ca	0.10621603
215	0xbc82a033	-0.01594553
216	0x3d60c74e	0.05487757
217	0x3d7c9e3e	0.06167435
218	0xbc595a42	-0.013266148
219	0x3b416754	0.0029511051
220	0xb9be8645	-0.00036339663
221	0x3d0582eb	0.032595556
222	0xbd144a14	-0.03620346
223	0x3dd17f76	0.10229389
224	0xbd35c776	-0.044379674
225	0x3d8aa44f	0.067696206
226	0x3d8d94f7	0.069131784
227	0xbd5248b6	-0.051338874
228	0xbd2e2f06	-0.042525314
229	0x3cc706cc	0.024295233
230	0x3da4bbc6	0.080436274
231	0x3ddbec67	0.107384495
232	0x3acef7de	0.0015790423
233	0x3cf969f8	0.030446038
234	0x3d31e1f0	0.04342836
235	0x3da35e32	0.07976951
236	0x3d115d0e	0.035489134
237	0x3d3c7e94	0.04601915
238	0x3da1a4ec	0.078927845
239	0x3d97f6cf	0.07420122
240	0x3d14cce4	0.03632821
241	0xbd3c294a	-0.045937814
242	0x3ce7e8e3	0.028309291
243	0x3daed775	0.08537189
244	0xbd96b87a	-0.07359405
245	0x3d5ea6e4	0.054358378
246	0x3ccca23a	0.0249797
247	0xbdb18fd8	-0.08670014
248	0xbd4ff460	-0.050770164
249	0xbd5bbad9	-0.05364499
250	0x3e0e27e1	0.138824
251	0x3d1664c5	0.036717195
252	0x3d96842d	0.07349429
253	0xbce066da	-0.027392793
254	0xbd92e990	-0.07173455
255	0x3d8b7081	0.06808568

layers.6.weight f4 [256, 256]
0	0xbc925065	-0.0178606
1	0x3d7fb793	0.06243093
2	0x3d4bc34b	0.049746793
3	0x3cb1a0a1	0.02168304
4	0xbc173f16	-0.009231349
5	0xbd6774f4	-0.05650802
6	0x3ced0485	0.02893282
7	0x3d4382db	0.047732215
8	0xbd06c314	-0.032900885
9	0xbd3a0f23	-0.04542459
10	0x3bb8bfa6	0.0056380806
11	0x3c570a31	0.013124988
12	0x3d2ac7d6	0.041694485
13	0x3d0248f6	0.031807862
14	0xbccf1975	-0.025280694
15	0xbd511a99	-0.051050756
16	0xbc43aa30	-0.011942431
17	0x3d14f055	0.03636201
18	0xbd25496a	-0.040353216
19	0xbb85766d	-0.0040729553
20	0xbd3e875c	-0.046515808
21	0xbd203699	-0.03911457
22	0x3d586e63	0.052839648
23	0x3d7dfb96	0.06200751
24	0x3b277b22	0.002555557
25	0x3d23c8a3	0.039986264
26	0xbc4f0b38	-0.012636952
27	0x3d4de7d0	0.0502699
28	0xbd37a49e	-0.044834726
29	0x3b214679	0.0024608655
30	0x3d4106e6	0.04712572
31	0xbd5726cb	-0.05252723
32	0xbc8d81c6	-0.017273795
33	0x3d2f0d0e	0.04273706
34	0x3c6300c4	0.013855163
35	0xbd70a001	-0.05874634
36	0xbbdd7f4e	-0.0067595607
37	0x3ccba98f	0.024861125
38	0xbce5f4ea	-0.028070886
39	0xbca9d8e8	-0.020733312
40	0x3d537a3c	0.051630244
41	0x3cf28c7a	0.029608
42	0x3c203a86	0.009779578
43	0xbba5fd79	-0.0050656167
44	0xbd304ab5	-0.043039996
45	0x3c2f5b4b	0.010702918
46	0xbcd5289c	-0.02602034
47	0xbd0072d4	-0.03135951
48	0xbd12fb7a	-0.035884358
49	0xbccb1498	-0.024790093
50	0xbd476236	-0.048677646
51	0x3cdfe47e	0.027330633
52	0x3c97875a	0.018497158
53	0xbce85487	-0.028360618
54	0xbbf757c9	-0.0075483066
55	0xbbe49883	-0.0069761886
56	0x3d4bec3c	0.049785838
57	0x3bbaa891	0.005696364
58	0xbd7a5e8c	-0.061125323
59	0xbcf56f7a	-0.029960383
60	0x3cdf6195	0.02726821
61	0x3c8910a1	0.016731562
62	0xbce781cb	-0.028260132
63	0x3d7bae69	0.061445627
64	0xbcded59d	-0.027201468
65	0xbc735daa	-0.014853874
66	0x3b79df7e	0.0038127596
67	0x3c8445d3	0.016146576
68	0xbcd3267e	-0.02577519
69	0x3c21d7ec	0.00987814
70	0xbcacb0d9	-0.021080421
71	0xbc542162	-0.012947412
72	0xbd0df05f	-0.034653064
73	0xbd44a9b9	-0.048013423
74	0xbcdc08b7	-0.026859624
75	0x3d4bea7d	0.049784172
76	0x3d388dda	0.045057155
77	0xbca4b9b4	-0.020108081
78	0x3d780ebc	0.060560927
79	0xbd0377c1	-0.032096628
80	0x3c8e6762	0.017383281
81	0xbd2f710e	-0.042832427
82	0x3d1cfb41	0.038325552
83	0x3d3e75d6	0.046499096
84	0x3caecd7c	0.021338217
85	0x3d3295f4	0.043600038
86	0x3ce052eb	0.027383288
87	0xbd1100ca	-0.035401143
88	0x3d2b359e	0.04179918
89	0x3ce823c2	0.028337363
90	0xbc9e5f5d	-0.019332582
91	0x3c0bacda	0.008525098
92	0x3c35c0b8	0.011093311
93	0x3ce37ed2	0.027770434
94	0xbca6f044	-0.02037824
95	0x3c893bdc	0.016752176
96	0x3d58de7d	0.052946556
97	0xbd3487f3	-0.044074964
98	0x3d62994d	0.05532198
99	0xbd488b68	-0.048961073
100	0x3c2e26f7	0.010629407
101	0x3d438fb6	0.047744475
102	0xbc176c0e	-0.009242071
103	0x3d6bf929	0.057610665
104	0xbd1a9106	-0.03773596
105	0xbd3b46e5	-0.045721907
106	0xbc2c49ec	-0.010515671
107	0x3b80cbdc	0.003930552
108	0xbd58a932	-0.052895732
109	0x3d529161	0.051408175
110	0x3cd22514	0.025652446
111	0xbd6ad1de	-0.05732905
112	0xbbb8340d	-0.0056214393
113	0xbd145f36	-0.036223613
114	0xbc165b20	-0.009176999
115	0xbd6416a0	-0.05568564
116	0xbd6c5d8b	-0.057706397
117	0xbd00ba46	-0.031427644
118	0x3d1ec522	0.03876222
119	0xbced11ec	-0.02893921
120	0x3c758f28	0.014987744
121	0xbd230092	-0.039795466
122	0xbd261d85	-0.040555496
123	0xbd2bf7b4	-0.041984275
124	0xbd7fac76	-0.06242033
125	0x3c2ce3d8	0.010552369
126	0xbd0f2964	-0.034951583
127	0xbaacaf9d	-0.0013174895
128	0xbc94a9a0	-0.01814729
129	0xbd4d7f90	-0.05017048
130	0x3cbd7f63	0.023132032
131	0x3d44b411	0.048023287
132	0x3ce9c3a4	0.028535672
133	0xbd6dbd7b	-0.05804203
134	0xbc353fd4	-0.011062581
135	0xbd4943e1	-0.049137
136	0xbcdba77b	-0.02681326
137	0x3d48372f	0.048880752
138	0xbc35ab18	-0.011088155
139	0x3d61271c	0.05496894
140	0x3ce9e262	0.02855033
141	0xbbb437c9	-0.005499814
142	0x3d5387c1	0.051643137
143	0xbb532b36	-0.00322218
144	0xbd2db2a2	-0.042406686
145	0x3d253c3c	0.040340647
146	0x3d1a9d16	0.037747465
147	0xbc9310e7	-0.017952396
148	0x3c602aae	0.013682051
149	0x3d5adc2b	0.053432625
150	0x3d1013a9	0.035175
151	0x3c1f2c8b	0.00971521
152	0xbcbc3431	-0.022974106
153	0x3d25cca6	0.04047837
154	0xbce6f892	-0.0281947
155	0xbc93d7c8	-0.018047228
156	0xbc059198	-0.008152388
157	0xbc54a4d2	-0.012978749
158	0xbc733727	-0.014844692
159	0xbd312989	-0.0432525
160	0x3cdd6b53	0.027028715
161	0x3d3d2a3a	0.04618285
162	0xbd294c08	-0.041332275
163	0xbd7f6846	-0.062355302
164	0x3d6c3522	0.05766786
165	0x3d050a09	0.032480273
166	0xbc42dc5f	-0.011893361
167	0xbcb40871	-0.021976681
168	0xbbd5cec5	-0.006524893
169	0xbd445bd7	-0.047939148
170	0x3cf15f92	0.029464517
171	0xbd139277	-0.03602835
172	0x3d21889e	0.03943693
173	0xbd61c7d2	-0.055122204
174	0x3a08d90c	0.0005220331
175	0x3d6c255a	0.05765281
176	0xbd3dda5f	-0.046350833
177	0xbd6581cb	-0.056031983
178	0xbd0ad5be	-0.033895247
179	0x3a2cc06a	0.0006589951
180	0xbb22033d	-0.0024721168
181	0x3d19ebab	0.037578266
182	0xbb42f374	-0.002974716
183	0xba2ed0bf	-0.0006668679
184	0xbc83c3c3	-0.016084557
185	0xbd153456	-0.036426865
186	0xbc5d34af	-0.01350133
187	0xbb8d85b3	-0.0043189167
188	0xbb7466fa	-0.0037292824
189	0xbca2400b	-0.019805929
190	0x3c35fb6a	0.011107305
191	0xbd55f5a6	-0.05223622
192	0x3cb839de	0.02248853
193	0x3d3c80cc	0.046021268
194	0x3d59735b	0.053088527
195	0x3d1efd2d	0.038815666
196	0xbd512586	-0.051061176
197	0x3d69227a	0.056917645
198	0xbd7b022f	-0.06128138
199	0x3d03e876	0.032204114
200	0xbca593e3	-0.02021212
201	0xbcab21be	-0.020890113
202	0x3d4de000	0.05026245
203	0xbd686263	-0.056734454
204	0x3d051884	0.032494083
205	0xbd0d17f9	-0.03444669
206	0xbd271a96	-0.04079684
207	0x3cabf5c9	0.020991223
208	0xbd24f07f	-0.040268417
209	0xbd2a295b	-0.041543346
210	0x3d5ebc62	0.054378875
211	0xbd039164	-0.032121077
212	0xbd67bc30	-0.056575954
213	0x3cb8c71f	0.022555886
214	0x3d0087f0	0.03137964
215	0x3c9d0cdc	0.01917117
216	0x3cbc3d28	0.02297838
217	0xbd5c2787	-0.053748634
218	0x3d048fb9	0.032363627
219	0x3d1b0cd9	0.03785405
220	0xbd7488a1	-0.059700612
221	0x3c410c24	0.01178268
222	0x3d2c0d2e	0.042004757
223	0xbd232f37	-0.03983995
224	0xbd4886cf	-0.04895669
225	0x3c159a26	0.00913099
226	0xbd7e269d	-0.062048543
227	0x3d43dce8	0.047818094
228	0x3c6a2670	0.014291391
229	0x3d0f3629	0.03496376
230	0x3d46d3b9	0.04854176
231	0x3cd096dd	0.025462562
232	0xbd37b41f	-0.04484951
233	0xbcde6595	-0.027148047
234	0x3d1abf1d	0.037779916
235	0xbc609c92	-0.013709204
236	0x3d2d0eae	0.042250328
237	0xbd58d502	-0.052937515
238	0xbd36c328	-0.04461971
239	0xbc9849e5	-0.018589923
240	0x3d106170	0.035249174
241	0x3cb08d1e	0.021551665
242	0xbcbd1041	-0.02307904
243	0xbcc0e974	-0.02354882
244	0x3d6fde9e	0.058561914
245	0xbccea04a	-0.025222916
246	0x3d035a4f	0.032068547
247	0xbcc3dcbc	-0.023908965
248	0x3d33f4e4	0.043934718
249	0x3d317d8c	0.04333262
250	0xbd49a5af	-0.049230274
251	0xbd0d9730	-0.03456801
252	0xbbf11ad1	-0.007357933
253	0x3c90c29e	0.017670926
254	0xbca18e67	-0.019721223
255	0xbc88255e	-0.01661938

layers.6.bias f4 [256]
0	0x3c00dc3b	0.007865007
1	0x3d40f953	0.047112774
2	0xbc3810be	-0.01123446
3	0x3d4f281e	0.050575368
4	0x3d11781b	0.035514932
5	0xbd529f9d	-0.05142175
6	0x3db686b5	0.08912412
7	0x3d8fe33a	0.07025762
8	0x3d142343	0.03616644
9	0xbd329b8f	-0.043605383
10	0xbd3ffe97	-0.046873655
11	0xbbfe3d07	-0.00775874
12	0x3db70492	0.089364186
13	0x3dad9175	0.08475009
14	0x3bd997eb	0.0066404245
15	0x3bea61a4	0.007152753
16	0x3cc6add2	0.024252806
17	0xbbaa0142	-0.005188138
18	0xbcda8de6	-0.02667899
19	0xbd451736	-0.04811784
20	0x3d219782	0.03945113
21	0x3d2a13fa	0.041522957
22	0x3b0cf15f	0.0021506173
23	0xbc97b24f	-0.018517641
24	0x3df032ed	0.11728463
25	0xbd19ae0b	-0.037519496
26	0xbc9cd949	-0.019146578
27	0x3c25b99c	0.0101150535
28	0x3dadf5aa	0.08494122
29	0xbd26505a	-0.040603973
30	0xbc5e9ca1	-0.013587148
31	0xbd520855	-0.051277477
32	0x3ceebcaa	0.029142696
33	0xbc62c9c3	-0.013842049
34	0xbc635486	-0.013875132
35	0x3cd4989f	0.025951682
36	0xbd7657ff	-0.060142513
37	0xbbf59e66	-0.007495689
38	0xbc9f9eea	-0.019484956
39	0x3e0609d0	0.1308968
40	0xbd55b513	-0.05217464
41	0x3c51bcfd	0.012801406
42	0xbc0b4abf	-0.008501708
43	0x3c3a9568	0.01138816
44	0xbcb4ef9a	-0.022086907
45	0xbd832b46	-0.06404738
46	0xbd59671b	-0.053076845
47	0x3db37dd8	0.08764237
48	0x3de8f7ea	0.11375411
49	0x3d71f231	0.059068862
50	0x3d2b5d85	0.041837234
51	0xbcae03e9	-0.021242099
52	0x3bde68a4	0.0067873765
53	0xbd09ecf9	-0.03367326
54	0xbca99862	-0.020702545
55	0x3d163626	0.036672734
56	0x3b387dfd	0.0028151267
57	0x3d9278e4	0.07151964
58	0xbb305f1c	-0.0026912158
59	0xbce30577	-0.027712567
60	0x3d075f3e	0.033049814
61	0xbd1faaee	-0.03898137
62	0xbd65d6e1	-0.056113128
63	0x3c9fc70b	0.01950409
64	0x3d4015a8	0.046895653
65	0x3c4f8c34	0.012667704
66	0xbd111fb7	-0.035430636
67	0x3c34206d	0.010994059
68	0xbd496a56	-0.049173675
69	0xbcc23ed0	-0.023711592
70	0x3dfd5f46	0.123716876
71	0xbd118225	-0.035524506
72	0xbd33c6ad	-0.043890644
73	0xbd06add4	-0.03288062
74	0x3cc33fc3	0.023834115
75	0xbc846136	-0.016159635
76	0xbd3dfa57	-0.04638132
77	0xbc2bae02	-0.010478498
78	0xbcec992b	-0.02888163
79	0x3cf71d70	0.030165404
80	0x3cf56b9e	0.029958542
81	0xbc57a4ec	-0.013161879
82	0x3cc6fb9d	0.0242899
83	0xbd1950c2	-0.037430532
84	0xbd3d1886	-0.046165965
85	0xbd28420a	-0.041078605
86	0x3ccd125a	0.025033165
87	0x3ccd1927	0.025036408
88	0x3db885f6	0.09009926
89	0x3c6fc936	0.014635375
90	0x3ceb568f	0.028727798
91	0xbd3f2765	-0.04666843
92	0xbd787ff0	-0.060668886
93	0xbcb691a2	-0.02228624
94	0x3db67076	0.08908169
95	0x3ddb960e	0.1072198
96	0xbd59b3bb	-0.05314992
97	0x3c5347cc	0.012895536
98	0xbc842cc4	-0.016134627
99	0xbccfa296	-0.025346082
100	0x3d406fe4	0.046981707
101	0x3c89fe03	0.016844755
102	0xbd2bf134	-0.041978076
103	0x3d908962	0.07057454
104	0xbd5a9c5a	-0.053371765
105	0xbd3cfd0c	-0.04613976
106	0x3d2729a5	0.0408112
107	0xbcb2e0fd	-0.021835798
108	0xbd24f018	-0.040268034
109	0xbc900c8e	-0.017584112
110	0x3ca4da93	0.020123756
111	0xbcf3c310	-0.029756099
112	0x3d9a7365	0.07541541
113	0x3cc71331	0.024301143
114	0x3dff7f99	0.12475509
115	0x3d0069d6	0.031350933
116	0x3da8836d	0.082281925
117	0xbc811956	-0.015759151
118	0x3cfd0c5e	0.030889686
119	0x3c297095	0.010341783
120	0xbbf4b0e7	-0.0074673775
121	0x3d346da6	0.04404988
122	0x3e06256d	0.13100214
123	0x3daab053	0.083344124
124	0x3d12863d	0.03577255
125	0xbd36aeea	-0.044600405
126	0x3ce11e10	0.027480155
127	0xbd7340a8	-0.059387833
128	0xb6b0e513	-5.2718765e-06
129	0xbcec4b84	-0.028844602
130	0xbd5bb845	-0.05364253
131	0xbd106412	-0.035251684
132	0x3e0f3a2f	0.13987039
133	0xbc07be54	-0.008285124
134	0x3cc0834c	0.023500107
135	0xbd262373	-0.04056115
136	0x3d30f196	0.043199144
137	0x3da7604f	0.08172666
138	0xba8e3ef6	-0.0010852504
139	0xbb7d478c	-0.0038647382
140	0x3d46842e	0.0484659
141	0xbbdd65a9	-0.0067565036
142	0x3d0a3542	0.033742197
143	0x3a4af656	0.00077423954
144	0x3dd891ed	0.10574708
145	0x3baaa6fc	0.0052078944
146	0x3c6e3f23	0.01454142
147	0x3d138aa0	0.036020875
148	0x3bd11aaa	0.0063813524
149	0x3d87a1c3	0.066226505
150	0x3d555d13	0.052090716
151	0xbd191719	-0.037375543
152	0x3d8307aa	0.06397946
153	0xbd4fb29e	-0.050707452
154	0x3daa770f	0.0832349
155	0xbd043275	-0.032274682
156	0x3a93f58e	0.0011288391
157	0x3d179b48	0.037013322
158	0xbc93c798	-0.01803951
159	0xbd7adfb2	-0.06124849
160	0x3d2bbe1f	0.04192936
161	0xbc66d23d	-0.014088211
162	0x3ceac7cc	0.028659724
163	0x3d0e6433	0.034763526
164	0x3d34bf49	0.044127736
165	0x3cec97f0	0.028881043
166	0x3ccbe773	0.024890637
167	0xbceb76db	-0.028743198
168	0x3d8135d3	0.06309094
169	0x3c677c7a	0.014128799
170	0x3c22749b	0.009915496
171	0x3dc16a16	0.094440624
172	0xbd0d38c2	-0.034477957
173	0xbc7bd84e	-0.015371395
174	0x3d8ad75c	0.06779358
175	0x3c8889a3	0.016667193
176	0x3d94dd45	0.07268766
177	0x3caaeb46	0.02086414
178	0x3c880a60	0.01660651
179	0x3d8f32e0	0.069921255
180	0x3db70df4	0.08938208
181	0xbcd6da0d	-0.026227022
182	0xbd4d3717	-0.050101366
183	0xbca9a64f	-0.020709185
184	0x3daaf4c4	0.083474666
185	0x3d1b6e54	0.037947014
186	0x3d3e18dc	0.046410426
187	0x3d21e343	0.039523374
188	0x3d09b69c	0.033621415
189	0xbd1f70ee	-0.038926058
190	0x3c98a0b1	0.018631311
191	0x3d3cc917	0.04609021
192	0x3cdf963b	0.027293315
193	0xbce116c9	-0.027476685
194	0xbd0c497c	-0.034249768
195	0xbd6d2ec8	-0.057905942
196	0xbca40ddd	-0.020026142
197	0x3c813a4a	0.015774865
198	0xbce3c49e	-0.027803715
199	0xbc656fae	-0.014003677
200	0xbd4e3b57	-0.05034956
201	0xbc00e331	-0.007866667
202	0x3df3ef69	0.11910898
203	0x3d09fea4	0.03369011
204	0x3d31f196	0.043443285
205	0x3cd9895d	0.026554758
206	0xbd44a3bd	-0.048007715
207	0x3d4e4930	0.050362766
208	0x3d9a27f3	0.07527151
209	0xbcfe5e97	-0.031050963
210	0xbc9e262b	-0.01930531
211	0xbd11070c	-0.03540711
212	0xbd2f9f93	-0.04287679
213	0xbd1d56e5	-0.038412947
214	0x3c918fcb	0.017768761
215	0x3b7f5fca	0.0038967007
216	0x3d0acd87	0.033887412
217	0x3d115dd8	0.035489887
218	0xbd5c4f07	-0.053786304
219	0x3d8b7951	0.06810249
220	0xbcd16176	-0.025559168
221	0x3ba813fe	0.0051293364
222	0xbc0f303e	-0.008739529
223	0xbc53cdc9	-0.012927481
224	0x3d22b02e	0.0397188
225	0xbbe2179f	-0.0068997885
226	0x3d68c5be	0.056829207
227	0xbc2cc171	-0.010544167
228	0xbcaeceba	-0.02133881
229	0xbd81f821	-0.06346155
230	0xbb4808b8	-0.0030522775
231	0xbd602dfc	-0.054731354
232	0x3d0c3ddc	0.03423868
233	0x3df93dcb	0.12169989
234	0x3c37971e	0.011205463
235	0x3ceb01ea	0.028687436
236	0xbc561b73	-0.013068068
237	0x3ca4cf03	0.020118242
238	0x3c7200d7	0.014770708
239	0x3c18818e	0.009308232
240	0xbca5b708	-0.020228878
241	0x3dfe497f	0.12416362
242	0x3c9b3c15	0.018949548
243	0x3cc25f6c	0.023727141
244	0x3cf76b86	0.030202638
245	0xbd49b32b	-0.049243134
246	0x3d1e9d2e	0.038724117
247	0xbd6965fd	-0.05698203
248	0x3d5aa7dd	0.053382743
249	0xbd221c7a	-0.03957794
250	0x3d1e4e90	0.03864914
251	0x3dbe05d7	0.092784576
252	0xbd72fac7	-0.05932119
253	0x3c5c13fa	0.013432497
254	0x3d8df3f3	0.06931295
255	0xbc2eef68	-0.010677196

layers.9.weight f4 [480, 256]
0	0xbd0488f4	-0.03235717
1	0x3d2b354a	0.041798867
2	0xbccda8cd	-0.025104905
3	0xbd3486a7	-0.044073727
4	0xbd127316	-0.035754286
5	0xbc8ea55d	-0.017412836
6	0x3c8857ed	0.016643489
7	0xbda82c15	-0.08211533
8	0x3d2837de	0.041068904
9	0xbd14835f	-0.036258098
10	0x3c82deaf	0.015975324
11	0x3c0e254d	0.008675885
12	0x3c2dccdd	0.010607925
13	0xbd23856d	-0.039922167
14	0xbb1a37d5	-0.0023531814
15	0x3d3124e7	0.043248083
16	0xbd67e7c7	-0.056617524
17	0xbc468c61	-0.01211843
18	0x3c2412ca	0.010014245
19	0x3d737ee6	0.05944719
20	0xbc73a00a	-0.014869699
21	0x3c44f493	0.012021202
22	0x3c911c15	0.017713586
23	0x3d201096	0.039078318
24	0xbc0e80f3	-0.008697736
25	0xbd5d1d64	-0.053983107
26	0x3c7f0457	0.015565
27	0xbd1b32bf	-0.037890192
28	0xbd44dc12	-0.048061438
29	0xbcf6ae13	-0.030112302
30	0x3d79f78d	0.0610271
31	0xbc03a1f5	-0.008034219
32	0xbd22d787	-0.039756324
33	0x3d08b40c	0.03337483
34	0x3c9d0c7c	0.019170992
35	0x3cfcc6b3	0.030856466
36	0x3d644f31	0.055739585
37	0x3cabd6ac	0.020976387
38	0xbc036158	-0.008018814
39	0xbc925ccc	-0.017866515
40	0x3d53c444	0.051700845
41	0xbd0b85f3	-0.03406329
42	0x3c773329	0.015087881
43	0xbd7eee43	-0.062238943
44	0x3b937b08	0.0045007505
45	0x3cf5557d	0.02994799
46	0xbd637dcf	-0.055539902
47	0xbcc12ded	-0.02358147
48	0xbd687cec	-0.05675976
49	0x3d2cb760	0.042167068
50	0x3d09ed87	0.03367379
51	0x3ce61dea	0.028090436
52	0xbcd4630f	-0.025926141
53	0x3ce0652f	0.027391998
54	0x3c4c8a43	0.012484136
55	0x3b5243c2	0.0032083844
56	0xbcf34724	-0.029697008
57	0xbd49837d	-0.049197663
58	0x3d1b34b1	0.037892047
59	0x3d744dc8	0.05964449
60	0x3c0f90ed	0.00876258
61	0x3cca45f6	0.024691563
62	0xbd376052	-0.044769593
63	0xbc643fe8	-0.013931252
64	0xbd7db640	-0.061941385
65	0x3d366163	0.04452647
66	0x3ce53063	0.027977174
67	0x3cfad651	0.030619772
68	0x3d772742	0.060340174
69	0xbd2bea5f	-0.04197156
70	0x3c073260	0.008251756
71	0xbd31ffe6	-0.043456934
72	0x3d37676b	0.04477636
73	0x3d453363	0.04814471
74	0xbcebf528	-0.028803423
75	0xbd82c1f2	-0.063846484
76	0xbc919038	-0.017768964
77	0xbd5cc9ca	-0.05390338
78	0xbd2ad284	-0.04170467
79	0xbcc3fec9	-0.023925202
80	0x3cd96141	0.026535632
81	0x3d295968	0.04134503
82	0x3d5d3689	0.054007087
83	0x3d5ecf20	0.05439675
84	0xbcb440d2	-0.022003565
85	0xb9a878bc	-0.0003213341
86	0xbd3ac5f2	-0.04559893
87	0xbd205900	-0.039147377
88	0x3d0bed16	0.03416165
89	0xbd7bc50b	-0.06146721
90	0x3c46750c	0.012112867
91	0xbd7570fd	-0.059922207
92	0xbd34bbda	-0.04412446
93	0x3d72b004	0.059249893
94	0x3c547033	0.0129662035
95	0x3cd237e1	0.02566141
96	0x3d21af56	0.039473854
97	0x3d0711e5	0.03297605
98	0x3d7cf6f5	0.061758954
99	0x3d3d973d	0.04628681
100	0xbd14d129	-0.036332283
101	0xbd1f6c89	-0.038921867
102	0xbd0bf6eb	-0.034171026
103	0xbcc2801a	-0.023742724
104	0x3cfabd2b	0.03060778
105	0xbc2a5015	-0.01039507
106	0x3cbff8f3	0.023434138
107	0x3d0ae409	0.033908878
108	0x3cb678f0	0.022274464
109	0xbc510e37	-0.012759737
110	0x3d01b267	0.03166428
111	0xbd554b57	-0.052073803
112	0x3d01ac6d	0.03165858
113	0xbcb5c598	-0.022188947
114	0xbda6ce1f	-0.08144783
115	0xbd188ddd	-0.037244666
116	0xbcd1683c	-0.025562398
117	0xbd26d528	-0.040730625
118	0xbd062f16	-0.03275975
119	0xbd871872	-0.065964594
120	0xbcfac450	-0.030611187
121	0x3d2526f7	0.040320363
122	0xbd203580	-0.03911352
123	0xbd2e0330	-0.04248351
124	0x3d5bc60c	0.05365567
125	0xbcf58223	-0.02996928
126	0xbd4e1a45	-0.05031802
127	0x3c891ea2	0.01673824
128	0xbd03c3f5	-0.0321693
129	0xbcf31624	-0.029673643
130	0x3cbbda66	0.022931289
131	0x3d792064	0.060821906
132	0xb9a15a25	-0.00030775476
133	0xbd02e770	-0.031958997
134	0xbc0a8555	-0.00845464
135	0x3c15347d	0.009106752
136	0x3cc97701	0.024592878
137	0xbcafe648	-0.021472111
138	0xbd1acab8	-0.037790984
139	0x3d16237e	0.03665494
140	0xbd03f032	-0.03221149
141	0xbd726e1a	-0.059187032
142	0x3c2dbc21	0.010603935
143	0x3d2103b0	0.039310157
144	0x3bcf802a	0.006332417
145	0x3d00313e	0.03129696
146	0xbd579948	-0.052636415
147	0xbc1eabfb	-0.009684558
148	0x3d5482e4	0.05188264
149	0xbb72f69a	-0.0037073256
150	0x3ca27145	0.019829402
151	0xbc3641d5	-0.011124094
152	0xbd000124	-0.031251088
153	0x39a15e38	0.0003077851
154	0xbd82b708	-0.06382567
155	0xbd5ffbb4	-0.054683402
156	0xbd5610e1	-0.05226219
157	0xbb34639b	-0.002752519
158	0xbb835151	-0.0040074964
159	0xbc432cc0	-0.011912525
160	0x3d27fc69	0.0410122
161	0xbd59c5bc	-0.05316709
162	0xbd470d10	-0.04859644
163	0x3d0959e4	0.033532992
164	0xbd6805f9	-0.05664632
165	0xbcb5ff3f	-0.022216437
166	0xbd252ab9	-0.040323947
167	0x3d101218	0.035173506
168	0x3d6a8a9c	0.057261094
169	0xbbe97913	-0.007125029
170	0x3d065cc3	0.03280331
171	0x3c753c57	0.014967999
172	0xbca3a13e	-0.019974347
173	0x3c825166	0.015907954
174	0xbd29a623	-0.041418206
175	0x3bcd5b33	0.0062669753
176	0xbd98b1fa	-0.07455821
177	0xbd62c826	-0.055366658
178	0x3bf047e7	0.00733279
179	0xbd82af7b	-0.063811265
180	0xbd81dc48	-0.063408434
181	0x3d4e722b	0.050401848
182	0x3cc04afb	0.023473253
183	0x3aad0591	0.0013200511
184	0xbcf00678	-0.02929996
185	0xbd2ef7c4	-0.042716756
186	0xbbefd18d	-0.0073186816
187	0xbbba6729	-0.005688567
188	0xbd756cbe	-0.059918158
189	0x3ca17f17	0.019713921
190	0x3cc317aa	0.023814995
191	0x3c3ed9fd	0.011648652
192	0x3d2d93f5	0.04237743
193	0xbc50578d	-0.012716186
194	0x3d5a59ab	0.05330817
195	0x3d66ba0e	0.05632978
196	0xbc0143b6	-0.007889679
197	0x3d519b37	0.051173415
198	0x3c5f3e39	0.013625675
199	0x3cdd181d	0.026989037
200	0xbcc78cbe	-0.024359103
201	0x3c2bfa38	0.0104966685
202	0xbd474e18	-0.04865846
203	0x3d7ddeb1	0.061979953
204	0x3c54da4a	0.012991497
205	0xbb8ad943	-0.0042373254
206	0x3d1ddd40	0.03854108
207	0xbd71b3ed	-0.05900948
208	0xbb74e509	-0.003736796
209	0x3b811060	0.0039387196
210	0x3d455cc8	0.048184186
211	0xbcc3a333	-0.02388153
212	0x3cb2d7ab	0.021831354
213	0x3c2da1a5	0.010597621
214	0xbc1a74f7	-0.009427301
215	0x3c760061	0.015014739
216	0xbb662374	-0.0035116347
217	0x3d189bca	0.037257947
218	0x3cc2a13c	0.023758523
219	0x3c214776	0.009843698
220	0xbc929e6c	-0.017897807
221	0xbd17acb6	-0.037029944
222	0x3c48e935	0.012262632
223	0xbd539e4b	-0.05166463
224	0xbc3402ea	-0.010987023
225	0x3b96ed73	0.004605943
226	0x3cdd8ade	0.027043756
227	0x3d2073e6	0.03917303
228	0xbc6d7ce0	-0.014495105
229	0x3d4ea531	0.050450508
230	0xbce4be39	-0.027922736
231	0x3d11ebea	0.035625376
232	0xbce3022f	-0.027711002
233	0x3ab09f2f	0.0013475175
234	0xbcdc2687	-0.02687384
235	0x3c6f2469	0.014596083
236	0xbcc21b92	-0.023694787
237	0xbbd62f1a	-0.0065363767
238	0x3cfbdf88	0.030746236
239	0xbd20e544	-0.039281145
240	0xbb38cc20	-0.002819784
241	0x3d13dd2b	0.036099594
242	0x3c65c90a	0.014024982
243	0x3cc97891	0.024593623
244	0x3cef76ec	0.029231511
245	0x3d79b192	0.06096036
246	0xbc59dd24	-0.013297353
247	0xbc967665	-0.018367002
248	0xbc3d179e	-0.011541275
249	0xbc3b590e	-0.0114348065
250	0x3cb3ddff	0.021956442
251	0xbc965396	-0.018350404
252	0x3cd16dcd	0.025565052
253	0x3d2908ca	0.041268148
254	0x3d012214	0.03152664
255	0x3d559331	0.052142326
