checkpoints/checkpoint_epoch_30.pt (torch, 895184 bytes, 8 tensors)

layers.0.weight f4 [128, 4]
0.29496524 0.1348356 -0.05169443 0.079605676 0.15670227 0.061128467 0.13441733 -0.32026696
0.17806421 -0.38547778 0.33031026 -0.33462515 -0.47982454 -0.066613495 -0.17061411 -0.016991539
-0.45299676 -0.23441814 0.44638497 -0.105994776 0.3752174 -0.36966938 0.20965365 -0.09211953
-0.483076 0.10946012 -0.2187271 0.11831053 0.32126 -0.027126957 0.38751882 0.14296158
-0.05088374 -0.17937592 0.36034092 0.21412073 -0.5300002 -0.41984373 -0.0039756233 0.24224062
-0.030498656 0.48649052 0.13135904 -0.1851168 -0.15450522 0.26783937 -0.34524179 -0.37325522
0.09640743 -0.20862725 0.22694871 0.1710448 -0.06411506 0.44155043 0.38078466 -0.35511595
0.5002403 0.011480542 -0.45666134 0.16467796 0.30260295 0.3236964 -0.39399 -0.48700646
-0.2523413 -0.0375225 -0.05193348 -0.080200024 -0.23614153 0.3412206 -0.48203674 -0.37226406
-0.33767176 0.40869248 -0.47289068 -0.41453165 0.14573383 0.011680355 0.49148437 -0.34488258
-0.44247052 -0.17598969 0.45581278 0.32150194 -0.37032986 0.34512645 -0.17314547 0.4709455
0.2618588 -0.03900425 0.44647768 -0.15107954 -0.4894161 -0.44569257 -0.06823867 -0.16902834
-0.09538237 -0.41577685 -0.32719347 -0.015258913 0.20885405 0.01751459 -0.36061475 0.18408808
0.23786542 -0.05027568 0.07676321 0.13519256 -0.26547828 0.149679 -0.12778145 -0.29168874
0.3689246 0.014633335 -0.43351105 0.36422634 0.057553235 0.3344624 0.10726931 -0.44847068
-0.21076658 -0.16077317 0.37659404 -0.13612175 -0.046664566 -0.34733942 -0.14410886 0.18787678
0.3836529 -0.32455128 -0.23374301 -0.26763853 -0.068193905 0.12101786 0.108642995 0.08700907
0.12389068 -0.26547372 -0.20779808 0.42258722 -0.3783549 -0.014978778 0.43764475 0.242016
-0.33823377 0.31696013 0.050861113 0.2380713 0.1766439 -0.35194245 -0.31994367 -0.3166941
0.13408305 -0.11098747 0.072926655 0.45377088 -0.04908096 0.039163843 0.0010116857 0.3678012
-0.49777755 -0.04900892 -0.32078215 0.25108483 -0.15008229 0.18503733 -0.2571474 -0.20503376
-0.023770792 -0.41795674 0.055224974 -0.07492578 0.48412827 -0.43698138 -0.30295247 -0.12201397
-0.17054415 0.14979295 0.3022895 -0.3700845 0.5001864 0.30837542 0.08535326 -0.075592965
0.36924872 0.17813216 0.44250536 -0.039642945 -0.13917871 0.49386546 -0.15287896 -0.1963801
-0.39063132 -0.35573152 -0.21461539 0.10915681 0.45541447 0.08310616 -0.28100184 -0.00280527
0.10554685 0.307608 0.1468533 0.39695334 -0.28444767 -0.15087086 0.12240878 -0.17402719
-0.45895258 -0.09535605 0.49223927 -0.3861842 0.035020456 -0.43353575 0.4495067 -0.43029127
0.11557222 0.38760322 -0.06220592 0.32841995 0.06947674 -0.25203735 0.019561296 0.2293754
-0.47544324 -0.109313786 -0.43385255 0.29130387 0.07264055 -0.39230224 -0.4327605 -0.3092295
-0.564818 0.22659095 -0.417216 -0.465229 -0.17201948 0.3008284 -0.028309278 0.28392693
0.19859172 0.42218494 -0.49644753 -0.018906021 0.3202197 0.48202333 0.091663584 0.033874776
0.33504495 0.080962606 -0.20615035 -0.10563136 -0.050378677 -0.011342516 0.3229365 0.3770314
00000000: af05 973e 5812 0a3e 8abd 53bd 4d08 a33d
00000010: 8f76 203e d861 7a3d b2a4 093e 08fa a3be
00000020: 7756 363e 585d c5be 6d1e a93e fd53 abbe
00000030: 90ab f5be a86c 88bd 77b5 2ebe d731 8bbc
00000040: 31ef e7be 4f0b 70be 928c e43e ca13 d9bd
00000050: 7f1c c03e 4e45 bdbe 72af 563e 2aa9 bcbd
00000060: bd55 f7be a12c e03d fff9 5fbe cb4c f23d
00000070: 317c a43e 5a39 debc de68 c63e 8564 123e
00000080: 786b 50bd 52ae 37be 9b7e b83e 7742 5b3e
00000090: 18ae 07bf c2f5 d6be f245 82bb ed0d 783e
000000a0: 51d8 f9bc 4915 f93e fc82 063e 428f 3dbe
000000b0: 9e36 1ebe 3e22 893e 88c3 b0be 4f1b bfbe
000000c0: 4271 c53d 62a2 55be 3e65 683e 5e26 2f3e
000000d0: c24e 83bd e612 e23e 35f6 c23e c2d1 b5be
000000e0: c00f 003f e218 3c3c 84cf e9be 57a1 283e
000000f0: c6ee 9a3e 89bb a53e 0fb9 c9be e958 f9be
00000100: e132 81be 31b1 19bd 33b8 54bd e93f a4bd
00000110: 16cf 71be 77b4 ae3e 85cd f6be 6599 bebe
00000120: 50e3 acbe 2440 d13e ba1e f2be 7e3d d4be
00000130: 403b 153e f65e 3f3c d7a3 fb3e 7394 b0be
00000140: 7f8b e2be a436 34be 4b60 e93e e79b a43e
00000150: e09b bdbe 6ab4 b03e 0c4d 31be c51f f13e
00000160: 5b12 863e ecc2 1fbd b998 e43e 98b4 1abe
00000170: bf94 fabe d131 e4be b7c0 8bbd c415 2dbe
00000180: d557 c3bd b4e0 d4be e785 a7be 8500 7abc
00000190: d6dd 553e c27a 8f3c 7fa2 b8be 9681 3c3e
000001a0: fe92 733e dfed 4dbd 0836 9d3d eb6f 0a3e
000001b0: c5ec 87be 7445 193e 24d9 02be 3a58 95be
000001c0: afe3 bc3e a8c0 6f3c 29f5 ddbe e07b ba3e
000001d0: f1bc 6b3d a83e ab3e 03b0 db3d f39d e5be
000001e0: 32d3 57be b9a1 24be efd0 c03e 8063 0bbe
000001f0: 5823 3fbd 79d6 b1be 4691 13be c562 403e
00000200: 276e c43e 962b a6be 545a 6fbe eb07 89be
00000210: 3fa9 8bbd 36d8 f73d 3880 de3d d031 b23d
00000220: 66ba fd3d 2cec 87be 05c9 54be 5a5d d83e
00000230: bcb7 c1be 8c69 75bc f912 e03e 0bd3 773e
00000240: fa2c adbe 9948 a23e be53 503d f6c8 733e
00000250: 23e2 343e cd31 b4be a8cf a3be bb25 a2be
00000260: 114d 093e 664d e3bd 925a 953d a854 e83e
00000270: 1e09 49bd 446a 203d 8a9a 843a 7050 bc3e
00000280: b3dc febe 94bd 48bd 8f3d a4be 318e 803e
00000290: 2caf 19be 6d7a 3d3e d3a8 83be 5ff4 51be
000002a0: f7ba c2bc 6dfe d5be 9533 623d b072 99bd
000002b0: a9df f73e 06bc dfbe 961c 9bbe 76e2 f9bd
000002c0: 20a3 2ebe 5363 193e b0c5 9a3e b77b bdbe
000002d0: 370c 003f 62e3 9d3e b1cd ae3d 7cd0 9abd
000002e0: 2b0e bd3e 4768 363e 1090 e23e a460 22bd
000002f0: dd84 0ebe efdb fc3e 4d8c 1cbe dd17 49be
00000300: d400 c8be 7122 b6be 23c4 5bbe 9b8d df3d
00000310: 162c e93e 9033 aa3d 79df 8fbe 9fd8 37bb
00000320: f228 d83d cc7e 9d3e b660 163e 783d cb3e
00000330: 20a3 91be e47d 1abe 74b1 fa3d 2f34 32be
00000340: d5fb eabe 084a c3bd c906 fc3e efb9 c5be
00000350: 9c71 0f3d 66f8 ddbe be25 e63e 234f dcbe
00000360: 21b1 ec3d ee73 c63e a3cb 7ebd a926 a83e
00000370: d249 8e3d 0a0b 81be 033f a03c 63e1 6a3e
00000380: 4c6d f3be e8df dfbd ec21 debe c825 953e
00000390: 92c4 943d d7db c8be c992 ddbe 5453 9ebe
000003a0: ea97 10bf 7507 683e 569d d5be 7f32 eebe
000003b0: e025 30be 2e06 9a3e dce8 e7bc df5e 913e
000003c0: a15b 4b3e a028 d83e 5f2e febe cde0 9abc
000003d0: d6f3 a33e c3cb f63e 1eba bb3d 47c0 0a3d
000003e0: 038b ab3e b9cf a53d 1419 53be 4155 d8bd
000003f0: df59 4ebd f6d5 39bc ef57 a53e 420a c13e

layers.0.bias f4 [128]
-0.47498634 0.28967 -0.03655988 0.12021434 -0.46008378 -0.044710375 0.03182822 -0.09147434
0.2589771 0.10073514 -0.14911014 -0.18945374 0.29608846 -0.31786042 -0.36483315 -0.4068594
-0.41000244 0.40060565 -0.25914863 0.11517638 -0.34097108 -0.011412326 -0.35636878 0.110477984
-0.44941393 -0.3207076 0.33345082 -0.05464571 0.27230716 0.26927578 0.30105773 -0.40160927
-0.09193325 0.31449595 -0.055554934 -0.28318095 0.3314257 -0.4187067 0.44037738 -0.37323266
0.4193541 0.092526555 0.5026227 -0.45901388 -0.48688847 -0.013252745 -0.47989684 -0.23113734
-0.011710846 0.4963608 0.21187954 0.46533734 0.19207595 -0.4612234 0.12249233 0.33771136
0.086848415 0.17120793 0.0140436385 0.48301977 -0.31703463 -0.13872577 0.23918174 0.4069241
0.24177799 0.46856096 0.44987434 0.50186354 0.03748015 0.18865371 0.54070365 0.07908304
-0.4165188 -0.1695388 -0.1618066 0.47480044 0.41682053 -0.38154462 0.40581214 0.43963793
0.54940987 0.12758851 0.25042534 -0.11668684 0.22315213 0.2269326 0.1903107 -0.3494918
0.149892 -0.28265882 0.063602395 -0.3986225 0.46547276 0.088757604 0.38737324 0.21484923
-0.002917827 0.5239248 0.068975165 -0.1025219 0.347422 0.05784976 -0.47836247 -0.11048483
0.47756812 0.4521696 0.02025714 0.43204135 -0.25464964 0.37631524 0.26712114 -0.2025327
-0.022575224 0.07958641 -0.17538354 -0.16458358 -0.14133847 -0.34077567 0.29766896 0.092818275
0.09959894 0.41825378 -0.42382053 -0.12608789 -0.4551842 -0.4579899 -0.14602523 0.33246753
00000000: 6931 f3be a04f 943e d0bf 15bd f032 f63d
00000010: 1a90 ebbe 3a22 37bd 4f5e 023d e656 bbbd
00000020: a598 843e 3a4e ce3d 54b0 18be 2900 42be
00000030: e898 973e 9abe a2be 69cb babe e04f d0be
00000040: d7eb d1be 2f1c cd3e 21af 84be 98e1 eb3d
00000050: c393 aebe c4fa 3abc f875 b6be 4842 e23d
00000060: 9519 e6be c933 a4be 11ba aa3e 2ed4 5fbd
00000070: d86b 8b3e 84de 893e 3d24 9a3e bb9f cdbe
00000080: 8047 bcbd 9d05 a13e 928d 63bd 18fd 90be
00000090: a1b0 a93e b960 d6be 2579 e13e 5a18 bfbe
000000a0: 95b5 d63e 907e bd3d e2ab 003f de03 ebbe
000000b0: 7249 f9be 0b22 59bc 0ab5 f5be 44af 6cbe
000000c0: d9de 3fbc 0123 fe3e f3f6 583e b240 ee3e
000000d0: 8faf 443e 7925 ecbe 42dd fa3d 81e8 ac3e
000000e0: 95dd b13d 2251 2f3e 4a17 663c 5e4e f73e
000000f0: 5d52 a2be 210e 0ebe 0fec 743e 5b58 d03e
00000100: a694 773e 39e7 ef3e ee55 e63e 217a 003f
00000110: c984 193d 702e 413e 8e6b 0a3f 4af6 a13d
00000120: f441 d5be 949b 2dbe a1b0 25be 0b19 f33e
00000130: 8069 d53e d159 c3be 9cc6 cf3e 3918 e13e
00000140: 20a6 0c3f 90a6 023e c037 803e 83f9 eebd
00000150: fe81 643e 0561 683e cfe0 423e 97f0 b2be
00000160: 4a7d 193e a8b8 90be f941 823d 4018 ccbe
00000170: 7252 ee3e 8cc6 b53d c955 c63e 7001 5c3e
00000180: 0439 3fbb f01f 063f da42 8d3d 00f7 d1bd
00000190: 4ce1 b13e dff3 6c3d edeb f4be df45 e2bd
000001a0: cf83 f43e c682 e73e 4df2 a53c 8634 dd3e
000001b0: 7061 82be 64ac c03e 1ac4 883e bb64 4fbe
000001c0: adef b8bc 33fe a23d be97 33be 9988 28be
000001d0: 08bb 10be 267a aebe 1168 983e 8217 be3d
000001e0: 87fa cb3d 5c25 d63e 01ff d8be 2f1d 01be
000001f0: e70d e9be a77d eabe a387 15be 2f39 aa3e

layers.3.weight f4 [256, 128]
-0.04653175 0.007190627 -0.08555266 -0.06100345 0.014063308 0.011914679 0.03270373 -0.077212386
0.09374548 -0.079191156 -0.06443397 -0.03609295 -0.019554278 -0.049306415 0.0844584 -0.019590812
0.011550443 0.07476707 -0.0013170074 0.009016263 -0.053164195 -0.0010292224 0.029208617 -0.084929265
0.046793953 0.03507917 0.012823796 -0.046291053 -0.04720262 -0.06963225 0.042493 0.0022902219
0.05890387 -0.055947836 -0.013492272 -0.07618016 -0.0556861 0.057120156 0.066511385 0.03109351
-0.04914689 -0.0557812 0.018158447 0.07319697 0.065548524 -0.031132309 -0.029735018 -0.05643489
0.07352206 0.10428231 0.01661589 0.0461947 -0.040403653 0.06620173 0.039974343 -0.007474566
-0.052062493 -0.039886594 -0.09054004 0.024615305 -0.011224552 -0.0065475265 -0.034603078 0.048390314
-0.01737815 0.08124629 0.108598664 0.082022704 -0.017600974 -0.06042646 -0.013213469 0.0020393021
0.035968717 -0.07481112 0.07822154 0.08200526 -0.00084146997 -0.022382101 0.08315918 0.016059283
0.05544347 -0.024054281 -0.048957266 -0.07749095 -0.044686195 -0.07209984 0.016585076 0.078258224
0.06491477 -0.04299441 0.04216703 0.029357735 0.08306633 0.046725832 0.09099324 0.061963584
-0.007026053 0.014383947 0.012000784 -0.017599516 0.049100075 0.05462745 -0.07440523 -0.019519301
-0.015438682 -0.011446982 0.017280683 -0.006130653 -0.020752499 -0.028849557 0.046072204 -0.029858397
-0.0825978 0.016628938 0.012830869 -0.067292176 0.020045687 -0.08719944 0.090734646 0.030572152
0.012211136 0.059733454 0.017972358 -0.057512514 -0.04105685 0.028379446 -0.021781132 0.03103996
0.06053734 0.041457 -0.02119369 -0.020578211 -0.0614229 -0.043861423 -0.042752687 0.07256006
-0.034682296 -0.031231211 0.070224606 -0.060010612 0.06976589 0.013483051 -0.001562362 -0.058417164
-0.08538002 0.031041723 -0.08161196 0.08969745 -0.014498863 -0.065090284 -0.00088785996 0.018072516
-0.067538105 -0.07234394 -0.022944145 -0.039053716 0.10508622 0.03791215 -0.042177483 -0.08687875
-0.08372 0.048169542 0.030365964 -0.06434963 0.015732642 -0.05005241 0.08801776 0.056614432
-0.058324076 0.003479544 0.06853616 -0.07121423 -0.04259446 -0.038015693 0.046391394 -0.06943823
-0.0256782 0.030382799 0.06596006 -0.00943694 -0.027446233 -0.0040352438 -0.070311956 -0.019981375
-0.048715577 0.08340575 0.012297117 0.10662576 -0.028771581 0.036288124 0.017942244 -0.006773362
-0.009118085 -0.04582603 0.06221052 -0.0020222373 -0.08735996 -0.06003865 0.008977033 -0.026507737
-0.012334407 -0.009407789 -0.03271358 0.08961042 -0.03858599 -0.02037482 0.0554849 0.09600058
0.021848492 0.025780015 0.0437518 -0.087067015 0.0770352 -0.03405305 0.03456179 -0.03481525
0.017997788 -0.05914936 -0.07256272 0.0018733933 0.04402281 -0.012201773 -0.010362753 0.024670806
-0.047662545 0.0016473415 -0.009445971 0.07261376 0.09638544 -0.07808043 -0.02110496 0.052841354
0.0006203859 0.08459674 -0.026611488 0.043033987 -0.08404888 -0.048804574 0.021835657 -0.0775485
-0.08174643 -0.06497668 0.0042392355 0.04826649 -0.05540268 -0.071867384 0.005158179 0.040298223
0.05381689 -0.017937561 0.020551015 0.045289423 0.0680583 -0.05192269 0.034876112 -0.020708527
00000000: 1498 3ebd 5a9f eb3b 3c36 afbd c1de 79bd
00000010: ca69 663c c935 433c 59f4 053d 8721 9ebd
00000020: a1fd bf3d f92e a2bd f5f5 83bd 33d6 13bd
00000030: 4b30 a0bc 86f5 49bd 87f8 ac3d e97c a0bc
00000040: 123e 3d3c 7a1f 993d 6f9f acba f3b8 133c
00000050: b3c2 59bd f9e6 86ba e946 ef3c 65ef adbd
00000060: 04ab 3f3d 2daf 0f3d e61a 523c b09b 3dbd
00000070: 8957 41bd 5a9b 8ebd 240d 2e3d 8c17 163b
00000080: 2f45 713d 8f29 65bd b10e 5dbc 5804 9cbd
00000090: 1c17 64bd d3f6 693d 1f37 883d d1b7 fe3c
000000a0: 404e 49bd d47a 64bd 06c1 943c 4be8 953d
000000b0: 4e3e 863d 2f09 ffbc da96 f3bc 4528 67bd
000000c0: bc92 963d f791 d53d 0c1e 883c a736 3d3d
000000d0: 4d7e 25bd c694 873d 23bc 233d 34ed f4bb
000000e0: 7b3f 55bd 2060 23bd 0e6d b9bd 09a6 c93c
000000f0: 2fe7 37bc a28c d6bb f5bb 0dbd ec34 463d
00000100: 9f5c 8ebc 7464 a63d fa68 de3d 85fb a73d
00000110: eb2f 90bc bc81 77bd 4e7d 58bc d0a5 053b
00000120: ef53 133d 9336 99bd 9d32 a03d 60f2 a73d
00000130: 1896 5cba ab5a b7bc 5c4f aa3d c28e 833c
00000140: b118 633d 7c0d c5bc 6a87 48bd 93b3 9ebd
00000150: df08 37bd 15a9 93bd 6ddd 873c d945 a03d
00000160: 09f2 843d e81a 30bd 56b7 2c3d a27f f03c
00000170: ae1e aa3d 9663 3f3d aa5a ba3d 87cd 7d3d
00000180: ce3a e6bb a5aa 6b3c f09e 443c dc2c 90bc
00000190: 291d 493d 08c1 5f3d c561 98bd f1e6 9fbc
000001a0: 87f2 7cbc 1f8c 3bbc 3890 8d3c a5e3 c8bb
000001b0: 2501 aabc e855 ecbc 35b6 3c3d 9999 f4bc
000001c0: 0929 a9bd 6939 883c 9138 523c 7bd0 89bd
000001d0: da36 a43c 9f95 b2bd 16d3 b93d 7372 fa3c
000001e0: 3711 483c 11ab 743d c43a 933c 3e92 6bbd
000001f0: 3a2b 28bd 037c e83c 586e b2bc 8447 fe3c
00000200: 00f6 773d d1ce 293d 649e adbc a393 a8bc
00000210: 9496 7bbd 09a8 33bd 711d 2fbd 5e9a 943d
00000220: 060f 0ebd 99d8 ffbc ebd1 8f3d b0cd 75bd
00000230: 6be1 8e3d 04e8 5c3c 2bc8 ccba d646 6fbd
00000240: b8db aebd 364b fe3c 2c24 a7bd 4cb3 b73d
00000250: a48c 6dbc 0e4e 85bd 46bf 68ba d00c 943c
00000260: 6b51 8abd 0f29 94bd 5cf5 bbbc caf6 1fbd
00000270: 7237 d73d c549 1b3d 4cc2 2cbd 7ced b1bd
00000280: 6475 abbd 6d4d 453d 0bc2 f83c bdc9 83bd
00000290: bee1 803c c203 4dbd a842 b43d 89e4 673d
000002a0: 3ae5 6ebd 1009 643b b05c 8c3d c4d8 91bd
000002b0: 8777 2ebd 58b6 1bbd e704 3e3d a135 8ebd
000002c0: 175b d2bc 59e5 f83c 1116 873d 659d 1abc
000002d0: ecd6 e0bc 143a 84bb b7ff 8fbd fbaf a3bc
000002e0: fc89 47bd a2d0 aa3d d979 493c 9b5e da3d
000002f0: 61b2 ebbc dba2 143d 9dfb 923c 14f3 ddbb
00000300: 0564 15bc 13b4 3bbd 75d0 7e3d 8387 04bb
00000310: c7e9 b2bd 16eb 75bd 6814 133c c126 d9bc
00000320: 4116 4abc 2123 1abc adfe 05bd ab85 b73d
00000330: 580c 1ebd 18e9 a6bc 2244 633d f49b c43d
00000340: 9cfb b23c 9c30 d33c 1635 333d 3150 b2bd
00000350: a2c4 9d3d 367b 0bbd aa90 0d3d 709a 0ebd
00000360: 1970 933c 9946 72bd c39b 94bd a68c f53a
00000370: 4351 343d f2e9 47bc 89c8 29bc 6e1a ca3c
00000380: cd39 43bd 9ceb d73a 46c3 1abc 86b6 943d
00000390: bb65 c53d a2e8 9fbd 4fe4 acbc 2d70 583d
000003a0: 65a1 223a 0e41 ad3d 5600 dabc 6844 303d
000003b0: d221 acbd 4ee7 47bd b1e0 b23c bfd1 9ebd
000003c0: ac6a a7bd 7e12 85bd 49e9 8a3b 15b3 453d
000003d0: eced 62bd 352f 93bd f105 a93b c00f 253d
000003e0: 196f 5c3d cbf1 92bc 9a5a a83c 6781 393d
000003f0: 2662 8b3d e3ac 54bd 41da 0e3d eea4 a9bc

layers.3.bias f4 [256]
0.034370333 -0.029440511 -0.021108929 -0.068487324 -0.0054214327 0.111146376 0.109898746 0.05233533
0.0036028633 -0.06833559 -0.07733545 0.020026762 0.099574216 0.07606667 -0.081592135 0.077331185
-0.025203241 0.06912747 0.061612196 -0.047178723 -0.08785623 0.075745 0.110879675 0.017513376
0.092548415 0.081265494 0.025239745 -0.00014300256 0.04201847 0.13143957 -0.0786493 0.0838199
0.14022973 -0.00768242 0.064851254 0.114117324 0.053056464 -0.0014138127 0.12897623 0.09238825
0.011687108 0.026030311 0.005487678 0.0003570311 0.064122416 0.0720069 -0.053171832 0.07415588
0.0664448 -0.033451807 -0.017470568 -0.0258197 0.08140915 0.10200369 0.113448925 -0.08767643
-0.060174976 0.09423598 -0.05266944 -0.054826885 0.010093098 -0.012407115 -0.07566083 0.010557417
0.08404999 -0.0023924792 -0.07570328 0.011665358 0.05087011 -0.018150933 0.07237696 0.11316549
-0.06919947 0.14538392 0.009917481 0.08675858 0.012914152 -0.08114459 0.06024796 0.0124858
-0.026853729 -0.0034739973 0.08155395 0.007995258 -0.076603845 -0.05407681 -0.008547191 0.110570125
0.0722826 0.027191862 -0.06053742 0.02405348 -0.065733075 -0.015333034 0.04801936 0.047052298
0.057707507 0.09312016 -0.0030707072 0.13875334 0.07809 0.009391534 0.11262577 0.12797105
-0.03406438 0.04691414 0.006198159 0.08108101 0.08665503 0.045946885 -0.064200155 -0.070124485
0.03783855 0.025298184 -0.056674402 -0.017269205 -0.07253353 0.031837463 -0.08047159 -0.038227618
0.059861023 0.015668483 -0.009309347 0.0353673 0.05265331 -0.05213095 -0.0045780037 0.023766933
0.03525119 -0.08667666 -0.0038941337 0.03333396 0.00055624335 -0.0032523978 0.011446869 0.15040585
0.056020588 0.023972513 0.05508915 -0.003979512 0.0649196 -0.0011309945 -0.040075067 -0.026565477
0.067763165 0.008129233 0.052410305 -0.056407552 -0.05330958 0.14668635 -0.025355713 -0.07985394
0.079111025 0.07001115 0.039309215 0.0602146 -0.06078341 0.0816627 -0.009602767 -0.014531863
0.113281526 -0.06002991 0.09954914 -0.024475066 -0.016969636 -0.07620926 0.028370555 0.10223506
0.015691264 0.030322129 -0.014040711 -0.0382646 0.041545693 0.038991973 0.05847727 -0.04530408
-0.029288895 0.044385448 0.06594635 -0.023382807 0.0136264 -0.05623081 0.071099326 0.020188108
-0.0069922307 -0.048045762 -0.058742523 0.0120397825 -0.04848933 0.042940117 0.12754494 -0.0025520066
-0.059830107 0.0334806 -0.01598938 0.09146204 0.062821046 0.008617505 -0.048016705 0.03578343
0.07592678 0.14266454 0.111263454 0.014617944 -0.07130984 -0.056649633 -0.056937974 -0.08588943
0.060113203 0.046150155 0.15798946 -0.0075147734 0.10713614 -0.004040632 0.10803458 -0.009625865
0.05691918 0.054746464 -0.013277452 0.0021408484 -0.0010151243 0.031769667 -0.03635922 0.11236865
-0.04666203 0.06747331 0.071525946 -0.04523095 -0.042548534 0.024959195 0.082132116 0.11816597
0.004084722 0.03254313 0.045423616 0.081391014 0.03534445 0.05787278 0.082648896 0.07934998
0.037687585 -0.044962138 0.027585598 0.09028239 -0.07360506 0.055214792 0.024302451 -0.08667703
-0.051833726 -0.04924207 0.14152433 0.04038664 0.08475807 -0.028493175 -0.07177791 0.06780666
00000000: e8c7 0c3d 3a2d f1bc a2ec acbc 1543 8cbd
00000010: 46a6 b1bb b6a0 e33d 9812 e13d 925d 563d
00000020: 041e 6c3b 88f3 8bbd 0c62 9ebd 2a0f a43c
00000030: 91ed cb3d d8c8 9b3d c719 a7bd d05f 9e3d
00000040: 0777 cebc b492 8d3d 125d 7c3d 7a3e 41bd
00000050: f8ed b3bd 3220 9b3d e214 e33d 3678 8f3c
00000060: 068a bd3d 866e a63d 95c3 ce3c f5f2 15b9
00000070: 8f1b 2c3d 1898 063e e212 a1bd c5a9 ab3d
00000080: 6298 0f3e cfbc fbbb bcd0 843d 58b6 e93d
00000090: bc51 593d af4f b9ba 5812 043e 0d36 bd3d
000000a0: 497b 3f3c 853d d53c fbd1 b33b e72f bb39
000000b0: 9d52 833d 5b78 933d b5ca 59bd 0adf 973d
000000c0: 3614 883d c304 09bd 701e 8fbc d683 d3bc
000000d0: d7b9 a63d 50e7 d03d e957 e83d b38f b3bd
000000e0: 097a 76bd cbfe c03d e9bb 57bd 2892 60bd
000000f0: 855d 253c 3647 4bbc 11f4 9abd 04f9 2c3c
00000100: 6722 ac3d 24cb 1cbb 520a 9bbd 0f20 3f3c
00000110: 2d5d 503d 44b1 94bc 5f3a 943d 4fc3 e73d
00000120: 74b8 8dbd 86df 143e ee7c 223c 7bae b13d
00000130: e195 533c 232f a6bd 91c6 763d 3e91 4c3c
00000140: 5afc dbbc 01ac 63bb c205 a73d 8bfe 023c
00000150: 7ae2 9cbd a57f 5dbd 8409 0cbc 9772 e23d
00000160: e608 943d 78c1 de3c 16f6 77bd ce0b c53c
00000170: 109f 86bd 6837 7bbc f3af 443d e9b9 403d
00000180: b55e 6c3d c8b5 be3d eb3d 49bb 5b15 0e3e
00000190: a6ed 9f3d f3de 193c 57a8 e63d d80a 033e
000001a0: 1787 0bbd 0b29 403d ed19 cb3b cd0d a63d
000001b0: 3178 b13d cd32 3c3d 5f7b 83bd 6d9d 8fbd
000001c0: 98fc 1a3d 233e cf3c 6b23 68bd 2678 8dbc
000001d0: 768c 94bd 0068 023d 4ace a4bd 9094 1cbd
000001e0: d530 753d 315b 803c 3b86 18bc 4ddd 103d
000001f0: ffaa 573d 4387 55bd 1403 96bb dfb2 c23c
00000200: 8d63 103d 8883 b1bd b934 7fbb 3189 083d
00000210: dcd0 113a 2e26 55bb a68b 3b3c fe03 1a3e
00000220: d875 653d 0162 c43c 29a5 613d 9166 82bb
00000230: 91f4 843d e13d 94ba c125 24bd d89f d9bc
00000240: 6ac7 8a3d 7930 053c 30ac 563d 9b0b 67bd
00000250: 255b 5abd f234 163e c9b6 cfbc 768a a3bd
00000260: f604 a23d 0162 8f3d b302 213d 96a3 763d
00000270: 06f8 78bd c63e a73d ed54 1dbc 0d17 6ebc
00000280: 2500 e83d ece1 75bd 6be0 cb3d ef7f c8bc
00000290: e803 8bbc 9a13 9cbd 5e69 e83c 9d60 d13d
000002a0: f78a 803c 1d66 f83c 030b 66bc 57bb 1cbd
000002b0: d12b 2a3d 0cb6 1f3d dd85 6f3d c590 39bd
000002c0: 44ef efbc 84cd 353d e10e 873d 4d8d bfbc
000002d0: 4441 5f3c 4752 66bd 869c 913d 8861 a53c
000002e0: 151f e5bb a2cb 44bd 009c 70bd 8242 453c
000002f0: bf9c 46bd fae1 2f3d 249b 023e 913f 27bb
00000300: 6a10 75bd f422 093d 29fc 82bc 7350 bb3d
00000310: 52a8 803d 7030 0d3c 2aad 44bd a591 123d
00000320: 807f 9b3d a716 123e 18de e33d 1a80 6f3c
00000330: e50a 92bd 7209 68bd cb37 69bd cce6 afbd
00000340: 4339 763d f207 3d3d fdc7 213e 7d3e f6bb
00000350: 316a db3d 4767 84bb 3c41 dd3d ceb5 1dbc
00000360: 1624 693d d43d 603d ac89 59bc 7a4d 0c3b
00000370: eb0d 85ba e920 023d 68ed 14bd 8921 e63d
00000380: af20 3fbd 722f 8a3d 327c 923d 1744 39bd
00000390: 5f47 2ebd 3a77 cc3c e234 a83d 0001 f23d
000003a0: 22d9 853b f24b 053d 1d0e 3a3d 55b0 a63d
000003b0: 58c5 103d 020c 6d3d d343 a93d 3e82 a23d
000003c0: 4c5e 1a3d 382a 38bd 31fb e13c f9e5 b83d
000003d0: 40be 96bd e828 623d ef15 c73c ba83 b1bd
000003e0: 9a4f 54bd 0eb2 49bd c1eb 103e 766c 253d
000003f0: a495 ad3d 856a e9bc 4c00 93bd 38de 8a3d

layers.6.weight f4 [256, 256]
-0.017976945 0.062358562 0.049694102 0.021683058 -0.009286953 -0.05659188 0.028851364 0.047693275
-0.033101987 -0.045428652 0.0056381426 0.013063647 0.041669052 0.03171913 -0.025282703 -0.051098775
-0.011963384 0.03631078 -0.04033852 -0.0041215173 -0.046515808 -0.03911224 0.05269396 0.062007554
0.002501911 0.03985847 -0.012743436 0.050198887 -0.04490486 0.002314386 0.047124732 -0.052527245
-0.017344164 0.04261878 0.013855852 -0.05880941 -0.0067670764 0.02486055 -0.028138671 -0.020750506
0.051586613 0.029503675 0.009780107 -0.005114111 -0.043045036 0.0106931375 -0.02604504 -0.03137348
-0.035927903 -0.02485976 -0.048712656 0.027326759 0.018475316 -0.02839177 -0.007750111 -0.007009685
0.049787708 0.0056547048 -0.061126787 -0.02996123 0.027287746 0.01671527 -0.028321918 0.06144025
-0.027240748 -0.0148524605 0.0037762807 0.016048966 -0.025777487 0.009877586 -0.021080479 -0.012995447
-0.034703046 -0.04807782 -0.026857868 0.049728252 0.04499742 -0.020121045 0.060560163 -0.032093797
0.01738469 -0.042842783 0.038192492 0.04643353 0.02133817 0.043599125 0.02738291 -0.035436835
0.041697133 0.028340133 -0.019332027 0.008463008 0.011064892 0.027771126 -0.02047361 0.01676408
0.05294748 -0.04420635 0.055322353 -0.04907171 0.010630788 0.04771356 -0.009369949 0.05744378
-0.037735928 -0.045719657 -0.010580514 0.003918858 -0.05294151 0.051323853 0.02561111 -0.05732961
-0.0056366418 -0.03622376 -0.00917704 -0.055745184 -0.057706397 -0.03142754 0.038679108 -0.028973801
0.014872649 -0.03981198 -0.040610187 -0.042004727 -0.06250786 0.010533352 -0.035044953 -0.0013448637
-0.018216189 -0.05017048 0.023127098 0.04802472 0.028538236 -0.058062166 -0.01111115 -0.049197786
-0.026813898 0.04888184 -0.011130729 0.05496891 0.028503316 -0.0055471244 0.051649168 -0.0033164516
-0.042520445 0.040332466 0.037637956 -0.01796862 0.013686303 0.053306848 0.035147537 0.009707665
-0.022978602 0.040454883 -0.028190078 -0.0181214 -0.0082298415 -0.01299759 -0.01484682 -0.043273736
0.026982429 0.046182204 -0.041371644 -0.062362574 0.05760578 0.032476977 -0.011897133 -0.021989759
-0.0065342113 -0.048029877 0.029464735 -0.03603097 0.0393919 -0.055120002 0.00052446144 0.05765208
-0.046365295 -0.056077737 -0.033928566 0.00058907474 -0.0024727737 0.037578266 -0.0030111894 -0.00077669154
-0.016161483 -0.036426924 -0.01350129 -0.004310304 -0.003847509 -0.019810738 0.011060658 -0.052239563
0.022487612 0.045929983 0.053088557 0.03869712 -0.051058885 0.056888986 -0.061281085 0.03216916
-0.020211812 -0.021001002 0.05012339 -0.05673362 0.032474406 -0.034452543 -0.040817022 0.020990787
-0.0402684 -0.041572798 0.054158174 -0.032144267 -0.05658875 0.022568522 0.031311873 0.019077197
0.022961723 -0.053787876 0.032363627 0.037828162 -0.05970046 0.011783208 0.041966185 -0.039939824
-0.048997357 0.009130998 -0.06210887 0.047795508 0.014291089 0.03496302 0.048494432 0.025405187
-0.04485297 -0.027222306 0.03766948 -0.013762613 0.042243503 -0.05303776 -0.044620737 -0.018698718
0.035199888 0.021525905 -0.023103014 -0.023619318 0.05856191 -0.025230706 0.032063838 -0.023914348
0.043933008 0.043252826 -0.049346697 -0.034555927 -0.0073867682 0.017629178 -0.019748762 -0.0166194
00000000: 6344 93bc b16b 7f3d 0b8c 4b3d aba0 b13c
00000010: 4e28 18bc e3cc 67bd b259 ec3c 065a 433d
00000020: f395 07bd 6513 3abd 2bc0 b83b e808 563c
00000030: 2bad 2a3d ebeb 013d ac1d cfbc f34c 51bd
00000040: 1202 44bc 9dba 143d 013a 25bd cb0d 87bb
00000050: 5c87 3ebd 2834 20bd 9fd5 573d a2fb 7d3d
00000060: 1af7 233b a342 233d d8c9 50bc 599d 4d3d
00000070: 29ee 37bd f4ac 173b dd05 413d cf26 57bd
00000080: 5915 8ebc 0891 2e3d a803 633c 23e2 70bd
00000090: 5abe ddbb 5aa8 cb3c 1283 e6bc f7fc a9bc
000000a0: 7c4c 533d b1b1 f13c be3c 203c 4694 a7bb
000000b0: fe4f 30bd 4532 2f3c 685c d5bc 7a81 00bd
000000c0: 2329 13bd b2a6 cbbc ec86 47bd 5edc df3c
000000d0: 8c59 973c db95 e8bc a5f4 fdbb 80b1 e5bb
000000e0: 32ee 4b3d 1a4b b93b 1560 7abd 4171 f5bc
000000f0: 8d8a df3c 76ee 883c 5e03 e8bc c6a8 7b3d
00000100: fd27 dfbc bc57 73bc 7a7b 773b 1f79 833c
00000110: 4f2b d3bc 99d5 213c f8b0 acbc dbea 54bc
00000120: c824 0ebd 40ed 44bd 0805 dcbc daaf 4b3d
00000130: 374f 383d e4d4 a4bc ef0d 783d c974 03bd
00000140: 566a 8e3c ea7b 2fbd bb6f 1c3d 1631 3e3d
00000150: 63cd ae3c ff94 323d 2052 e03c 3726 11bd
00000160: 9dca 2a3d 9129 e83c 335e 9ebc 6ea8 0a3c
00000170: 8549 353c 4680 e33c 46b8 a7bc d354 893c
00000180: 75df 583d b811 35bd b199 623d 6bff 48bd
00000190: c22c 2e3c 4b6f 433d 6a84 19bc 2b4a 6b3d
000001a0: fd90 1abd 8944 3bbd e459 2dbc c369 803b
000001b0: 32d9 58bd f638 523d 64ce d13c 74d2 6abd
000001c0: 94b3 b8bb 5e5f 14bd 4c5b 16bc 1055 64bd
000001d0: 8b5d 6cbd 2aba 00bd fc6d 1e3d 775a edbc
000001e0: 69ac 733c e311 23bd de56 26bd 260d 2cbd
000001f0: 1f04 80bd 1594 2c3c 4c8b 0fbd 2346 b0ba
00000200: 1e3a 95bc 907f 4dbd 0a75 bd3c 92b5 443d
00000210: 05c9 e93c 98d2 6dbd 8a0b 36bc 9e83 49bd
00000220: d2a8 dbbc 5338 483d a95d 36bc 1427 613d
00000230: c97f e93c a7c4 b5bb 148e 533d d358 59bb
00000240: eb29 2ebd a833 253d 422a 1a3d ed32 93bc
00000250: 843c 603c 4858 5a3d ddf6 0f3d e60c 1f3c
00000260: 9f3d bcbc 05b4 253d e1ee e6bc 5573 94bc
00000270: 75d6 06bc d8f3 54bc 1440 73bc cd3f 31bd
00000280: 410a dd3c 8d29 3d3d 5075 29bd e66f 7fbd
00000290: 0af4 6b3d 9406 053d 31ec 42bc de23 b4bc
000002a0: f01c d6bb faba 44bd 0760 f13c 3695 13bd
000002b0: 6759 213d 83c5 61bd 037c 093a 9624 6c3d
000002c0: 89e9 3dbd c5b1 65bd aef8 0abd 236c 1a3a
000002d0: 420e 22bb abeb 193d 6057 45bb e39a 4bba
000002e0: 1665 84bc 6634 15bd 8434 5dbc 733d 8dbb
000002f0: 7d26 7cbb 214a a2bc c337 353c 27f9 55bd
00000300: f137 b83c 1421 3c3d 6373 593d df80 1e3d
00000310: 1f23 51bd 6d04 693d e001 7bbd cfc3 033d
00000320: 3e93 a5bc 4b0a acbc 2f4e 4d3d 8361 68bd
00000330: e203 053d 1c1e 0dbd c02f 27bd dff4 ab3c
00000340: 7af0 24bd 3d48 2abd f6d4 5d3d b5a9 03bd
00000350: 9bc9 67bd 9fe1 b83c e140 003d c847 9c3c
00000360: 391a bc3c ad50 5cbd b98f 043d b4f1 1a3d
00000370: 7888 74bd 5b0e 413c bce4 2b3d f197 23bd
00000380: 74b1 48bd 2e9a 153c df65 7ebd 39c5 433d
00000390: 2c25 6a3c 6235 0f3d 19a2 463d 8a1e d03c
000003a0: bfb7 37bd 5001 dfbc 504b 1a3d 957c 61bc
000003b0: 8607 2d3d 1f3e 59bd 3cc4 36bd 0e2e 99bc
000003c0: c22d 103d 1857 b03c 8842 bdbc 4d7d c1bc
000003d0: 9dde 6f3d a0b0 cebc 5f55 033d 06e8 c3bc
000003e0: 19f3 333d e029 313d c31f 4abd 848a 0dbd
000003f0: b40c f2bb 116b 903c 28c8 a1bc 6825 88bc

layers.6.bias f4 [256]
0.00773003 0.04438753 -0.011122573 0.053741187 0.038766515 -0.051889848 0.09495067 0.074497536
0.041966163 -0.043914646 -0.048492163 -0.0077828276 0.097907424 0.09275515 0.012300376 0.0066692405
0.027276702 -0.002230009 -0.02681605 -0.048824612 0.039638378 0.041564945 0.00598809 -0.019166587
0.12260784 -0.037529904 -0.01657951 0.009735227 0.09253711 -0.040794294 -0.01044969 -0.052065074
0.031213481 -0.013848193 -0.013895707 0.025831955 -0.061272774 -0.009535714 -0.017173797 0.13969122
-0.0522018 0.016868975 -0.009354651 0.010743292 -0.023233548 -0.063522756 -0.05307865 0.091680296
0.12145146 0.059686713 0.046511382 -0.014399294 0.005510655 -0.032362588 -0.020769987 0.041822158
0.0027941414 0.07726971 -0.0019334556 -0.027746871 0.033278946 -0.039988626 -0.05697283 0.020553136
0.051695965 0.013377723 -0.036439322 0.0103249615 -0.049987845 -0.025734706 0.12916447 -0.03173993
-0.043272354 -0.03331389 0.026597915 -0.012970729 -0.046360783 -0.008601709 -0.025073031 0.030559124
0.03210672 -0.011149847 0.024203794 -0.03660164 -0.044536635 -0.041102085 0.025475154 0.031891495
0.09451655 0.018074512 0.028855348 -0.04699158 -0.060593396 -0.016798595 0.09124939 0.11428022
-0.05314992 0.012728186 -0.01613418 -0.025329547 0.051467523 0.016579876 -0.04192469 0.0792183
-0.054685153 -0.042956017 0.039961472 -0.02168898 -0.040268 -0.014500339 0.020122753 -0.031730954
0.080419004 0.023009658 0.13158625 0.03721557 0.08809998 -0.014246875 0.0391734 0.015003629
-0.007994547 0.046522707 0.13933906 0.08720747 0.045894027 -0.04376933 0.030667463 -0.059434514
0.003901043 -0.028844602 -0.052919444 -0.034972914 0.15059277 -0.00828975 0.024485305 -0.04136993
0.044422276 0.08526511 -0.0015004338 -0.0038500396 0.057389475 -0.0033373476 0.035447545 0.0044599497
0.11332341 0.0051804613 0.017190602 0.042818695 0.004755536 0.07868074 0.057086654 -0.033618044
0.06778911 -0.04855803 0.08800842 -0.032602325 0.0013218044 0.036421843 -0.016389817 -0.0613271
0.04055426 -0.015165214 0.026496956 0.036545012 0.049263723 0.034893207 0.02457879 -0.025838397
0.07327561 0.015864242 0.009930911 0.101553835 -0.032045767 -0.01531893 0.07168988 0.01964096
0.081288196 0.02813479 0.023532253 0.074311346 0.09720957 -0.024366865 -0.04828435 -0.020462608
0.08724039 0.03704015 0.04773064 0.03852074 0.032604165 -0.036137704 0.017732898 0.0483835
0.028683217 -0.027481262 -0.035244644 -0.058027707 -0.013035683 0.01538252 -0.02273367 -0.01544859
-0.05103703 0.0003869475 0.122860804 0.032968353 0.051120415 0.028582754 -0.047752548 0.051520064
0.07880572 -0.033516023 -0.019240072 -0.036388613 -0.036294524 -0.039529137 0.023799593 0.003890119
0.0369744 0.033964682 -0.054631505 0.073651806 -0.026326027 0.009976097 -0.0041449824 -0.013049329
0.0384806 -0.006901353 0.0646267 -0.006187116 -0.019166082 -0.0644971 0.0014442244 -0.056274384
0.031972334 0.12884192 0.010242291 0.031107144 -0.0130416965 0.022508128 0.015661014 0.011576694
-0.017177949 0.12971324 0.025800698 0.025785688 0.028842947 -0.049071323 0.04296886 -0.057071153
0.05801385 -0.03610039 0.03787166 0.09857174 -0.061923135 0.013914328 0.07076299 -0.010710621
00000000: 314c fd3b b3cf 353d 743b 36bc b81f 5c3d
00000010: a3c9 1e3d 738a 54bd 7f75 c23d 2a92 983d
00000020: b6e4 2b3d d8df 33bd b89f 46bd 1707 ffbb
00000030: b083 c83d 69f6 bd3d 8487 493c a589 da3b
00000040: 6473 df3c 5825 12bb 55ad dbbc 51fc 47bd
00000050: da5b 223d 0140 2a3d bd37 c43b 3f03 9dbc
00000060: d219 fb3d f5b8 19bd c1d1 87bc 8080 1f3c
00000070: 1984 bd3d eb17 27bd 2d35 2bbc 3042 55bd
00000080: 6ab3 ff3c 88e3 62bc d2aa 63bc 899d d33c
00000090: 29f9 7abd af3b 1cbc 10b0 8cbc 370b 0f3e
000000a0: 8ed1 55bd ce30 8a3c 4044 19bc a204 303c
000000b0: 4854 bebc 3818 82bd 0069 59bd e1c2 bb3d
000000c0: 8bbb f83d 0e7a 743d b882 3e3d 04eb 6bbc
000000d0: ba92 b43b a28e 04bd d225 aabc b64d 2b3d
000000e0: ea1d 373b 953f 9e3d 016c fdba 684d e3bc
000000f0: 814f 083d 1dcb 23bd 585c 69bd 0d5f a83c
00000100: 26bf 533d 3d2e 5b3c 6641 15bd 072a 293c
00000110: 0ec0 4cbd 97d1 d2bc b143 043e bb01 02bd
00000120: 5a3e 31bd 2574 08bd dfe3 d93c 2e83 54bc
00000130: cee4 3dbd 2fee 0cbc f565 cdbc 2157 fa3c
00000140: 5682 033d d9ad 36bc 0947 c63c 9aeb 15bd
00000150: 0c6c 36bd a95a 28bd 45b1 d03c a8a0 023d
00000160: e591 c13d 0011 943c 0d62 ec3c 3e7a 40bd
00000170: c830 78bd 359d 89bc f6e0 ba3d bf0b ea3d
00000180: bbb3 59bd e289 503c d42b 84bc e97f cfbc
00000190: 9ccf 523d 85d2 873c 39b9 2bbd 343d a23d
000001a0: 8afd 5fbd a6f2 2fbd a4ae 233d 16ad b1bc
000001b0: 0ff0 24bd d492 6dbc 79d8 a43c 51f8 01bd
000001c0: b8b2 a43d c07e bc3c 8cbe 063e 5b6f 183d
000001d0: c36d b43d ba6b 69bc 4974 203d c8d1 753c
000001e0: 8ffb 02bc 988e 3e3d e6ae 0e3e d499 b23d
000001f0: 60fb 3b3d 7847 33bd 553a fb3c 9b71 73bd
00000200: a4a8 7f3b 844b ecbc 0fc2 58bd c23f 0fbd
00000210: fe34 1a3e bbd1 07bc 6895 c83c 8473 29bd
00000220: 22f4 353d 799f ae3d 34aa c4ba f250 7cbb
00000230: 3a11 6b3d 67b7 5abb 7231 113d c524 923b
00000240: 1b16 e83d dcc0 a93b 4ed3 8c3c a862 2f3d
00000250: 54d4 9b3b 5e23 a13d b2d3 693d 13b3 09bd
00000260: 04d5 8a3d c9e4 46bd c23d b43d 048a 05bd
00000270: 6540 ad3a 122f 153d f043 86bc 2032 7bbd
00000280: 391c 263d 8577 78bc 2510 d93c 39b0 153d
00000290: c2c8 493d 2eec 0e3d 7559 c93c 0cab d3bc
000002a0: 8611 963d baf5 813c 42b5 223c 75fb cf3d
000002b0: 6c42 03bd 40fc 7abc 25d2 923d 14e6 a03c
000002c0: 6d7a a63d ee7a e63c b6c6 c03c 8c30 983d
000002d0: d015 c73d 059d c7bc d0c5 45bd 33a1 a7bc
000002e0: 17ab b23d 6ab7 173d 3481 433d ecc7 1d3d
000002f0: f28b 053d 2105 14bd 9544 913c c72d 463d
00000300: 11f9 ea3c 6220 e1bc b05c 10bd 76ae 6dbd
00000310: 9e93 55bc f706 7c3c f63b babc 151c 7dbc
00000320: 340c 51bd 37df ca39 729e fb3d d309 073d
00000330: a463 513d 6126 ea3c 2d98 43bd b406 533d
00000340: e564 a13d 1948 09bd 5b9d 9dbc 3a0c 15bd
00000350: 91a9 14bd 4ee9 21bd 5df7 c23c 5ef1 7e3b
00000360: 7872 173d 8d1e 0b3d 49c5 5fbd c2d6 963d
00000370: aea9 d7bc c972 233c a2d2 87bb dacc 55bc
00000380: d59d 1d3d bf24 e2bb 015b 843d 4abd cabb
00000390: 3002 9dbc 0e17 84bd 214c bd3a f87f 66bd
000003a0: 6cf5 023d 23ef 033e 48cf 273c 69d4 fe3c
000003b0: d7ac 55bc f762 b83c 874b 803c 2dac 3d3c
000003c0: c5b8 8cbc 8cd3 043e fc5b d33c 823c d33c
000003d0: 0b48 ec3c 03ff 48bd 1e00 303d 71c3 69bd
000003e0: ee9f 6d3d 01de 13bd 501f 1b3d fbdf c93d
000003f0: 1da3 7dbd ecf8 633c 30ec 903d 9a7b 2fbc

layers.9.weight f4 [480, 256]
-0.032381505 0.04120785 -0.023571463 -0.045560323 -0.032397673 -0.017415812 0.01721553 -0.08663285
0.039909463 -0.03626461 0.015833493 0.0086682085 0.014352492 -0.0358885 0.0015858464 0.043221485
-0.05648263 -0.0132847605 0.010005704 0.060706764 -0.012954571 0.012013903 0.01029817 0.03908535
-0.011844347 -0.05412857 0.01656826 -0.037903666 -0.05002404 -0.030057454 0.061929245 -0.007997732
-0.0395641 0.033374812 0.019169003 0.034298927 0.05557473 0.02050501 -0.011636594 -0.018498838
0.051700994 -0.030579796 0.015077525 -0.062241882 0.0054648104 0.02562714 -0.055539858 -0.026066853
-0.055783927 0.041085415 0.02983006 0.020070259 -0.025966663 0.028245289 0.012484357 -0.0015632403
-0.029696433 -0.055662453 0.039734032 0.059629906 0.008438813 0.024913795 -0.044818733 -0.012469671
-0.06530247 0.044460308 0.027993497 0.030625127 0.060348675 -0.042024784 0.005074488 -0.046995707
0.044773042 0.048143815 -0.027052134 -0.06404618 -0.017768646 -0.05471256 -0.04545459 -0.023896165
0.025183393 0.04154404 0.053996105 0.0544078 -0.02149212 -0.00031587243 -0.045575187 -0.036370184
0.033597212 -0.06556188 0.012142439 -0.05992419 -0.044044472 0.06063006 0.008679813 0.024175987
0.039473854 0.032971278 0.061758917 0.046283904 -0.037807934 -0.0389309 -0.034174494 -0.028384402
0.030627871 -0.008984138 0.023336696 0.03387877 0.022274476 -0.0074670673 0.03166388 -0.052265394
0.03051032 -0.022178952 -0.08121666 -0.038406584 -0.02609361 -0.040539578 -0.028012346 -0.06161276
-0.030650796 0.042015493 -0.036853243 -0.039767545 0.05785002 -0.03246181 -0.053537864 0.01673734
-0.03391124 -0.029673643 0.028219737 0.060928587 0.0059761484 -0.031959794 -0.011279595 0.009112742
0.024720158 -0.029549489 -0.03778893 0.036619466 -0.038209576 -0.054632198 0.0062439395 0.03973985
0.006116568 0.031296782 -0.055239804 -0.007364256 0.051708415 -0.014116161 0.016435724 -0.012136794
-0.030084763 -0.0013420684 -0.0685052 -0.05466654 -0.052334856 -0.0027337626 9.048485e-05 -0.011869037
0.04091297 -0.05458401 -0.048516836 0.03219271 -0.05435022 -0.02235522 -0.040385723 0.037454844
0.06376399 -0.011089802 0.032803122 0.01832585 -0.025534118 0.015909892 -0.04063147 0.005846953
-0.075713255 -0.062347297 -0.0010590618 -0.07095612 -0.059790727 0.04539929 0.023893213 0.0008372913
-0.022808725 -0.04282943 -0.0066317194 -0.0056556566 -0.06000869 0.020342771 0.023823801 0.016837904
0.04318482 -0.0127158165 0.053333383 0.056335926 -0.008611144 0.05120502 0.0093658995 0.026997782
-0.024347795 0.0027381263 -0.053672757 0.062008303 0.008027319 -0.0042802934 0.03950136 -0.061152857
-0.0024946565 0.0038738656 0.048174523 -0.024672797 0.017033422 0.015823295 -0.013446211 0.015013595
-0.0065797023 0.037059914 0.021897784 0.010355129 -0.017843409 -0.033227403 0.008610497 -0.051681925
-0.005437391 0.0046058 0.024991494 0.03888154 -0.017224098 0.050607182 -0.030876428 0.035852157
-0.027759751 -0.0011971053 -0.026883079 0.010260015 -0.023694199 -0.0041571935 0.02996762 -0.038587697
-0.003340469 0.03160162 0.01697092 0.029317832 0.028826624 0.062865555 -0.015788201 -0.018366072
-0.015056279 -0.015200311 0.022604413 -0.021512102 0.025570165 0.043295935 0.029893821 0.05214233
00000000: 78a2 04bd 90c9 283d f118 c1bc 769d 3abd
00000010: 6cb3 04bd 9bab 8ebc 9507 8d3c 906c b1bd
00000020: 1b78 233d 338a 14bd 3eb5 813c 1a05 0e3c
00000030: b726 6b3c d2ff 12bd 2ddc cf3a 0309 313d
00000040: 555a 67bd 53a8 59bc f7ee 233c a8a7 783d
00000050: 693f 54bc f6d5 443c a8b9 283c f617 203d
00000060: cb0e 42bc ebb5 5dbd 29ba 873c e040 1bbd
00000070: 02e6 4cbd 0d3b f6bc 85a9 7d3d eb08 03bc
00000080: f70d 22bd 07b4 083d 5008 9d3c 087d 0c3d
00000090: 54a2 633d 1ffa a73c 6aa7 3ebc e08a 97bc
000000a0: 6cc4 533d 7b82 fabc b907 773c 58f1 7ebd
000000b0: 2712 b33b 02f0 d13c c37d 63bd 278a d5bc
000000c0: b07d 64bd 2e49 283d 2c5e f43c 626a a43c
000000d0: 0ab8 d4bc aa62 e73c 308b 4c3c a4e5 ccba
000000e0: ef45 f3bc 50fe 63bd 27c0 223d 7d3e 743d
000000f0: f242 0a3c 0418 cc3c d993 37bd 974d 4cbc
00000100: 4dbd 85bd 031c 363d 9e52 e53c 8ce1 fa3c
00000110: 2c30 773d 2e22 2cbd e447 a63b 927e 40bd
00000120: f063 373d 7332 453d 709c ddbc a52a 83bd
00000130: 8d8f 91bc 471a 60bd 982e 3abd e4c1 c3bc
00000140: 674d ce3c 152a 2a3d 052b 5d3d b7da 5e3d
00000150: 3e10 b0bc ae9b a5b9 0cad 3abd e7f8 14bd
00000160: 3b9d 093d 4f45 86bd 15f1 463c 1173 75bd
00000170: fa67 34bd 3a57 783d c635 0e3c b80c c63c
00000180: 56af 213d e40c 073d ebf6 7c3d 3194 3d3d
00000190: 7edc 1abd 0276 1fbd 8efa 0bbd 6886 e8bc
000001a0: 4de7 fa3c 3532 13bc 992c bf3c 77c4 0a3d
000001b0: f678 b63c 4dae f4bb fcb1 013d 3d14 56bd
000001c0: c7f0 f93c a2b0 b5bc ec54 a6bd 3950 1dbd
000001d0: 44c2 d5bc d40c 26bd 267a e5bc a95d 7cbd
000001e0: 6117 fbbc 7018 2c3d 6df3 16bd 4be3 22bd
000001f0: 24f4 6c3d adf6 04bd 854a 5bbd bf1c 893c
00000200: 83e6 0abd 2416 f3bc 142d e73c 4190 793d
00000210: 91d3 c33b 46e8 02bd 0dce 38bc 9c4d 153c
00000220: ee81 ca3c c511 f2bc 91c8 1abd 4bfe 153d
00000230: a581 1cbd 03c6 5fbd f699 cc3b 41c6 223d
00000240: 7e6d c83b 0e31 003d 2243 62bd db4f f1bb
00000250: 34cc 533d 7847 67bc 36a4 863c 67d9 46bc
00000260: 5274 f6bc 58e8 afba 744c 8cbd 06ea 5fbd
00000270: 135d 56bd ed28 33bb afc2 bd38 5976 42bc
00000280: 5c94 273d 7c93 5fbd 97b9 46bd 81dc 033d
00000290: 569e 5ebd 4b22 b7bc 806b 25bd 406a 193d
000002a0: b296 823d 00b2 35bc 915c 063d 1820 963c
000002b0: ed2c d1bc 7655 823c 2f6d 26bd cc97 bf3b
000002c0: 8d0f 9bbd e15f 7fbd 38d0 8aba 7151 91bd
000002d0: 1fe7 74bd 9bf4 393d b3bb c33c ab7d 5b3a
000002e0: 5dd9 babc ea6d 2fbd e54e d9bb 1653 b9bb
000002f0: accb 75bd e2a5 a63c 222a c33c a5ef 893c
00000300: 91e2 303d 0056 50bc 1b74 5a3d 80c0 663d
00000310: c115 0dbc 5bbc 513d 6e73 193c 742a dd3c
00000320: 0775 c7bc 2372 333b f7d7 5bbd 6bfc 7d3d
00000330: 0485 033c b441 8cbb 2ecc 213d 6b7b 7abd
00000340: 647d 23bb aee0 7d3b a652 453d 9b1e cabc
00000350: ad89 8b3c db9f 813c 7f4d 5cbc 95fb 753c
00000360: 8b9a d7bb 23cc 173d fb62 b33c 8fa8 293c
00000370: 572c 92bc 7519 08bd 0b13 0d3c 6db0 53bd
00000380: 242c b2bb 40ec 963b f6ba cc3c 4042 1f3d
00000390: 8d19 8dbc 7a49 4f3d 90f0 fcbc b6d9 123d
000003a0: 6b68 e3bc 30e8 9cba e739 dcbc 9f19 283c
000003b0: 561a c2bc 1139 88bb a77e f53c 220e 1ebd
000003c0: c5eb 5abb b370 013d 9906 8b3c f32b f03c
000003d0: d025 ec3c a8bf 803d 4256 81bc 7274 96bc
000003e0: 9cae 76bc ba0a 79bc e42c b93c 263a b0bc
000003f0: 8678 d13c 1457 313d e3e3 f43c 3293 553d

layers.9.bias f4 [480]
-0.05676916 -0.15940279 0.01047601 -0.06856886 -0.052859213 0.045979794 -0.02101823 -0.047674198
-0.008793017 -0.017920474 -0.06656186 0.10142381 -0.10944954 -0.1023334 -0.051542047 0.03860025
0.013165262 0.08103671 -0.04705762 -0.14468971 -0.019428592 -0.012448911 -0.044686683 0.074452125
-0.070460364 -0.061517544 -0.07126237 -0.010710149 0.04236921 0.014312417 -0.06354061 -0.08322293
-0.0020706358 -0.05958164 -0.035314415 0.015995821 -0.050228436 -0.111530595 -0.048585594 0.043824248
-0.02207245 0.087838165 -0.054922286 -0.06709016 -0.06958872 -0.0048722983 -0.008185213 0.057669703
-0.013702106 -0.048066538 -0.06622542 0.04381653 -0.05688648 0.07032334 -0.057843648 -0.055389557
-0.018906632 0.0318771 -0.049974643 0.035055175 -0.010535926 -0.1285926 -0.06436696 0.004374408
0.043662596 0.0058244932 -0.041693926 -0.046936776 -0.019323116 -0.026017275 0.0295198 0.016191524
-0.042884044 -0.14218545 -0.036398087 0.036685176 0.019185798 0.03983485 0.013125832 -0.07273356
0.018923424 -0.04706895 0.04802812 -0.004678287 0.017574545 -0.15274665 0.008484015 -0.026855884
0.030935405 0.043550234 -0.002725904 -0.106434874 0.01612932 -0.007149448 -0.025690908 0.036975536
0.015671054 -0.13257034 0.0045103845 -0.0035783271 -0.0040057586 0.07543876 0.017798781 -0.12242521
0.013587953 -0.022713915 0.005051449 0.07503615 -0.04872206 -0.12325704 0.021544997 0.04349113
0.02013503 0.040542696 0.0418916 -0.110202916 -0.054234933 -0.03521448 -0.031439763 0.0030953665
-0.0012180896 -0.035043977 -0.028013816 0.06498974 0.029035702 0.026503298 -0.060699716 -0.1001394
-0.073058225 0.010251059 0.039397214 -0.0025201654 -0.028864373 -0.09502893 0.0065074586 -0.009496662
-0.014064616 0.09896094 0.036522698 -0.08733688 0.04312921 -0.015102382 -0.021459254 0.025501907
0.045737788 -0.14475909 0.03716921 -0.0069066966 0.00031502344 0.0433358 -0.01612837 -0.072871014
0.002560766 0.041451715 -0.0054600476 0.0058444766 -0.03147935 -0.11274442 -0.065254375 0.011662729
0.03238095 -0.0060721375 -0.054876257 -0.04104508 0.030943403 0.01735987 0.0438868 0.08296145
-0.05752537 -0.14121583 -0.02537162 -0.006842672 0.001932678 0.088045634 0.024159655 -0.099859975
-0.0054578003 -0.0044508297 -0.0355464 0.018273123 -0.016682692 -0.11109897 -0.05895539 0.02170556
-0.046234462 0.036463805 -0.045232177 -0.09393348 0.023385173 0.0041716676 -0.041463464 0.110212795
0.046019807 -0.08845788 -0.026982635 -0.013384995 0.058824774 0.045932233 0.035123494 -0.1355997
0.0013843523 -0.003915801 0.04162674 0.08993895 -0.0012952581 -0.055255536 0.035112828 -0.04874647
0.026384387 0.08841957 0.03175225 -0.08865172 -0.0423454 0.077847764 0.044168934 0.05124567
0.03743558 -0.13471025 -0.055545006 0.026034249 -0.040368456 -0.0109868 0.015630113 -0.11106341
0.05686948 -0.044275295 -0.046723977 -0.006562957 0.03192162 -0.11726368 0.05971505 0.016909415
0.059065625 0.004981553 0.03599132 -0.065593004 0.059515517 0.07782288 0.036149822 0.10211146
-0.024000984 -0.09861558 0.055349827 -0.01367487 0.040970918 -0.011267638 -0.0608655 -0.08138222
-0.010502392 0.042637356 0.055621844 0.036892515 0.020695306 -0.10765271 0.014098781 -0.015968898
00000000: c786 68bd 7c3a 23be 92a3 2b3c d56d 8cbd
00000010: e782 58bd 4f55 3c3d 6c2e acbc 0546 43bd
00000020: 9610 10bc f5cd 92bc 9651 88bd 49b7 cf3d
00000030: 1527 e0bd 2c94 d1bd c11d 53bd 4c1b 1e3d
00000040: 1cb3 573c 93f6 a53d 7ebf 40bd 8a29 14be
00000050: b628 9fbc 84f6 4bbc 6209 37bd 5b7a 983d
00000060: 864d 90bd d2f9 7bbd 01f2 91bd 9f79 2fbc
00000070: 568b 2d3d a17e 6a3c 9421 82bd c970 aabd
00000080: 81b3 07bb e10b 74bd d9a5 10bd ab09 833c
00000090: 55bc 4dbd 276a e4bd b001 47bd 0e81 333d
000000a0: 48d1 b4bc 7fe4 b33d 31f6 60bd 9166 89bd
000000b0: 8884 8ebd cda7 9fbb 461b 06bc 1137 6c3d
000000c0: cc7e 60bc 6be1 44bd 31a1 87bd f678 333d
000000d0: cc01 69bd af05 903d 76ed 6cbd 29e0 62bd
000000e0: 15e2 9abc 9091 023d 36b2 4cbd 0496 0f3d
000000f0: e09e 2cbc c7ad 03be d3d2 83bd 3257 8f3b
00000100: 8dd7 323d 64db be3b 40c7 2abd c740 40bd
00000110: 834b 9ebc 2e22 d5bc 82d3 f13c 16a4 843c
00000120: 2ea7 2fbd 1099 11be 2916 15bd 3243 163d
00000130: 892b 9d3c de29 233d bb0d 573c 55f5 94bd
00000140: 4c05 9b3c 5fcb 40bd 22b9 443d 514c 99bb
00000150: 7ef8 8f3c 9e69 1cbe 8a00 0b3c df00 dcbc
00000160: 3f6c fd3c bb61 323d 15a5 32bb 87fa d9bd
00000170: a321 843c eb45 eabb bd75 d2bc a973 173d
00000180: 9560 803c 85c0 07be d9cb 933b 5e82 6abb
00000190: bd42 83bb a37f 9a3d c0ce 913c 12ba fabd
000001a0: 01a0 5e3c 8812 babc a086 a53b 8eac 993d
000001b0: c890 47bd 306e fcbd 227f b03c c123 323d
000001c0: 38f2 a43c 1910 263d 8796 2b3d 11b2 e1bd
000001d0: 7325 5ebd 0f3d 10bd fbc6 00bd a2db 4a3b
000001e0: 4ea8 9fba 468a 0fbd 3b7d e5bc 5719 853d
000001f0: 48dc ed3c 721d d93c 44a0 78bd e315 cdbd
00000200: 8d9f 95bd 0ff4 273c f95e 213d 5c29 25bb
00000210: fa74 ecbc 879e c2bd 853c d53b e397 1bbc
00000220: 466f 66bc 09ac ca3d d398 153d aedd b2bd
00000230: 41a8 303d fb6f 77bc 51cb afbc 60e9 d03c
00000240: 8c57 3b3d ba3b 14be be3e 183d 9251 e2bb
00000250: bb29 a539 e180 313d a51f 84bc 663d 95bd
00000260: 86d2 273b 46c9 293d 33ea b2bb 0683 bf3b
00000270: 7ef0 00bd 8ce6 e6bd 16a4 85bd 0815 3f3c
00000280: e3a1 043d c8f8 c6bb edc5 60bd e31e 28bd
00000290: 057d fd3c 4936 8e3c a5c2 333d b1e7 a93d
000002a0: b99f 6bbd e29a 10be 25d8 cfbc 7e38 e0bb
000002b0: ea51 fd3a 4551 b43d 78ea c53c 6383 ccbd
000002c0: 59d7 b2bb 44d8 91bb 1a99 11bd 84b1 953c
000002d0: 24aa 88bc db87 e3bd 357b 71bd dccf b13c
000002e0: 5960 3dbd 125b 153d 6045 39bd 3260 c0bd
000002f0: 4392 bf3c 7cb2 883b 98d5 29bd 3fb7 e13d
00000300: 447f 3c3d 6829 b5bd b00a ddbc bd4c 5bbc
00000310: 3ff2 703d 7023 3c3d a7dd 0f3d a6da 0abe
00000320: 2873 b53a 1f50 80bb cd80 2a3d ea31 b83d
00000330: a6c5 a9ba a153 62bd 78d2 0f3d 61aa 47bd
00000340: 1224 d83c 5215 b53d a60e 023d 088f b5bd
00000350: 5f72 2dbd a66e 9f3d 7cea 343d fbe6 513d
00000360: 0d56 193d 7cf1 09be 2983 63bd c745 d53c
00000370: 6559 25bd fb01 34bc b90a 803c 3775 e3bd
00000380: f9ef 683d 035a 35bd a461 3fbd 130e d7bb
00000390: 3fc0 023d f127 f0bd c597 743d 9d85 8a3c
000003a0: ccee 713d 4c3c a33b a26b 133d a055 86bd
000003b0: 8bc6 733d 9a61 9f3d d611 143d d01f d13d
000003c0: b69d c4bc f7f6 c9bd 80b6 623d 900c 60bc
000003d0: 1fd1 273d e69b 38bc 1a4e 79bd b9ab a6bd
000003e0: 3a12 2cbc 82a4 2e3d bbd3 633d 9b1c 173d
000003f0: 3489 a93c 0679 dcbd 93fe 663c 35d1 82bc
