checkpoints/checkpoint_epoch_70.pt (torch, 895184 bytes, 8 tensors)

layers.0.weight f4 [128, 4]
0	0x3e981140	0.2970066
1	0x3e0be7b8	0.13662612
2	0xbd58c460	-0.052921653
3	0x3da724f4	0.08161345
4	0x3e114f22	0.14190343
5	0x3d5281ee	0.05139344
6	0x3dfe7e37	0.12426417
7	0xbea09b30	-0.313684
8	0x3e33d86b	0.17563026
9	0xbec6a53c	-0.3879794
10	0x3ea82d1f	0.32846925
11	0xbeaaaaa1	-0.33333305
12	0xbf0c199d	-0.5472658
13	0xbd8fce01	-0.07021714
14	0xbe0a77b5	-0.13522227
15	0xbc9e5aaf	-0.01933035
16	0xbee7d1e1	-0.45277312
17	0xbe75b50f	-0.2399485
18	0x3ee37e7d	0.4443244
19	0xbde235ef	-0.11045443
20	0x3ec27f01	0.3798752
21	0xbebc1526	-0.36734885
22	0x3e58e263	0.2118011
23	0xbdc80369	-0.097662754
24	0xbf10f82a	-0.5662867
25	0x3de5e0c0	0.11224508
26	0xbe2c3299	-0.16816176
27	0x3d9a5a72	0.07536782
28	0x3ea2656e	0.3171801
29	0xbcfc5682	-0.030802969
30	0x3ec73fc4	0.38915837
31	0x3e142371	0.14466645
32	0xbd06e050	-0.032928765
33	0xbe439c49	-0.19102587
34	0x3eb5bbd6	0.3549487
35	0x3e564576	0.20924935
36	0xbf17477e	-0.59093463
37	0xbecb1ddf	-0.39671227
38	0xbbbe34c0	-0.005804628
39	0x3e45ea0b	0.19327562
40	0xbcedf9cf	-0.029049782
41	0x3efc11e6	0.49232405
42	0x3e05fc2c	0.13084477
43	0xbe362310	-0.17786813
44	0xbe26ba16	-0.16281924
45	0x3e899d06	0.26877612
46	0xbeb02fde	-0.3441152
47	0xbebdb364	-0.37050927
48	0x3dc48d43	0.09597256
49	0xbe5d626b	-0.21619575
50	0x3e650f7c	0.22369188
51	0x3e29c741	0.16579916
52	0xbd8c65f8	-0.068553865
53	0x3ee3c60d	0.44487038
54	0x3ec438eb	0.38324675
55	0xbeb39e79	-0.35081843
56	0x3f02338b	0.508599
57	0x3c8cf680	0.017207384
58	0xbeebbce1	-0.4604254
59	0x3e293a8f	0.16526245
60	0x3e96ea78	0.2947576
61	0x3ea42358	0.32058215
62	0xbecb18df	-0.39667413
63	0xbefa0617	-0.4883277
64	0xbe8134cc	-0.25235593
65	0xbd19c0a2	-0.037537225
66	0xbd54c610	-0.0519467
67	0xbda4479e	-0.080214724
68	0xbe83625d	-0.25660983
69	0x3ebc9063	0.36828908
70	0xbeef0168	-0.4668076
71	0xbeb43edf	-0.35204217
72	0xbeb614fa	-0.3556288
73	0x3ed46519	0.4148338
74	0xbeeecb90	-0.4663968
75	0xbed18cc3	-0.40927705
76	0x3e15cd8c	0.14629191
77	0x3b8a4632	0.0042197937
78	0x3efaee0d	0.49009743
79	0xbeadecf0	-0.3396983
80	0xbee29c8d	-0.44260064
81	0xbe3373d3	-0.17524652
82	0x3ee62bc8	0.44955277
83	0x3ea6393b	0.32465538
84	0xbeca8ba4	-0.39559662
85	0x3eb72f44	0.35778248
86	0xbe2f8be3	-0.17143206
87	0x3ee6bc8f	0.45065734
88	0x3e84c775	0.25933424
89	0xbd2084ad	-0.03918903
90	0x3ee53076	0.44763535
91	0xbe1b86eb	-0.15188186
92	0xbf09a759	-0.5377098
93	0xbedca342	-0.43093306
94	0xbd978062	-0.07397534
95	0xbe1fa8f5	-0.15591796
96	0xbdc45cdb	-0.09588023
97	0xbed51fd7	-0.41625854
98	0xbea7b898	-0.3275802
99	0xbc803dd4	-0.015654482
100	0x3e597fce	0.2124016
101	0x3c98ee25	0.018668244
102	0xbebbb6c1	-0.36662868
103	0x3e417d39	0.18895425
104	0x3e7d5828	0.2474066
105	0xbd9e2e34	-0.07723656
106	0x3d859bf1	0.06523884
107	0x3deceeb9	0.1156897
108	0xbe918dd8	-0.2842853
109	0x3e2e1fb9	0.17004289
110	0xbe0163cc	-0.12635726
111	0xbe8edfc8	-0.27905107
112	0x3ec345f2	0.38139302
113	0x3c360201	0.011108876
114	0xbee144e1	-0.43997863
115	0x3ea6128f	0.32436034
116	0x3d114e4b	0.035475057
117	0x3eb5fe46	0.35545558
118	0x3de0b3ca	0.10971792
119	0xbedae3a7	-0.4275181
120	0xbe53671a	-0.20644799
121	0xbe2a79ce	-0.16648027
122	0x3ebd3b4e	0.36959308
123	0xbe053e80	-0.13012123
124	0xbd355472	-0.044269986
125	0xbeb08a54	-0.34480536
126	0xbe12fecf	-0.14355014
127	0x3e3e3776	0.18575844
128	0x3ec9f0f6	0.3944165
129	0xbea2e567	-0.31815645
130	0xbe6bb6f3	-0.23019008
131	0xbe870a50	-0.26375055
132	0xbd836b6d	-0.06416974
133	0x3e063bc3	0.13108735
134	0x3ded62f7	0.11591142
135	0x3da1831f	0.078863375
136	0x3df67ba1	0.12035299
137	0xbe8a690e	-0.27033275
138	0xbe54fb90	-0.20799088
139	0x3ed5ec00	0.41781616
140	0xbec6cb11	-0.38826802
141	0xbbd820f9	-0.0065957275
142	0x3ee17c2d	0.4404005
143	0x3e771a2a	0.24131075
144	0xbebb4028	-0.36572385
145	0x3ea5281f	0.32257172
146	0x3d540d8c	0.05177073
147	0x3e5ff46b	0.21870582
148	0x3e340bc8	0.17582619
149	0xbeb48dcd	-0.35264435
150	0xbea2d2e2	-0.31801516
151	0xbea11c57	-0.31466934
152	0x3e14bc32	0.14524916
153	0xbe0becde	-0.13664576
154	0x3d7ebb54	0.06219037
155	0x3ee00f78	0.43761802
156	0xbd3d77b1	-0.046256725
157	0x3d1fb90a	0.038994826
158	0xb91833d0	-0.00014515151
159	0x3ebcc5b4	0.36869586
160	0xbf03f3d3	-0.5154392
161	0xbd4f88cf	-0.05066758
162	0xbea05caa	-0.31320697
163	0x3e7958b5	0.24350245
164	0xbe2a19ee	-0.16611454
165	0x3e489d5b	0.19591276
166	0xbe7f9f95	-0.2496322
167	0xbe478b72	-0.19486788
168	0xbca99f64	-0.020705886
169	0xbee3f2bf	-0.44521138
170	0x3d3bfdd8	0.04589638
171	0xbd8b4101	-0.06799508
172	0x3ef7e2fa	0.48415357
173	0xbedfbf26	-0.43700522
174	0xbe9b3834	-0.30316317
175	0xbdfa4add	-0.1222131
176	0xbe35a42a	-0.17738405
177	0x3e1b5593	0.15169363
178	0x3e99c765	0.30034938
179	0xbebf6efb	-0.3738936
180	0x3f072ee2	0.5280591
181	0x3e91c137	0.28467724
182	0x3d86debc	0.06585452
183	0xbd9a9283	-0.07547476
184	0x3ebc1249	0.367327
185	0x3e3431c2	0.17597106
186	0x3ee1ed4d	0.4412636
187	0xbd1df47c	-0.038563237
188	0xbe2bc234	-0.16773301
189	0x3efff5b3	0.4999214
190	0xbe196863	-0.14981227
191	0xbe3e8096	-0.18603739
192	0xbedc09d6	-0.42976254
193	0xbeb10010	-0.3457036
194	0xbe5644b0	-0.2092464
195	0x3dcadaec	0.09905037
196	0x3f090245	0.5351909
197	0x3d33ce50	0.043897927
198	0xbe967249	-0.29384068
199	0xbba3e8b9	-0.005002108
200	0x3dce9462	0.100868955
201	0x3e9c7a12	0.30561882
202	0x3e165ffc	0.14685053
203	0x3ec17c5a	0.37790185
204	0xbe952dbd	-0.29136458
205	0xbe1554f1	-0.14583184
206	0x3de7f2c0	0.11325598
207	0xbe25ba3a	-0.16184321
208	0xbef8b554	-0.48575842
209	0xbdaf235e	-0.08551668
210	0x3ef2ba96	0.4740798
211	0xbebe5d5d	-0.37180606
212	0x3d161080	0.03663683
213	0xbeddb932	-0.43305355
214	0x3ee4d5f2	0.44694477
215	0xbedc1c15	-0.42990175
216	0x3dbd4491	0.09241594
217	0x3ecd2198	0.40064692
218	0xbd681ea4	-0.056669846
219	0x3e9e3e86	0.30907077
220	0x3dacdf30	0.08441007
221	0xbe8b2388	-0.27175546
222	0x3c6a8836	0.014314702
223	0x3e5b17bf	0.21395777
224	0xbf029c7d	-0.5102003
225	0xbdf63f89	-0.12023837
226	0xbed8f030	-0.4237075
227	0x3e87baf0	0.2650981
228	0x3d9b17bd	0.07572887
229	0xbece6458	-0.4031093
230	0xbeddd743	-0.43328294
231	0xbe98b50f	-0.29825637
232	0xbf22b455	-0.63556415
233	0x3e5b558e	0.21419355
234	0xbece74ff	-0.40323636
235	0xbed03faa	-0.40673572
236	0xbe3dcd44	-0.18535334
237	0x3ea24f7f	0.31701276
238	0xbce9c366	-0.028535556
239	0x3e85c5d9	0.26127508
240	0x3e4d4ee6	0.20049629
241	0x3ed5e065	0.41772762
242	0xbf013400	-0.5046997
243	0xbcc292cc	-0.023751639
244	0x3ea3fad5	0.32027307
245	0x3ef3f09b	0.47644505
246	0x3db3153b	0.08744284
247	0x3cddba99	0.027066516
248	0x3eac91e5	0.3370506
249	0x3d9fa20f	0.07794582
250	0xbe5606ff	-0.20901106
251	0xbdc29ffd	-0.095031716
252	0xbd54d1af	-0.051957782
253	0xbbf3863c	-0.0074317735
254	0x3ea3b50e	0.3197407
255	0x3eb9298b	0.36164507

layers.0.bias f4 [128]
0	0xbef21580	-0.47282028
1	0x3e983174	0.2972523
2	0xbd1ae8b2	-0.03781957
3	0x3d69a602	0.057043083
4	0xbeea9839	-0.45819262
5	0xbcff8fe0	-0.031196535
6	0xbce2dd1a	-0.02769332
7	0xbdb8aa5c	-0.090168685
8	0x3e84722b	0.25868353
9	0x3dcf05ee	0.10108553
10	0xbe11eb70	-0.14249969
11	0xbe4026b5	-0.18764766
12	0x3e9d543b	0.30728325
13	0xbea1fe38	-0.31639266
14	0xbeb59c3e	-0.35470766
15	0xbecf8f3f	-0.40538976
16	0xbed1e9ec	-0.4099878
17	0x3ec54deb	0.3853601
18	0xbe841cda	-0.25803262
19	0x3de8d4be	0.11368702
20	0xbeae12b8	-0.33998656
21	0xbca4b484	-0.020105608
22	0xbeb64ecb	-0.3560699
23	0x3dd350e2	0.103181615
24	0xbee5b6d9	-0.44866064
25	0xbe9ff2d5	-0.31239954
26	0x3eb6ab08	0.3567736
27	0xbd3ddb48	-0.0463517
28	0x3e8c7ec7	0.27440473
29	0x3e8f5450	0.27994013
30	0x3e9edd7c	0.31028354
31	0xbecf0dd5	-0.4044024
32	0xbdc05e7b	-0.09393021
33	0x3ea3e892	0.32013375
34	0xbd625b4f	-0.05526286
35	0xbe8d78c5	-0.27631202
36	0x3e9da319	0.30788496
37	0xbed76af9	-0.420738
38	0x3ee4e599	0.4470642
39	0xbebea316	-0.372338
40	0x3ec3b341	0.38222697
41	0x3dca9549	0.09891755
42	0x3efd9bb8	0.49532866
43	0xbeeae6b6	-0.45879143
44	0xbef772a1	-0.48329642
45	0xbced7030	-0.02898416
46	0xbef711bc	-0.48255718
47	0xbe68fdc1	-0.2275305
48	0xbcba9e16	-0.02278046
49	0x3ee0f335	0.43935552
50	0x3e5431a7	0.20722066
51	0x3ee71e10	0.45140123
52	0x3e416598	0.18886411
53	0xbeed00c3	-0.46289644
54	0x3e0840d5	0.13305981
55	0x3eb63ad1	0.35591748
56	0x3d5177c3	0.051139604
57	0x3e39ba33	0.18137436
58	0xbceb0cb5	-0.028692583
59	0x3ee2005a	0.44140893
60	0xbe9df36b	-0.30849776
61	0xbe0d6f82	-0.13812068
62	0x3e71fc2b	0.2363135
63	0x3ed0f689	0.4081309
64	0x3e6bf014	0.23040801
65	0x3ee8f0fd	0.4549636
66	0x3eeb9d2d	0.46018353
67	0x3f002bef	0.5006704
68	0x3d0d9875	0.034569222
69	0x3e4c2a0c	0.19937915
70	0x3f03220d	0.5122383
71	0x3dc4a085	0.09600929
72	0xbed5e712	-0.41777855
73	0xbe2e59a4	-0.17026383
74	0xbe276673	-0.16347675
75	0x3ef83278	0.48476005
76	0x3ec86efc	0.39147174
77	0xbec33916	-0.3812949
78	0x3ecc0f63	0.3985549
79	0x3ede4dcf	0.43418738
80	0x3f0e1a5f	0.5550899
81	0x3e0db679	0.13839139
82	0x3e8329a9	0.25617722
83	0xbdcf9b5c	-0.10137054
84	0x3e617e6f	0.22020887
85	0x3e285a5b	0.16440718
86	0x3e5aa7e1	0.21353103
87	0xbeb0cceb	-0.3453134
88	0x3e1c4fe5	0.15264852
89	0xbe9025bb	-0.28153786
90	0x3da301b2	0.07959308
91	0xbecc4e7f	-0.39903638
92	0x3ef0d448	0.47036958
93	0x3dc5f27a	0.09665389
94	0x3ec0d49c	0.37662208
95	0x3e5d48c2	0.21609786
96	0x3c617ce7	0.013762689
97	0x3efa3640	0.48869514
98	0x3d8e4058	0.06945866
99	0xbdc8681a	-0.09785481
100	0x3ebbfa42	0.3671437
101	0x3d80b667	0.062847905
102	0xbef4e7a5	-0.4783298
103	0xbdcc7e30	-0.09985006
104	0x3eea1f4d	0.45727006
105	0x3ee7377f	0.45159528
106	0x3cbe9799	0.023265647
107	0x3ed8a99a	0.42316896
108	0xbe85022e	-0.25978225
109	0x3ec3feb1	0.38280252
110	0x3e907fe8	0.28222585
111	0xbe508156	-0.20361838
112	0xbc976b8c	-0.0184839
113	0x3d8ec56e	0.069712505
114	0xbe2a41be	-0.16626641
115	0xbe276294	-0.16346198
116	0xbe0d7a56	-0.13816199
117	0xbead9978	-0.3390615
118	0x3ea212da	0.31655008
119	0x3dd27289	0.10275752
120	0x3dcf260d	0.101146795
121	0x3ed473d6	0.41494626
122	0xbed1b947	-0.40961668
123	0xbe01bb5d	-0.1266913
124	0xbee901bc	-0.45509136
125	0xbee7aca3	-0.452489
126	0xbe0b5ee1	-0.13610412
127	0x3e9fd2a6	0.312154

layers.3.weight f4 [256, 128]
0	0xbd3ec875	-0.04657789
1	0x3be6e72c	0.007046601
2	0xbdac5d5f	-0.084162466
3	0xbda0e359	-0.07855863
4	0x3c87019c	0.01648026
5	0x3c3bbb67	0.011458254
6	0x3c75bb29	0.014998236
7	0xbda3c33c	-0.079962224
8	0x3dbe18e2	0.0928209
9	0xbdba7d7b	-0.09105965
10	0xbd8e0a1d	-0.06935523
11	0xbd081e2d	-0.033231903
12	0xbc880b55	-0.016606966
13	0xbd5460dd	-0.05185019
14	0x3da27980	0.079333305
15	0xbc908871	-0.017643185
16	0x3c3d3d2d	0.01155023
17	0x3d9b90ed	0.07596002
18	0xba3e8ddd	-0.0007269064
19	0x3bce18cf	0.0062895785
20	0xbd541673	-0.05177922
21	0xbc172c40	-0.009226859
22	0x3cecbffa	0.028900135
23	0xbdc84174	-0.09778109
24	0x3d39117b	0.045182686
25	0x3d0ee904	0.03489019
26	0x3c8c1a9f	0.017102538
27	0xbd4ba247	-0.049715307
28	0xbd223b72	-0.039607473
29	0xbd947041	-0.07247973
30	0x3d10985c	0.03530155
31	0x3addc7e3	0.0016920533
32	0x3d78e6c4	0.06076695
33	0xbd77970a	-0.060446776
34	0xbc09032f	-0.008362575
35	0xbd9bf431	-0.07614935
36	0xbd84d6c9	-0.064862795
37	0x3d6aca53	0.057321858
38	0x3d86fcc1	0.06591178
39	0x3cfa16ba	0.030528415
40	0xbd3cc858	-0.0460895
41	0xbd5dda4f	-0.054163273
42	0x3cc4d6d5	0.024028221
43	0x3d95cd83	0.07314589
44	0x3d851c57	0.06499546
45	0xbd2a30fa	-0.041550614
46	0xbd0002ed	-0.03125279
47	0xbd6f1226	-0.058366917
48	0x3d84ae2f	0.064785354
49	0x3de1bc61	0.110222585
50	0x3bcd1988	0.006259147
51	0x3d365da9	0.044522915
52	0xbd4f10f5	-0.05055328
53	0x3d879d1a	0.066217616
54	0x3d027d4a	0.031857766
55	0xbab25f6f	-0.0013608764
56	0xbd5e6f14	-0.05430515
57	0xbcedf670	-0.029048175
58	0xbdb8ed10	-0.09029591
59	0x3c80f119	0.015739964
60	0xbc35e151	-0.011101083
61	0xbc92344c	-0.017847203
62	0xbcb97682	-0.022639517
63	0x3d2a6852	0.041603394
64	0xbcc0f0f4	-0.023552395
65	0x3db6dd57	0.08928936
66	0x3de42fa6	0.11141901
67	0x3db4b5e8	0.08823758
68	0xbced994d	-0.029003764
69	0xbd3fbf25	-0.04681315
70	0xbca5a254	-0.020219006
71	0xbbf77990	-0.007552333
72	0x3cfe9959	0.031078981
73	0xbd986844	-0.07441762
74	0x3d839d95	0.06426541
75	0x3d9b23a1	0.07575155
76	0xbbb97b54	-0.005660454
77	0xbcb8065b	-0.022463968
78	0x3dc4a046	0.09600882
79	0xba53bce9	-0.0008077161
80	0x3d45eb1d	0.048319925
81	0xbca57aa4	-0.020200081
82	0xbd4095e3	-0.047017943
83	0xbdbcd1e7	-0.09219723
84	0xbd4a44cd	-0.04938202
85	0xbda38d39	-0.079859205
86	0x3cc06870	0.0234873
87	0x3da153cf	0.07877313
88	0x3d8b9bed	0.0681685
89	0xbd3c7abc	-0.046015486
90	0x3d46c6ff	0.04852962
91	0x3cf056e7	0.029338313
92	0x3da924ca	0.0825897
93	0x3d3df8dd	0.046379913
94	0x3d951a55	0.07280413
95	0x3d716a22	0.058939107
96	0xbca4a8ae	-0.020099964
97	0x3b73df83	0.003721208
98	0x3b480e9f	0.0030526293
99	0xbc77b798	-0.015119456
100	0x3d61bc91	0.05511147
101	0x3d5ef7f7	0.054435696
102	0xbd97b6bf	-0.07407903
103	0xbcc33086	-0.023826849
104	0xbc7108aa	-0.014711538
105	0xbbe9470b	-0.0071190647
106	0x3c94988b	0.018139144
107	0xbc8bb07c	-0.017051928
108	0xbca26058	-0.01982133
109	0xbcee5512	-0.029093299
110	0x3d07ea7d	0.03318261
111	0xbce70b10	-0.028203517
112	0xbdb359ca	-0.0875736
113	0x3c0ee2d0	0.0087210685
114	0x3bf47809	0.0074605984
115	0xbd8b3e5e	-0.06799005
116	0x3ca70732	0.020389173
117	0xbdb298fa	-0.08720584
118	0x3d9fbaf3	0.077993296
119	0x3cbc61a8	0.022995785
120	0x3bfac0ac	0.007652363
121	0x3d8e4ce0	0.069482565
122	0x3c347a67	0.011015511
123	0xbd7b3390	-0.06132847
124	0xbd283087	-0.041061904
125	0x3ce4227c	0.027848475
126	0xbc913fe4	-0.01773066
127	0x3cd72c7a	0.026266325
128	0x3d77d0b6	0.060501777
129	0x3d25bd5f	0.0404638
130	0xbcb5bfaf	-0.022186128
131	0xbcfb1609	-0.030650156
132	0xbd7a68d2	-0.06113512
133	0xbd3919bd	-0.04519056
134	0xbd556cea	-0.05210582
135	0x3d90223a	0.07037778
136	0xbd118b93	-0.0355335
137	0xbd1ba637	-0.03800031
138	0x3d8e5cdc	0.06951305
139	0xbd6d4e6e	-0.057936125
140	0x3d90782b	0.0705417
141	0x3c602df0	0.013682827
142	0xbbb75a1c	-0.0055954587
143	0xbd6c1a34	-0.057642177
144	0xbdaedbb8	-0.08538002
145	0x3d06eff2	0.032943673
146	0xbda5d3d7	-0.08097046
147	0x3db23f12	0.08703436
148	0xbc64afa2	-0.01395789
149	0xbd8a842d	-0.06763492
150	0xba915f3a	-0.0011091002
151	0x3c29ce4e	0.010364128
152	0xbd8afd07	-0.067865424
153	0xbd94addc	-0.072597235
154	0xbca97963	-0.020687765
155	0xbd27a226	-0.04092612
156	0x3ddb94be	0.1072173
157	0x3d12cb3e	0.035838358
158	0xbd3d9d80	-0.04629278
159	0xbdb24bf5	-0.08705894
160	0xbdaa81ff	-0.08325576
161	0x3d3f58b9	0.046715472
162	0x3d06800d	0.032836962
163	0xbd82839f	-0.06372761
164	0x3c577e34	0.013152648
165	0xbd4ae463	-0.049534213
166	0x3db38070	0.08764732
167	0x3d669b78	0.05630061
168	0xbd529b5e	-0.0514177
169	0x3bab4507	0.0052267346
170	0x3d909bdd	0.070609786
171	0xbd91f30d	-0.071264364
172	0xbd2efb86	-0.04272034
173	0xbd35024a	-0.044191636
174	0x3d3a25c9	0.04544619
175	0xbd8fb5fb	-0.07017132
176	0xbcf60bbf	-0.030034898
177	0x3d01a4ba	0.031651236
178	0x3d7c933b	0.061663847
179	0xbc13fc16	-0.00903227
180	0xbd06c0d8	-0.032898754
181	0xbba1c52b	-0.0049368343
182	0xbd95e6c0	-0.07319403
183	0xbc88241a	-0.016618777
184	0xbd438a00	-0.04773903
185	0x3dbc1461	0.091835745
186	0x3c5bce25	0.013415848
187	0x3dced1e0	0.10098624
188	0xbce7e96b	-0.028309545
189	0x3d00e327	0.03146663
190	0x3cc798c2	0.024364833
191	0xbc26178b	-0.010137449
192	0xbc260b2b	-0.010134499
193	0xbd1c9800	-0.038230896
194	0x3d7d986f	0.06191295
195	0xb982bcbb	-0.00024936147
196	0xbdbd1b2e	-0.092337
197	0xbd4f8eb7	-0.050673213
198	0x3baea2d9	0.0053294715
199	0xbcf7a913	-0.030231988
200	0xbc7a50a2	-0.015278013
201	0xbc1a6ee6	-0.009425854
202	0xbd253f8f	-0.040343817
203	0x3da66830	0.08125341
204	0xbd1dfebd	-0.038573015
205	0xbca6b5cb	-0.020350358
206	0x3d7d9914	0.061913565
207	0x3db3d866	0.08781509
208	0x3c6a20be	0.014290033
209	0x3cd9e1df	0.026596962
210	0x3d323aa9	0.043512974
211	0xbdc7645b	-0.09735938
212	0x3d949078	0.07254118
213	0xbd165493	-0.03670175
214	0x3d1b8726	0.037970684
215	0xbd0fc339	-0.03509829
216	0x3c9726b3	0.01845107
217	0xbd73b480	-0.05949831
218	0xbd8d059f	-0.06885838
219	0x3af38d77	0.0018581589
220	0x3d28d16c	0.041215345
221	0xbc75645d	-0.014977542
222	0xbcb0572d	-0.021525944
223	0x3cb10dee	0.021613088
224	0xbd5ac641	-0.053411726
225	0xbb67fd61	-0.0035398828
226	0xbc8525af	-0.01625332
227	0x3d98377b	0.07432457
228	0x3dcaa90c	0.098955244
229	0xbda57559	-0.08079023
230	0xbcaccc94	-0.021093644
231	0x3d4ed9ff	0.050500866
232	0x3b423b1d	0.0029637285
233	0x3db0046c	0.085945934
234	0xbce53917	-0.027981324
235	0x3d1e16f3	0.038596105
236	0xbdac02b1	-0.08398951
237	0xbd4854fa	-0.048909165
238	0x3c844f29	0.016151028
239	0xbd9d27bc	-0.07673594
240	0xbdafcaa3	-0.08583572
241	0xbd8ee9bc	-0.06978175
242	0x3ba6519a	0.0050756456
243	0x3d454146	0.048157953
244	0xbd62913f	-0.0553143
245	0xbd94999e	-0.07255863
246	0xba98894b	-0.0011637596
247	0x3d1966f4	0.0374517
248	0x3d4d48a5	0.050118107
249	0xbc17c172	-0.00926243
250	0x3c95420a	0.018219966
251	0x3d315d56	0.043301903
252	0x3d8b61c8	0.0680576
253	0xbd5881b5	-0.052858073
254	0x3d193f05	0.037413616
255	0xbc96991b	-0.018383553

layers.3.bias f4 [256]
0	0x3d35acdb	0.0443543
1	0xbca04246	-0.019562852
2	0xbcc613c3	-0.024179345
3	0xbd8c4738	-0.068495214
4	0x3b84ba4d	0.004050529
5	0x3e04b551	0.12959792
6	0x3e0192fe	0.1265373
7	0x3d2b29c7	0.04178789
8	0x3c39d1c4	0.011341516
9	0xbd8c96d2	-0.06864704
10	0xbd9fb3e5	-0.07797984
11	0x3c440b0b	0.0119655235
12	0x3de90481	0.11377812
13	0x3d94c891	0.072648175
14	0xbd9e2ce4	-0.07723406
15	0x3dd2563d	0.10270355
16	0xbcc91a2a	-0.024548609
17	0x3d5baeb7	0.053633418
18	0x3d713696	0.058889948
19	0xbd4d617e	-0.050141804
20	0xbdb3f434	-0.087868124
21	0x3d96633a	0.07343145
22	0x3ded2f5f	0.11581301
23	0x3c903573	0.017603612
24	0x3dd25c5e	0.10271524
25	0x3dbd859f	0.09254002
26	0x3d185d33	0.037198257
27	0x3c728e0b	0.0148043735
28	0x3cf77a1c	0.030209593
29	0x3e175bf6	0.14781174
30	0xbd9fb5c6	-0.077983424
31	0x3dabb494	0.08384052
32	0x3e285e67	0.16442262
33	0x3baa4f6b	0.0051974556
34	0x3d8e02f5	0.06934158
35	0x3e07b9a0	0.13254404
36	0x3d759871	0.059959833
37	0xbaf15be9	-0.0018414232
38	0x3e17a3e6	0.14808616
39	0x3dc5bf89	0.09655673
40	0xbb608c3d	-0.0034263276
41	0x3cf51a2d	0.029919708
42	0x3b9ad81f	0.0047254707
43	0x3c52d621	0.012868435
44	0x3d804a76	0.06264202
45	0x3d9e3b01	0.07726098
46	0xbd5a0f8d	-0.053237487
47	0x3dbe7d26	0.09301214
48	0x3d9db230	0.07700002
49	0xbcb8473f	-0.02249491
50	0xbc37c0bd	-0.011215386
51	0xbce76199	-0.02824478
52	0x3d5a25ad	0.053258587
53	0x3df2d4af	0.118569724
54	0x3de5ca67	0.11220246
55	0xbdb830d6	-0.0899369
56	0xbd6f0914	-0.058358267
57	0x3dfb863f	0.12281465
58	0xbd58dd00	-0.052945137
59	0xbd5ce42e	-0.053928547
60	0x3c6ca6b5	0.014444043
61	0xbbf7a15c	-0.0075570773
62	0xbda267b6	-0.079299375
63	0x3b25d58b	0.0025304283
64	0x3dd84a8a	0.10561092
65	0xbb378ac1	-0.0028006288
66	0xbdb04808	-0.08607489
67	0x3ca14355	0.019685427
68	0x3d4d3ece	0.050108723
69	0xbc952da1	-0.018210234
70	0x3d946658	0.07246083
71	0x3dc717cd	0.097213365
72	0xbdbc6aad	-0.09200034
73	0x3e316200	0.1732254
74	0x3c2b496f	0.01045452
75	0x3dcb9d64	0.09942129
76	0x3c744644	0.014909331
77	0xbd9f512a	-0.07779153
78	0x3d856d6c	0.06515011
79	0x3c72b00a	0.014812479
80	0xbce61de6	-0.028090429
81	0xbbb7b7f0	-0.005606644
82	0x3db87109	0.09005935
83	0x3bc64ca4	0.0060516167
84	0xbda03143	-0.07821896
85	0xbd5e7ae2	-0.05431641
86	0xbc2d6142	-0.01058227
87	0x3e0039ed	0.12522097
88	0x3db6dd53	0.08928933
89	0x3ca21f69	0.019790368
90	0xbd782201	-0.060579304
91	0x3cb99b72	0.02265713
92	0xbd7b48db	-0.061348777
93	0xbc66673c	-0.014062699
94	0x3d7447ef	0.059638914
95	0x3d836807	0.06416326
96	0x3d604418	0.05475244
97	0x3dd2a897	0.10286062
98	0xbaf71274	-0.0018850104
99	0x3e11044f	0.141618
100	0x3da7e1d4	0.0819737
101	0x3c5d2586	0.013497716
102	0x3e01748f	0.1264212
103	0x3e22a7b4	0.15884286
104	0xbd0e0571	-0.034673158
105	0x3d50fb92	0.051021166
106	0xbc2e7eaa	-0.010650316
107	0x3da6bd5a	0.08141585
108	0x3de2a1ad	0.110659935
109	0x3d657ff5	0.056030232
110	0xbd82717f	-0.06369304
111	0xbd91d794	-0.071211964
112	0x3d356e54	0.04429467
113	0x3cc2d0ad	0.023781145
114	0xbd699479	-0.05702636
115	0xbbf6ba54	-0.0075295363
116	0xbd948bfb	-0.07253262
117	0x3d1053b9	0.035236094
118	0xbdcd44f7	-0.100229196
119	0xbce20c83	-0.027593857
120	0x3d7ba7c7	0.0614393
121	0x3c8e41b7	0.01736532
122	0xbc7254e7	-0.01479075
123	0x3d07b784	0.033134
124	0x3d7be516	0.06149777
125	0xbd5fd98a	-0.05465082
126	0xbae15d04	-0.0017193859
127	0x3c492475	0.012276758
128	0x3d50c3cc	0.050967976
129	0xbdb12828	-0.08650237
130	0xbaf4c8b0	-0.0018675532
131	0x3d05cecf	0.03266793
132	0xbb06cf12	-0.00205702
133	0xbbf0cc8f	-0.007348604
134	0xbc536765	-0.012903069
135	0x3e324caf	0.17412065
136	0x3d600847	0.054695394
137	0x3cba4091	0.022735866
138	0x3d8c5441	0.06852008
139	0xbb8a4bde	-0.00422047
140	0x3d9eb7c9	0.07749898
141	0xb98d0b54	-0.00026902056
142	0xbcfe8251	-0.031068
143	0xbcc11fda	-0.023574758
144	0x3da2cfe4	0.07949808
145	0x3c4161df	0.011803119
146	0x3d845021	0.06460596
147	0xbd66ee8e	-0.056379847
148	0xbd682e84	-0.056684986
149	0x3e1eec21	0.15519764
150	0xbcfb19d7	-0.03065197
151	0xbda58789	-0.08082492
152	0x3da2c014	0.07946792
153	0x3d8c70b7	0.06857436
154	0x3d1056fa	0.035239197
155	0x3da08831	0.078384764
156	0xbd7775a5	-0.06041493
157	0x3db2c958	0.087298095
158	0xbc2b6bc7	-0.010462708
159	0xbc8e0b5c	-0.017339401
160	0x3e080d69	0.13286366
161	0xbd742ba2	-0.059611924
162	0x3de1ec53	0.110314034
163	0xbcb04e6e	-0.021521773
164	0xbd1afd7b	-0.037839394
165	0xbd9eb810	-0.07749951
166	0x3cf9504d	0.030433798
167	0x3e093d11	0.13402201
168	0x3c8db27c	0.017297022
169	0x3d2fcba8	0.04291883
170	0xbc687829	-0.014188805
171	0xbce9d80d	-0.028545404
172	0x3d4f669d	0.05063497
173	0x3d1d2645	0.038366575
174	0x3d650954	0.0559171
175	0xbd3fc073	-0.046814393
176	0xbcf76624	-0.030200072
177	0x3d5e45f1	0.05426592
178	0x3d5b42f7	0.05353066
179	0xbc3943cb	-0.011307667
180	0x3c51f40c	0.012814533
181	0xbd66527c	-0.056231007
182	0x3d5ff516	0.05467709
183	0x3cf35c80	0.029707193
184	0x3c2f6192	0.010704415
185	0xbd4dbdc0	-0.050229788
186	0xbd690935	-0.056893546
187	0x3ca4b492	0.020105634
188	0xbd13cf75	-0.03608652
189	0x3d364fc7	0.044509675
190	0x3e079dca	0.13243786
191	0x3c3a3998	0.0113662705
192	0xbd7e7ff0	-0.06213373
193	0x3d3e250d	0.046422053
194	0xbc84c219	-0.016205834
195	0x3ddbd55f	0.10734057
196	0x3d819858	0.063278854
197	0x3c134b96	0.008990189
198	0xbd46fe9e	-0.048582666
199	0x3d1004c2	0.035160787
200	0x3d9ae212	0.07562651
201	0x3e1fc3e1	0.15602066
202	0x3df892fc	0.1213741
203	0x3c79fed1	0.015258507
204	0xbd96d0e2	-0.0736406
205	0xbd6eb9f1	-0.058282796
206	0xbd77e19b	-0.06051789
207	0xbdaf40af	-0.08557259
208	0x3d74d248	0.059770852
209	0x3cd60640	0.026126027
210	0x3e3e97c7	0.18612586
211	0xbc86fd79	-0.016478287
212	0x3dfa41a4	0.12219551
213	0xba9e4184	-0.0012073969
214	0x3df58852	0.11988892
215	0x3a216bd8	0.00061577326
216	0x3d7678fe	0.06017398
217	0x3cfd7dde	0.030943807
218	0xbc5a9654	-0.013341505
219	0xba047413	-0.0005052697
220	0xbb251b69	-0.002519334
221	0x3cf1ad59	0.029501604
222	0xbd2ad3a1	-0.04170573
223	0x3dfdde59	0.12395925
224	0xbd6b5521	-0.057454232
225	0x3d89d053	0.06729188
226	0x3da06327	0.07831412
227	0xbce704d1	-0.028200539
228	0xbd2fb8d0	-0.04290086
229	0x3cd8c3e5	0.026460597
230	0x3db84e53	0.08999314
231	0x3e0c6f18	0.13714254
232	0xb8c3b273	-9.331563e-05
233	0x3d0a85ed	0.033819128
234	0x3d5137d4	0.051078632
235	0x3d98002b	0.07421907
236	0x3d1509c6	0.036386274
237	0x3d8a12fa	0.06741901
238	0x3dc2c4f7	0.09510224
239	0x3d9c065a	0.07618399
240	0x3d3fa936	0.04679223
241	0xbd1ba3d5	-0.03799804
242	0x3cb3a1b3	0.02192769
243	0x3dbd06b0	0.09229791
244	0xbd96cebd	-0.07363651
245	0x3d685eb4	0.05673094
246	0x3c45fc28	0.0120840445
247	0xbda97fbc	-0.082763165
248	0xbd5a6cf8	-0.053326577
249	0xbd2aa58a	-0.041661777
250	0x3e20f1de	0.15717265
251	0x3d2b6e57	0.041853275
252	0x3dd76bc6	0.10518603
253	0xbcff2b24	-0.0311485
254	0xbd92c3b4	-0.07166234
255	0x3d89a3e3	0.06720712

layers.6.weight f4 [256, 256]
0	0xbc94d9dd	-0.018170292
1	0x3d7f3f8c	0.062316462
2	0x3d4b3bb6	0.04961749
3	0x3cb1a11e	0.021683272
4	0xbc18415a	-0.009292925
5	0xbd67f5c1	-0.056630854
6	0x3cebfc03	0.028806692
7	0x3d437014	0.047714308
8	0xbd08ae4a	-0.03336934
9	0xbd3a09cc	-0.0454195
10	0x3bb8d155	0.0056401887
11	0x3c59d6ca	0.013295839
12	0x3d2b6d4c	0.04185228
13	0x3d021a2b	0.031763237
14	0xbccf1bfd	-0.0252819
15	0xbd51abad	-0.051189113
16	0xbc43dddb	-0.01195475
17	0x3d14edb8	0.03635952
18	0xbd23ed4e	-0.040021233
19	0xbb88cdaa	-0.0041749077
20	0xbd3e8759	-0.046515796
21	0xbd202aec	-0.039103433
22	0x3d571bbf	0.052516695
23	0x3d7dfbcb	0.062007707
24	0x3b310d0a	0.0027015829
25	0x3d22aff2	0.039718576
26	0xbc51a3fd	-0.0127954455
27	0x3d4db994	0.05022581
28	0xbd38aaf7	-0.04508492
29	0x3b02b4f9	0.0019944294
30	0x3d410fe8	0.04713431
31	0xbd5726b2	-0.052527137
32	0xbc8f5df7	-0.01750086
33	0x3d2e1d0a	0.042508163
34	0x3c633bc8	0.013869233
35	0xbd70ac6b	-0.05875818
36	0xbbdc2209	-0.0067179245
37	0x3ccba87c	0.024860613
38	0xbce70d7b	-0.02820467
39	0xbca9b6c1	-0.020717027
40	0x3d536212	0.0516072
41	0x3cf2075b	0.029544523
42	0x3c208ee8	0.0097996965
43	0xbbae884b	-0.005326306
44	0xbd3046a3	-0.043036114
45	0x3c2e131a	0.010624671
46	0xbcd52bb2	-0.026021812
47	0xbd00c5fe	-0.03143882
48	0xbd137532	-0.036000438
49	0xbccb234e	-0.024797108
50	0xbd47fad1	-0.04882318
51	0x3cdfd180	0.027321577
52	0x3c98a22d	0.018632019
53	0xbce92efb	-0.028464785
54	0xbc011542	-0.007878603
55	0xbbe63a99	-0.0070260284
56	0x3d4bf3bb	0.049792986
57	0x3bb3b14b	0.0054837815
58	0xbd7a619f	-0.061128255
59	0xbcf5701d	-0.029960686
60	0x3ce1fcb0	0.027586311
61	0x3c88e034	0.01670847
62	0xbce7921f	-0.028267918
63	0x3d7bbb84	0.061458126
64	0xbce004a4	-0.027345963
65	0xbc732f3a	-0.014842803
66	0x3b73e793	0.0037216886
67	0x3c832470	0.016008586
68	0xbcd3256b	-0.025774678
69	0x3c21d73e	0.009877978
70	0xbcacb0f6	-0.021080475
71	0xbc55cd20	-0.013049394
72	0xbd0e2c71	-0.03471035
73	0xbd452824	-0.048133984
74	0xbcdbf24a	-0.02684893
75	0x3d4aea2f	0.04953974
76	0x3d37fd49	0.044919286
77	0xbca5036b	-0.020143231
78	0x3d785e5e	0.06063687
79	0xbd035095	-0.03205927
80	0x3c8e90ad	0.017402971
81	0xbd2f857d	-0.042851914
82	0x3d1c12fd	0.038104046
83	0x3d3deea2	0.046370156
84	0x3caecd36	0.021338087
85	0x3d329b69	0.043605242
86	0x3ce04efd	0.027381415
87	0xbd1126b3	-0.035437297
88	0x3d2a09fd	0.04151343
89	0x3ce87fc1	0.02838123
90	0xbc9e58ef	-0.019329516
91	0x3c0a923e	0.008457718
92	0x3c3835f2	0.01124333
93	0x3ce3de5c	0.02781599
94	0xbca8288e	-0.02052715
95	0x3c8b1dd2	0.016981993
96	0x3d58edc3	0.052961122
97	0xbd35588f	-0.04427391
98	0x3d62ac7e	0.055340283
99	0xbd49475f	-0.04914033
100	0x3c2edb15	0.01067235
101	0x3d431250	0.047624886
102	0xbc1caf5e	-0.009563295
103	0x3d696896	0.056984507
104	0xbd1a9006	-0.037735008
105	0xbd3b3c10	-0.045711577
106	0xbc2e0a1c	-0.010622527
107	0x3b7f47c8	0.0038952697
108	0xbd598150	-0.053101838
109	0x3d516edb	0.05113111
110	0x3cd11d83	0.025526768
111	0xbd6ad212	-0.057329245
112	0xbbb24ee7	-0.005441535
113	0xbd145e39	-0.03622267
114	0xbc164d48	-0.009173699
115	0xbd6494fe	-0.055806153
116	0xbd6c5d8a	-0.057706393
117	0xbd0045df	-0.031316634
118	0x3d1ed6aa	0.03877894
119	0xbcee7585	-0.029108772
120	0x3c71afca	0.014751384
121	0xbd22d414	-0.039753035
122	0xbd260b54	-0.040538147
123	0xbd2bae58	-0.041914314
124	0xbd7fb3c1	-0.062427286
125	0x3c2c7503	0.010525945
126	0xbd0f9ed7	-0.03506359
127	0xbab236a6	-0.0013596609
128	0xbc953f3d	-0.01821863
129	0xbd4d7fd4	-0.050170735
130	0x3cbe033a	0.023194898
131	0x3d44c829	0.04804245
132	0x3ce9f494	0.028559007
133	0xbd6d8a4f	-0.05799323
134	0xbc3453f8	-0.011006348
135	0xbd499a2f	-0.049219307
136	0xbcdba5a1	-0.026812376
137	0x3d484ab5	0.04889937
138	0xbc3731da	-0.011181319
139	0x3d612725	0.05496897
140	0x3ce91830	0.028453916
141	0xbbb5c39d	-0.0055470006
142	0x3d53e308	0.051730186
143	0xbb640586	-0.0034793331
144	0xbd2eb7fb	-0.042655926
145	0x3d253abd	0.04033922
146	0x3d19ae6d	0.03751986
147	0xbc939692	-0.018016133
148	0x3c610cc3	0.013735953
149	0x3d58e23f	0.05295014
150	0x3d0fa6dc	0.03507124
151	0x3c1eb66a	0.009687046
152	0xbcbb9642	-0.022898797
153	0x3d25bc46	0.040462755
154	0xbce6c1d0	-0.028168589
155	0xbc95328e	-0.018212583
156	0xbc07f2c1	-0.008297623
157	0xbc551cd4	-0.013007361
158	0xbc7339ad	-0.014845294
159	0xbd315afe	-0.043299668
160	0x3cddc633	0.027072048
161	0x3d3d28f2	0.046181627
162	0xbd291ed3	-0.041289162
163	0xbd7f8732	-0.06238479
164	0x3d6bfa0d	0.057611514
165	0x3d051488	0.032490283
166	0xbc4307e2	-0.011903735
167	0xbcb48ca2	-0.022039715
168	0xbbd347cd	-0.0064477683
169	0xbd4529bf	-0.048135515
170	0x3cf16235	0.029465774
171	0xbd131c50	-0.035915673
172	0x3d213e6d	0.039366174
173	0xbd618ff7	-0.055068936
174	0x3a1515e1	0.0005687159
175	0x3d6c2320	0.057650685
176	0xbd3de9c6	-0.04636552
177	0xbd65cd90	-0.056104243
178	0xbd0ae923	-0.033913743
179	0x39e034a3	0.00042763827
180	0xbb20d7b0	-0.0024542622
181	0x3d19ebab	0.037578266
182	0xbb444c4c	-0.0029952703
183	0xba85c772	-0.0010206534
184	0xbc83d7db	-0.016094139
185	0xbd153483	-0.036427032
186	0xbc5d30a2	-0.0135003645
187	0xbb8a812f	-0.0042268257
188	0xbb824927	-0.0039760056
189	0xbca23941	-0.019802691
190	0x3c34400f	0.011001601
191	0xbd56013a	-0.052247263
192	0x3cb84dc5	0.02249802
193	0x3d3bb9bb	0.045831423
194	0x3d5974a1	0.05308974
195	0x3d1dc9a0	0.038522363
196	0xbd50ffa1	-0.051025037
197	0x3d6a9a99	0.057276342
198	0xbd7afe3f	-0.061277624
199	0x3d03d481	0.03218508
200	0xbca590f2	-0.020210717
201	0xbcac00ac	-0.020996414
202	0x3d4c7ea9	0.04992548
203	0xbd686264	-0.056734458
204	0x3d051b32	0.03249664
205	0xbd0cf085	-0.034409065
206	0xbd272c67	-0.04081383
207	0x3cabf4be	0.020990726
208	0xbd24ef6b	-0.04026739
209	0xbd2a2229	-0.041536484
210	0x3d5c665c	0.053808555
211	0xbd03b59d	-0.03215562
212	0xbd6768ea	-0.05649654
213	0x3cbaa39b	0.022783091
214	0x3cff9d1b	0.031202843
215	0x3c9b8a10	0.018986732
216	0x3cbe8dc3	0.023260957
217	0xbd5c5474	-0.05379148
218	0x3d048fc6	0.032363676
219	0x3d1ab41a	0.037769414
220	0xbd74825b	-0.05969463
221	0x3c4186ba	0.0118119065
222	0x3d2bd213	0.04194839
223	0xbd240aeb	-0.040049475
224	0xbd49118a	-0.049088992
225	0x3c159a34	0.009131003
226	0xbd7e8fe9	-0.062148962
227	0x3d43e745	0.047827978
228	0x3c6a2877	0.014291874
229	0x3d0f3612	0.034963675
230	0x3d45fae2	0.048334964
231	0x3ccfd09e	0.025368031
232	0xbd37b6c7	-0.044852044
233	0xbcdf4045	-0.027252326
234	0x3d1a39c0	0.03765273
235	0xbc621aef	-0.013800367
236	0x3d2d1177	0.042252984
237	0xbd5991b2	-0.05311746
238	0xbd36af37	-0.04460069
239	0xbc98bf3d	-0.018645877
240	0x3d1017c5	0.03517892
241	0x3cb004e7	0.021486713
242	0xbcba9fbc	-0.022781245
243	0xbcc174d0	-0.02361527
244	0x3d6fdebe	0.058562033
245	0xbcce90dc	-0.025215559
246	0x3d03ef1e	0.03221046
247	0xbcc40957	-0.023930235
248	0x3d33f585	0.043935318
249	0x3d30b952	0.043145485
250	0xbd4ad0e3	-0.049515616
251	0xbd0cef4f	-0.03440791
252	0xbbf0a2e9	-0.007343639
253	0x3c90137f	0.017587421
254	0xbca2492b	-0.01981028
255	0xbc882322	-0.016618315

layers.6.bias f4 [256]
0	0x3c01bf63	0.007919165
1	0x3d10f9b0	0.03539437
2	0xbc5ce768	-0.013482906
3	0x3d8abb39	0.06773991
4	0x3d63d9c0	0.055627584
5	0xbd583ad1	-0.052790467
6	0x3df5dfd5	0.12005583
7	0x3dd14768	0.10218698
8	0x3d8ecf3f	0.06973123
9	0xbd37a08a	-0.044830836
10	0xbd5c354c	-0.053761765
11	0xbbfd76a2	-0.0077350894
12	0x3e0434a2	0.12910703
13	0x3df5b034	0.11996499
14	0x3c6b3fc5	0.014358466
15	0x3adba541	0.0016757624
16	0x3d05afaf	0.032638248
17	0x3bef7c68	0.0073085316
18	0xbce4bf1b	-0.027923157
19	0xbd400655	-0.04688104
20	0x3d20ab32	0.039225765
21	0x3d27dba9	0.04098097
22	0x3bb96671	0.005657964
23	0xbcaaaaf7	-0.020833476
24	0x3e19e427	0.1502844
25	0xbd183e89	-0.037169013
26	0xbbf5253d	-0.007481246
27	0x3c0a1bdb	0.008429493
28	0x3e03f9a3	0.12888198
29	0xbd2d43c8	-0.04230097
30	0xbbb2029c	-0.00543244
31	0xbd5aa65f	-0.05338132
32	0x3cfbede1	0.030753078
33	0xbc6380ce	-0.01388569
34	0xbc64da72	-0.013968097
35	0x3ccf0d0f	0.025274782
36	0xbd7e82c4	-0.062136427
37	0xbc135488	-0.008992322
38	0xbc68344f	-0.014172628
39	0x3e33f6ea	0.17574659
40	0xbd56a677	-0.052404847
41	0x3cef48c7	0.029209508
42	0xbc3c8223	-0.011505636
43	0x3c193f55	0.009353478
44	0xbcc44422	-0.02395827
45	0xbd82a443	-0.06378987
46	0xbd5970d0	-0.053086102
47	0x3de2efd3	0.11080899
48	0x3e1bd9f3	0.1521986
49	0x3d9df2c7	0.07712322
50	0x3d871bc3	0.06597092
51	0xbb11861c	-0.002220518
52	0x3af7f196	0.0018916603
53	0xbcfc86a1	-0.030825915
54	0xbcae708d	-0.021293903
55	0x3d544050	0.051819146
56	0x3b2d2429	0.0026419258
57	0x3dbb8bd0	0.091575265
58	0x3ba90cd2	0.005158999
59	0xbcd8519d	-0.026406104
60	0x3d0a3acd	0.033747483
61	0xbd35e496	-0.04440745
62	0xbd6d19cc	-0.05788593
63	0x3c81f2e7	0.015862895
64	0x3da01547	0.07816558
65	0x3c1a69bd	0.009424624
66	0xbd19a56c	-0.037511274
67	0x3be8ca0d	0.0071041645
68	0xbd4ecd84	-0.050488964
69	0xbcf1d7c7	-0.029521836
70	0x3e2095db	0.15682165
71	0xbcd71678	-0.026255831
72	0xbd027421	-0.03184903
73	0xbd0d3db6	-0.03448268
74	0x3d12d449	0.035846982
75	0x3b21e126	0.002470085
76	0xbd3c980d	-0.046043444
77	0x3a4664bb	0.00075681106
78	0xbc492b00	-0.012278318
79	0x3ce9e738	0.028552637
80	0x3d3b2970	0.045693815
81	0xbbb4f01f	-0.0055217887
82	0x3cc0c58b	0.023531696
83	0xbd10d5f4	-0.03536029
84	0xbd3dadf4	-0.046308473
85	0xbd29629d	-0.04135381
86	0x3cd227b6	0.025653701
87	0x3d61f7ac	0.05516784
88	0x3de4e82f	0.11177098
89	0x3ca9005c	0.020630054
90	0x3d029a1d	0.031885255
91	0xbd4554ed	-0.048176695
92	0xbd745904	-0.059655204
93	0xbc98c4f9	-0.018648611
94	0x3df20399	0.118170924
95	0x3e109e06	0.14122781
96	0xbd59b47e	-0.053150646
97	0x3c332aa3	0.010935458
98	0xbc88e465	-0.01671047
99	0xbcce98c3	-0.025219327
100	0x3d9cc6a5	0.07655076
101	0x3c81cbc7	0.015844239
102	0xbd2e89fa	-0.042612053
103	0x3dbd5132	0.092440024
104	0xbd662f5b	-0.056197505
105	0xbd16349a	-0.03667126
106	0x3d28f52a	0.04124943
107	0xbcbd07c2	-0.023074988
108	0xbd24f00a	-0.04026798
109	0xbc82dee8	-0.01597543
110	0x3ca3f241	0.020012977
111	0xbd189930	-0.037255466
112	0x3dc76b8d	0.097373106
113	0x3cabf564	0.020991035
114	0x3e241bd6	0.16026244
115	0x3d87950c	0.06620225
116	0x3de72991	0.11287225
117	0xbc6d0f1c	-0.014468934
118	0x3d6e518b	0.058183234
119	0x3cf79259	0.030221151
120	0xbbf67a59	-0.007521909
121	0x3d58a81c	0.052894697
122	0x3e2fc406	0.17164621
123	0x3dceb7ad	0.10093627
124	0x3d8a9e93	0.06768527
125	0xbd3ada42	-0.045618303
126	0x3d09aad5	0.033610184
127	0xbd7441a6	-0.05963292
128	0x3c59a7a2	0.013284596
129	0xbcec49a1	-0.028843703
130	0xbd56b01b	-0.05241404
131	0xbd1a37b5	-0.037650783
132	0x3e39a1f2	0.18128183
133	0xbc21d6c1	-0.0098778615
134	0x3cdedb28	0.027204111
135	0xbd31521c	-0.043291196
136	0x3d3def96	0.046371065
137	0x3dfc229d	0.123112895
138	0xbb066737	-0.0020508298
139	0xbb89528f	-0.00419075
140	0x3da2ff4a	0.07958849
141	0xbafc7cdf	-0.0019263289
142	0x3d13c860	0.036079764
143	0x3b7dfbd4	0.0038754838
144	0x3e1249ce	0.14285967
145	0x3b9852e8	0.004648555
146	0x3c953303	0.0182128
147	0x3d8b45b5	0.06800405
148	0x3ad600a0	0.001632709
149	0x3dc08f3b	0.09402319
150	0x3d8a26ad	0.06745658
151	0xbcac6a44	-0.021046765
152	0x3daf837d	0.08570001
153	0xbd35a6c0	-0.04434848
154	0x3dc33a2a	0.09532578
155	0xbd0722ba	-0.032992102
156	0x3894ff22	7.104712e-05
157	0x3d0dcad4	0.03461726
158	0xbc6b8766	-0.014375543
159	0xbd7aec35	-0.06126042
160	0x3d192c1b	0.037395578
161	0xbc7e97bd	-0.015539107
162	0x3cbdbbde	0.023160871
163	0x3d28f406	0.041248344
164	0x3d8b4a22	0.06801249
165	0x3d748a3c	0.059702143
166	0x3caa5418	0.020792052
167	0xbcbe30f3	-0.0232167
168	0x3da1dc21	0.079033144
169	0x3c89650b	0.016771814
170	0x3c230f23	0.009952339
171	0x3dfd0d7e	0.12356089
172	0xbd116614	-0.03549774
173	0xbc705e9c	-0.014670994
174	0x3db68aff	0.0891323
175	0x3cefe155	0.029282251
176	0x3de631cd	0.112399675
177	0x3cf731d3	0.030175125
178	0x3d1c2366	0.038119696
179	0x3dcf4f1f	0.10122513
180	0x3df731df	0.12070059
181	0xbcf9e3a1	-0.03050405
182	0xbd2742a3	-0.040835034
183	0xbcdad205	-0.026711473
184	0x3da8784b	0.08226069
185	0x3d0df6d5	0.034659225
186	0x3d4210c0	0.047379255
187	0x3d1856e1	0.03719223
188	0x3d090dba	0.033460356
189	0xbccf3930	-0.025295824
190	0x3c63bc36	0.013899853
191	0x3d3d8383	0.046267997
192	0x3cf88e44	0.030341275
193	0xbce09a80	-0.027417421
194	0xbd14d3b4	-0.03633471
195	0xbd71672f	-0.058936294
196	0x3ba1621a	0.0049250247
197	0x3c76c73c	0.01506215
198	0xbb863d4e	-0.0040966636
199	0xbc951a69	-0.01820107
200	0xbd5809f0	-0.052743852
201	0x3c8e27e1	0.017353
202	0x3e198e01	0.14995576
203	0x3d02b94a	0.031914987
204	0x3d94e8c9	0.07270963
205	0x3d326335	0.043551642
206	0xbd4bbe1e	-0.049741857
207	0x3d610c0a	0.054943122
208	0x3dc1a8cd	0.09456024
209	0xbd1c14a9	-0.03810564
210	0xbca1bb66	-0.019742679
211	0xbd23b1d3	-0.03996451
212	0xbcce9e3a	-0.025221933
213	0xbd2e414e	-0.04254275
214	0x3d1dcf7e	0.038527958
215	0x3b9c4442	0.004768879
216	0x3d4427ef	0.047889646
217	0x3cf4846a	0.029848296
218	0xbd5df960	-0.0541929
219	0x3dc09b79	0.09404654
220	0xbce60c14	-0.028081931
221	0x3cd92b10	0.026509792
222	0x3c983db7	0.018584115
223	0xbc68134f	-0.01416476
224	0x3d14292a	0.03617207
225	0xbbe360c4	-0.0069390256
226	0x3dbf3155	0.09335581
227	0x3c08a8eb	0.008341054
228	0xbca458fc	-0.020061962
229	0xbd814ac4	-0.063130885
230	0x3c9b8bcb	0.018987557
231	0xbd7214cc	-0.059101865
232	0x3ce47cb6	0.027891498
233	0x3e252262	0.16126397
234	0x3bfd3e2d	0.007728359
235	0x3d114e42	0.035475023
236	0xbc5742ff	-0.013138532
237	0x3ccaf995	0.024777213
238	0x3ca7b028	0.02046974
239	0x3c45c289	0.012070307
240	0xbb5b7059	-0.0033483712
241	0x3e1e2950	0.15445447
242	0x3d452d8d	0.048139144
243	0x3cd702f8	0.026246533
244	0x3cd7bd88	0.026335493
245	0xbd49b28a	-0.049242534
246	0x3d85d969	0.06535608
247	0xbd6c5ce1	-0.057705764
248	0x3d904a48	0.07045418
249	0xbcd5bc8f	-0.026090888
250	0x3d2693da	0.040668346
251	0x3dfcf7bc	0.12351939
252	0xbd8af319	-0.067846484
253	0x3c6befca	0.014400432
254	0x3d92d77e	0.07170008
255	0xbc39a036	-0.011329701

layers.9.weight f4 [480, 256]
0	0xbd048802	-0.03235627
1	0x3d282aed	0.041056562
2	0xbcc2486a	-0.02371617
3	0xbd3b7698	-0.045767397
4	0xbd147567	-0.036244776
5	0xbc8eb200	-0.017418861
6	0x3c9d7d78	0.019224867
7	0xbdb4eb6f	-0.08833968
8	0x3cf3d6fd	0.0297656
9	0xbd148f0e	-0.03626924
10	0x3c81a165	0.01582403
11	0x3c0dc9de	0.008654086
12	0x3c666ef5	0.01406454
13	0xbcf5de94	-0.03001336
14	0x3b981ab2	0.004641854
15	0x3d310e52	0.043226548
16	0xbd71591a	-0.058922864
17	0xbc5b2643	-0.0133758215
18	0x3c23a82b	0.009988825
19	0x3d81153c	0.06302878
20	0xbc302ebc	-0.01075333
21	0x3c443392	0.011975186
22	0xbb319391	-0.0027096013
23	0x3d2013a4	0.03908123
24	0xbc846d9b	-0.016165545
25	0xbd5dd9bf	-0.054162737
26	0x3cb4f37e	0.022088762
27	0xbd1b6002	-0.037933357
28	0xbd74ba3d	-0.059747923
29	0xbcf45c02	-0.029829029
30	0x3d7b3761	0.06133211
31	0xbc016a03	-0.00789881
32	0xbd243bac	-0.04009597
33	0x3d08b3b5	0.033374507
34	0x3c9cfbf7	0.019163115
35	0x3d1fdd84	0.039029613
36	0x3d639ddc	0.05557047
37	0x3ca19cb6	0.019728046
38	0xbc8d6f0c	-0.017264865
39	0xbcd4ef0a	-0.025992889
40	0x3d53c501	0.05170155
41	0xbcf5f535	-0.03002415
42	0x3c768f1a	0.0150487665
43	0xbd7f2ddc	-0.062299594
44	0x3b8cfcc0	0.004302591
45	0x3c937fd9	0.018005298
46	0xbd637db4	-0.0555398
47	0xbceb5957	-0.028729124
48	0xbd6ddea0	-0.05807364
49	0x3d31ff56	0.043456398
50	0x3cc8ef24	0.024528094
51	0x3bfaf228	0.007658262
52	0xbcd4f265	-0.025994489
53	0x3ce77079	0.028251873
54	0x3c4c87c1	0.012483538
55	0xbc30d245	-0.01079232
56	0xbcf34ac2	-0.029698733
57	0xbd822c9e	-0.06356166
58	0x3d337d89	0.04382089
59	0x3d73d568	0.059529692
60	0x3c143fa3	0.009048375
61	0x3cd0b4ec	0.025476895
62	0xbd379e31	-0.044828597
63	0xbc38dd91	-0.011283294
64	0xbd859d18	-0.06524104
65	0x3d35fccf	0.04443055
66	0x3ce53e1f	0.027983723
67	0x3cfbae09	0.030722635
68	0x3d77773b	0.06041644
69	0xbd2c2933	-0.042031478
70	0xb88034f6	-6.1133804e-05
71	0xbd51855b	-0.05115257
72	0x3d368eb3	0.044569682
73	0x3d451d5c	0.048123702
74	0xbcea304e	-0.028587487
75	0xbd837018	-0.064178646
76	0xbc917ca7	-0.017759634
77	0xbd614c45	-0.055004377
78	0xbd534b0a	-0.051585235
79	0xbcc2bd3d	-0.023771876
80	0x3cc28ba3	0.023748225
81	0x3d2ded3b	0.04246257
82	0x3d5d15ce	0.053975873
83	0x3d5e9160	0.05433786
84	0xbcaf86e5	-0.021426627
85	0xb9a08532	-0.00030616816
86	0xbd3ade79	-0.045622323
87	0xbd24909c	-0.040176973
88	0x3ce8f4b7	0.028437002
89	0xbd93b2ef	-0.07211863
90	0x3c48541e	0.012227086
91	0xbd7571f9	-0.059923146
92	0xbd34b6af	-0.044119533
93	0x3d8893dd	0.06668828
94	0x3bb03663	0.005377577
95	0x3c92e5d8	0.017931864
96	0x3d21af57	0.039473858
97	0x3d06c9ba	0.032907225
98	0x3d7cf32e	0.06175535
99	0x3d3d7fe9	0.046264563
100	0xbd14097b	-0.036141854
101	0xbd1f835f	-0.038943645
102	0xbd0c0401	-0.034183506
103	0xbcf903b0	-0.030397266
104	0x3cfaa70e	0.030597236
105	0xbbf85c32	-0.00757935
106	0x3cbedbdb	0.023298195
107	0x3d0a8008	0.033813506
108	0x3cb678f8	0.02227448
109	0xbaaf66d9	-0.0013382091
110	0x3d01aea7	0.031660702
111	0xbd5602bd	-0.052248705
112	0x3cddf4ac	0.027094208
113	0xbcb65f16	-0.022262137
114	0xbda34da3	-0.079737924
115	0xbd25e9e2	-0.04050625
116	0xbcd5f140	-0.026116014
117	0xbd276422	-0.04086698
118	0xbcb8a5ee	-0.022540059
119	0xbd4d4914	-0.05011852
120	0xbcfba72d	-0.030719364
121	0x3d374ea5	0.044752736
122	0xbd144ed8	-0.036208004
123	0xbd208e2c	-0.039198086
124	0x3d634c9e	0.05549299
125	0xbd147698	-0.036245912
126	0xbd716230	-0.05893153
127	0x3c89171f	0.016734658
128	0xbd08032e	-0.033206157
129	0xbcf3162d	-0.02967366
130	0x3d0f016b	0.03491346
131	0x3d77f863	0.060539614
132	0x3b4fe823	0.0031724058
133	0xbd02f44c	-0.03197126
134	0xbc80ce6e	-0.015723433
135	0x3c1537d0	0.009107545
136	0x3cc46cd2	0.02397767
137	0xbd3999a6	-0.045312546
138	0xbd1acaad	-0.037790943
139	0x3d163cd9	0.036679123
140	0xbd472c95	-0.0486265
141	0xbd43f02f	-0.04783648
142	0xbafb5882	-0.0019176158
143	0x3d20de88	0.039274722
144	0x3b66acb6	0.0035198159
145	0x3d002dae	0.031293564
146	0xbd648df7	-0.05579945
147	0xbbd847b2	-0.0066003436
148	0x3d5f49d7	0.05451378
149	0xbcf0ad46	-0.029379498
150	0x3c1be999	0.009516143
151	0xbc40bd73	-0.011763918
152	0xbcd10340	-0.025514245
153	0x39801aa4	0.0002443391
154	0xbd9cfecb	-0.076657854
155	0xbd5fedbf	-0.05467009
156	0xbd570e76	-0.052504025
157	0xbb36c536	-0.0027888543
158	0x3b07ce96	0.00207225
159	0xbc40ea09	-0.011774548
160	0x3d2651cf	0.040605363
161	0xbd68398c	-0.056695506
162	0xbd46cd54	-0.04853566
163	0x3d09ce41	0.033643965
164	0xbd54d55b	-0.051961284
165	0xbcf26bd9	-0.029592441
166	0xbd260e99	-0.040541265
167	0x3d1b6b03	0.03794385
168	0x3d88b0f8	0.06674379
169	0xbc9148e9	-0.017734962
170	0x3d066203	0.032808315
171	0x3c6211b1	0.013798163
172	0xbd06cdc3	-0.032911073
173	0x3c82a724	0.01594884
174	0xbd011da4	-0.031522408
175	0x3b319cd2	0.0027101529
176	0xbda370f9	-0.07980532
177	0xbd924a6b	-0.071431
178	0xbc4b170e	-0.012395633
179	0xbda01fc2	-0.07818557
180	0xbd708203	-0.05871774
181	0x3d1c92e5	0.038226027
182	0x3cbbfc9a	0.022947598
183	0x3a002263	0.00048879365
184	0xbc455d32	-0.012046145
185	0xbd2ff75e	-0.042960517
186	0xbbea287d	-0.00714594
187	0xbbb98d58	-0.0056626014
188	0xbd773d72	-0.060361333
189	0x3c9ae98e	0.018910196
190	0x3cc330e2	0.02382702
191	0x3c9ef9c7	0.019406212
192	0x3d2dabc2	0.04240013
193	0xbc5053aa	-0.01271526
194	0x3d5a8688	0.053350955
195	0x3d66afcd	0.05632
196	0xbc622e0c	-0.013804924
197	0x3d51c806	0.051216148
198	0x3ba69a9d	0.0050843493
199	0x3cdcbf98	0.026946828
200	0xbcc7b76f	-0.02437946
201	0xbc2559a7	-0.010092176
202	0xbd6a75cc	-0.057241246
203	0x3d7de135	0.061982352
204	0x3b3dc5e4	0.0028957063
205	0xbc0649f8	-0.008196346
206	0x3d2d8fa6	0.042373322
207	0xbd837ff8	-0.064208925
208	0xb9c6d62f	-0.00037925082
209	0x3b7a997e	0.003823846
210	0x3d454850	0.048164666
211	0xbcce521e	-0.02518564
212	0x3be9b8e1	0.007132635
213	0x3cc130fe	0.023582932
214	0xbc91defe	-0.017806526
215	0x3c7540fe	0.014969109
216	0xbc3cb480	-0.011517644
217	0x3d16f3e1	0.036853675
218	0x3ca047ab	0.019565424
219	0x3bc7ef52	0.0061015273
220	0xbc900048	-0.01757826
221	0xbd0be359	-0.034152362
222	0x3b60d760	0.003430806
223	0xbd53c884	-0.0517049
224	0x3b0816f6	0.002076564
225	0x3b96dbb5	0.004603828
226	0x3cab921b	0.020943692
227	0x3d0632a5	0.032763142
228	0xbc8a5e05	-0.016890535
229	0x3d555bad	0.052089382
230	0xbd0aea39	-0.03391478
231	0x3d16dfb4	0.036834434
232	0xbce5b92c	-0.028042398
233	0xbbee4538	-0.007271435
234	0xbcdc27e0	-0.026874483
235	0x3b0603df	0.0020449085
236	0xbcc219ea	-0.023693997
237	0xba30b186	-0.000674032
238	0x3cdd3cb5	0.027006486
239	0xbd0e782a	-0.034782566
240	0xba86ac36	-0.0010274712
241	0x3cbe98de	0.023266252
242	0x3c7c9170	0.015415534
243	0x3d0a9178	0.033830136
244	0x3ce82b9d	0.028341109
245	0x3d8803c0	0.0664134
246	0xbca3ddfb	-0.02000331
247	0xbc969c7d	-0.018385166
248	0xbc9a21a7	-0.018814875
249	0xbcb7ca30	-0.022435278
250	0x3ccc2359	0.024919199
251	0xbcef9cf1	-0.02924964
252	0x3cd19569	0.02558394
253	0x3d42fb0f	0.04760271
254	0x3ceee868	0.029163554
255	0x3d5590a6	0.0521399
