checkpoints/checkpoint_epoch_40.pt (torch, 895184 bytes, 8 tensors)

layers.0.weight f4 [128, 4]
0	0x3e9741e2	0.29542452
1	0x3e0a7b60	0.13523626
2	0xbd54e6f7	-0.051978078
3	0x3da3f4a5	0.080056466
4	0x3e1ac133	0.15112762
5	0x3d68ee89	0.05686811
6	0x3e066813	0.13125639
7	0xbea2d834	-0.31805575
8	0x3e356fc9	0.17718424
9	0xbec5d191	-0.3863645
10	0x3ea8d3e6	0.32974166
11	0xbeab08bd	-0.33405104
12	0xbf000c48	-0.5001874
13	0xbd91217e	-0.07086466
14	0xbe28089a	-0.16409531
15	0xbc94756e	-0.018122401
16	0xbee857fd	-0.4537963
17	0xbe71ea14	-0.2362445
18	0x3ee478ab	0.44623312
19	0xbddcef70	-0.107878566
20	0x3ec0dc3c	0.37668025
21	0xbebccc80	-0.3687477
22	0x3e579f4a	0.21056858
23	0xbdc03411	-0.09384931
24	0xbf01a5e9	-0.50643784
25	0x3de2db1f	0.1107695
26	0xbe550f29	-0.20806564
27	0x3ddbcf7a	0.107329324
28	0x3ea33fd9	0.3188465
29	0xbced6da1	-0.02898294
30	0x3ec6cd2c	0.3882841
31	0x3e13205c	0.14367813
32	0xbd3ed61b	-0.046590906
33	0xbe3ad688	-0.182459
34	0x3eb7b3d2	0.3587938
35	0x3e58932a	0.21149889
36	0xbf0d504c	-0.5520065
37	0xbed566a5	-0.41679874
38	0xbbe89ebc	-0.0070990007
39	0x3e663cab	0.2248408
40	0xbcf456c1	-0.029826524
41	0x3efa7dc1	0.48924068
42	0x3e0631fc	0.13105005
43	0xbe3b8715	-0.18313248
44	0xbe20bbea	-0.15696684
45	0x3e895031	0.26818994
46	0xbeb092bd	-0.34486952
47	0xbebeb83c	-0.37249935
48	0x3dc5724f	0.09640943
49	0xbe58049d	-0.2109551
50	0x3e66ca74	0.22538167
51	0x3e2d0f1e	0.16900298
52	0xbd86a321	-0.06574083
53	0x3ee1f35e	0.44130987
54	0x3ec3137e	0.3810081
55	0xbeb52755	-0.3538157
56	0x3f004dbf	0.5011863
57	0x3c4be500	0.012444735
58	0xbeea5e58	-0.45775104
59	0x3e2931c3	0.16522889
60	0x3e993404	0.29922497
61	0x3ea4c7d3	0.32183704
62	0xbeca233c	-0.39480007
63	0xbef97c00	-0.48727417
64	0xbe813326	-0.25234336
65	0xbd19b367	-0.037524607
66	0xbd54ba0e	-0.051935248
67	0xbda44103	-0.080202125
68	0xbe78ddb0	-0.24303317
69	0x3eb2d11a	0.34925157
70	0xbef52050	-0.47876215
71	0xbebbec68	-0.367038
72	0xbeaee4f3	-0.3415905
73	0x3ed24f99	0.41076353
74	0xbef17da5	-0.47166172
75	0xbed4166b	-0.41423354
76	0x3e14b21b	0.14521067
77	0x3bfee42e	0.007778666
78	0x3efb5c89	0.49094036
79	0xbeafd7c3	-0.343443
80	0xbee29bad	-0.44259396
81	0xbe340abe	-0.17582223
82	0x3ee824a6	0.4534046
83	0x3ea4c77e	0.3218345
84	0xbec10f00	-0.37706757
85	0x3eb1b43c	0.3470782
86	0xbe307a22	-0.1723409
87	0x3eef0091	0.4668012
88	0x3e856a9e	0.26057905
89	0xbd2257fd	-0.039634693
90	0x3ee4ab97	0.44662163
91	0xbe1ab1de	-0.15106913
92	0xbf01c347	-0.50688595
93	0xbee39536	-0.44449776
94	0xbd901f34	-0.070372015
95	0xbe271e13	-0.16320066
96	0xbdc34b71	-0.09535874
97	0xbed4df7b	-0.41576752
98	0xbea78512	-0.32718712
99	0xbc7ceeec	-0.015437823
100	0x3e56e5df	0.20986126
101	0x3c94f4f4	0.018183209
102	0xbeb9a151	-0.36255887
103	0x3e3e5716	0.18587908
104	0x3e74c050	0.23901486
105	0xbd757ce9	-0.059933577
106	0x3d95df0b	0.07317933
107	0x3e03fdca	0.12889782
108	0xbe8a9143	-0.2706395
109	0x3e20c635	0.1570061
110	0xbe02d53c	-0.12776655
111	0xbe93b8b2	-0.2885185
112	0x3ebcd881	0.3688393
113	0x3c40b21d	0.0117612155
114	0xbedf9f56	-0.4367625
115	0x3eb5a597	0.35477898
116	0x3d4d6dda	0.05015359
117	0x3eae1694	0.340016
118	0x3dd9cc57	0.10634678
119	0xbee36dbd	-0.4441966
120	0xbe56f02c	-0.20990056
121	0xbe25cc3f	-0.16191195
122	0x3ebf9f6a	0.3742631
123	0xbe0987db	-0.13430731
124	0xbd3c18e3	-0.04592217
125	0xbeb172d4	-0.3465792
126	0xbe13400d	-0.14379902
127	0x3e3fad68	0.18718493
128	0x3ec5c759	0.38628653
129	0xbea5449a	-0.322789
130	0xbe6e40fa	-0.23266974
131	0xbe888013	-0.26660213
132	0xbd87b99a	-0.066271976
133	0x3dfbf02c	0.123016685
134	0x3de0da8d	0.10979185
135	0x3dacabb3	0.084311865
136	0x3dfbab46	0.12288527
137	0xbe88a99f	-0.2669191
138	0xbe54c598	-0.20778501
139	0x3ed79356	0.42104596
140	0xbec2de35	-0.38060156
141	0xbc501616	-0.012700578
142	0x3ee030f7	0.43787357
143	0x3e77d4d2	0.24202278
144	0xbeb19757	-0.34685776
145	0x3ea2b7f5	0.31780973
146	0x3d4e97aa	0.050437607
147	0x3e6dd18a	0.23224464
148	0x3e34c84d	0.17654534
149	0xbeb44632	-0.35209805
150	0xbea37307	-0.31923696
151	0xbea1bf23	-0.31591138
152	0x3e0c0dc1	0.13677122
153	0xbdf351d9	-0.118808456
154	0x3d8f7d08	0.0700627
155	0x3ee5f80e	0.44915813
156	0xbd451f4f	-0.04812556
157	0x3d1fa5ea	0.038976587
158	0x3a5a49d7	0.0008327043
159	0x3ebc0f96	0.3673064
160	0xbf0144a2	-0.5049535
161	0xbd493f6a	-0.049132742
162	0xbea2ee6b	-0.31822523
163	0x3e7e6c92	0.24846104
164	0xbe1de9fb	-0.15421288
165	0x3e4124d7	0.1886171
166	0xbe82ce6f	-0.2554812
167	0xbe4f68a8	-0.20254767
168	0xbccc39cc	-0.024929903
169	0xbedabaff	-0.42720792
170	0x3d5c2092	0.053742
171	0xbd9768cb	-0.073930345
172	0x3ef7e017	0.48413154
173	0xbedfbd1e	-0.43698972
174	0xbe9b226c	-0.302997
175	0xbdf9f901	-0.12205697
176	0xbe30b3d6	-0.17256102
177	0x3e1a148f	0.15046905
178	0x3e9a99bb	0.30195412
179	0xbebe23c8	-0.37136674
180	0x3f01cef9	0.5070644
181	0x3e9ba76f	0.3040118
182	0x3da4d550	0.08048499
183	0xbd9ae1d0	-0.075626016
184	0x3ebcd17b	0.3687857
185	0x3e35dda8	0.17760336
186	0x3ee2663e	0.4421863
187	0xbd214938	-0.039376467
188	0xbe15e4e0	-0.1463809
189	0x3eff13ef	0.49819896
190	0xbe1b6b61	-0.1517768
191	0xbe4735af	-0.19454072
192	0xbecf71ff	-0.4051666
193	0xbeb58890	-0.3545575
194	0xbe5ac836	-0.21365437
195	0x3dd63cf2	0.10460843
196	0x3ef08503	0.4697648
197	0x3d8c8216	0.068607494
198	0xbe90a5a1	-0.28251365
199	0xbb042b16	-0.0020167283
200	0x3dd0ad04	0.1018925
201	0x3e9b280a	0.30303985
202	0x3e15a341	0.14613058
203	0x3ec92d29	0.39292267
204	0xbe930a11	-0.28718618
205	0xbe191404	-0.14949042
206	0x3df5584d	0.11979733
207	0xbe2ed527	-0.17073499
208	0xbeef425e	-0.46730322
209	0xbdbaf576	-0.09128849
210	0x3ef92507	0.48661062
211	0xbec3f31d	-0.38271418
212	0x3d102929	0.035195503
213	0xbede0482	-0.43362814
214	0x3ee5ca86	0.44881076
215	0xbedc402e	-0.43017715
216	0x3dd930ee	0.10605036
217	0x3ec6e873	0.3884922
218	0xbd7da030	-0.061920345
219	0x3ea559ee	0.32295173
220	0x3d970e41	0.073757656
221	0xbe838fce	-0.25695652
222	0x3c9bc0df	0.019012867
223	0x3e6574d5	0.22407849
224	0xbefa3f09	-0.48876217
225	0xbde961ee	-0.11395632
226	0xbedc1662	-0.42985827
227	0x3e902cbf	0.2815914
228	0x3d955e71	0.07293404
229	0xbecb15ea	-0.39665157
230	0xbedcc315	-0.43117586
231	0xbe9ca16a	-0.305919
232	0xbf16d8f3	-0.5892479
233	0x3e64347e	0.22285649
234	0xbed39629	-0.413255
235	0xbee59b03	-0.44844827
236	0xbe363bea	-0.17796293
237	0x3e9b79e8	0.30366445
238	0xbced1875	-0.028942326
239	0x3e8d9d39	0.27659014
240	0x3e4b0ecc	0.19829863
241	0x3ed6e93e	0.41974825
242	0xbeff88cc	-0.49909055
243	0xbca55433	-0.02018175
244	0x3ea2a4ca	0.3176635
245	0x3ef46e87	0.47740576
246	0x3db9231f	0.09039902
247	0x3d0397a2	0.03212703
248	0x3ea94172	0.33057743
249	0x3d9f7599	0.07786102
250	0xbe53c58e	-0.2068083
251	0xbdd12d4b	-0.10213717
252	0xbd503b0a	-0.050837554
253	0xbc1f9185	-0.009739284
254	0x3ea45857	0.32098648
255	0x3ebeccd7	0.37265655

layers.0.bias f4 [128]
0	0xbef2f1d3	-0.47450122
1	0x3e96033b	0.2929934
2	0xbd18836e	-0.037234716
3	0x3dc969df	0.098346464
4	0xbeeab466	-0.45840758
5	0xbd26acd8	-0.04069218
6	0x3c7591b7	0.014988354
7	0xbdbb30f1	-0.09140194
8	0x3e855ce8	0.26047444
9	0x3dc97859	0.098374076
10	0xbe1635e7	-0.14669
11	0xbe416669	-0.18886723
12	0x3e9965cb	0.29960474
13	0xbea3139d	-0.318509
14	0xbeb9c06f	-0.36279628
15	0xbed07bd7	-0.40719482
16	0xbed1eb92	-0.41000038
17	0x3ecbd55f	0.39811227
18	0xbe842630	-0.25810385
19	0x3dec50ce	0.1153885
20	0xbeaed5bd	-0.34147444
21	0xbc62a357	-0.013832889
22	0xbeb6a99e	-0.35676283
23	0x3dda3fc0	0.106566906
24	0xbee613e2	-0.44937044
25	0xbea2cd77	-0.31797382
26	0x3eaf9bf7	0.3429868
27	0xbd54e80c	-0.05197911
28	0x3e8dc8bf	0.2769222
29	0x3e8c1aa9	0.2736409
30	0x3e9b9faa	0.30395252
31	0xbece1774	-0.40252268
32	0xbdbe15c5	-0.09281496
33	0x3ea238f0	0.31684065
34	0xbd63380f	-0.055473384
35	0xbe906517	-0.28202125
36	0x3ea64ef0	0.324821
37	0xbed6c7cd	-0.4194931
38	0x3ee40954	0.44538367
39	0xbebf5934	-0.37372744
40	0x3ecfd424	0.40591538
41	0x3dc2af93	0.095061444
42	0x3f0093a2	0.5022527
43	0xbeeafd94	-0.4589659
44	0xbef8a081	-0.48559955
45	0xbc83201d	-0.016006524
46	0xbef60a19	-0.4805458
47	0xbe6940df	-0.22778653
48	0xbc46b6aa	-0.012128511
49	0x3efb5868	0.49090886
50	0x3e59f198	0.21283567
51	0x3eebc313	0.46047267
52	0x3e426e6f	0.1898744
53	0xbeec5507	-0.4615862
54	0x3e0347e3	0.12820391
55	0x3eaf67f7	0.34259006
56	0x3d9b1478	0.075722635
57	0x3e311fab	0.17297237
58	0x3acfc452	0.0015851355
59	0x3ef162b0	0.47145605
60	0xbea17b93	-0.31539592
61	0xbe0ffdd1	-0.14061667
62	0x3e7842d7	0.24244247
63	0x3ed1a20b	0.4094394
64	0x3e770ab1	0.24125172
65	0x3eee2f55	0.46520486
66	0x3eeb2b86	0.45931643
67	0x3f00be71	0.5029059
68	0x3d1b7d95	0.03796156
69	0x3e419da5	0.18907793
70	0x3f07f013	0.531007
71	0x3daa4c17	0.08315294
72	0xbed4f36d	-0.4159197
73	0xbe2d7554	-0.16939288
74	0xbe26387e	-0.16232488
75	0x3ef65553	0.48111972
76	0x3ed33366	0.4125015
77	0xbec354f7	-0.3815076
78	0x3ed37bab	0.4130529
79	0x3ee10de2	0.43955904
80	0x3f0e21c5	0.5552028
81	0x3e05d5f6	0.13069901
82	0x3e82d38c	0.25552022
83	0xbdd9c72f	-0.106336944
84	0x3e64ee4d	0.2235653
85	0x3e535dbe	0.20641229
86	0x3e49fc4b	0.19725148
87	0xbeb1caad	-0.34724942
88	0x3e1a9382	0.15095332
89	0xbe906cb1	-0.28207925
90	0x3d888b51	0.066671975
91	0xbecc259d	-0.39872447
92	0x3ef49785	0.4777185
93	0x3dba63de	0.091010794
94	0x3ec60e19	0.3868263
95	0x3e5b17a5	0.21395738
96	0x3b1f1bbf	0.0024278013
97	0x3f035d3c	0.5131414
98	0x3d8eaad7	0.06966179
99	0xbdcf3b96	-0.10118787
100	0x3eb56816	0.35430974
101	0x3d73890b	0.059456866
102	0xbef50ef0	-0.4786296
103	0xbddcc7e6	-0.10780315
104	0x3ef16c93	0.47153148
105	0x3ee754c0	0.45181847
106	0x3cb111a9	0.021614866
107	0x3edba719	0.42900923
108	0xbe832a86	-0.2561838
109	0x3ec01751	0.3751779
110	0x3e8dffef	0.27734324
111	0xbe4fd6af	-0.20296739
112	0xbcb30e49	-0.021857398
113	0x3d9afb32	0.07567443
114	0xbe3171bc	-0.17328542
115	0xbe28a61a	-0.16469613
116	0xbe0fb94f	-0.14035533
117	0xbeae60af	-0.3405814
118	0x3e9dfea8	0.3085835
119	0x3dc7bbec	0.0975264
120	0x3dce24a6	0.10065584
121	0x3ed48276	0.41505784
122	0xbed604cf	-0.41800544
123	0xbe01143e	-0.12605378
124	0xbee90a0c	-0.45515478
125	0xbee9ab55	-0.45638528
126	0xbe137d4f	-0.1440327
127	0x3ea85718	0.32878947

layers.3.weight f4 [256, 128]
0	0xbd3ea566	-0.046544455
1	0x3bf93361	0.007605002
2	0xbdad58c1	-0.08464194
3	0xbd85ccfc	-0.06533238
4	0x3c6e2c87	0.014536983
5	0x3c41c181	0.01182592
6	0x3ce42f8b	0.027854702
7	0xbda09e5b	-0.07842704
8	0x3dc309cc	0.09523353
9	0xbda6ad5d	-0.08138535
10	0xbd895c45	-0.06707052
11	0xbd1381a9	-0.036012325
12	0xbc8b39f0	-0.0169954
13	0xbd4f979f	-0.050681707
14	0x3da9e4f4	0.082956225
15	0xbca04785	-0.019565353
16	0x3c3d3dda	0.011550391
17	0x3d981d0a	0.07427414
18	0xbb1bdd14	-0.0023782896
19	0x3c0d6348	0.0086296275
20	0xbd57c25b	-0.052675586
21	0xbb706cdd	-0.0036685981
22	0x3cedc328	0.029023722
23	0xbdb3e0a7	-0.087830834
24	0x3d3de023	0.04635633
25	0x3d0f613d	0.035004843
26	0x3c7abe4c	0.015304159
27	0xbd437d51	-0.047726933
28	0xbd37350a	-0.044728316
29	0xbd91498b	-0.07094105
30	0x3d2dc50f	0.042424258
31	0x3b0b33c0	0.0021240562
32	0x3d74143e	0.059589617
33	0xbd66e311	-0.05636889
34	0xbc3f6ca0	-0.011683613
35	0xbd9bb9f3	-0.076038264
36	0xbd6dbb1a	-0.058039762
37	0x3d6a2ba4	0.057170525
38	0x3d8c15e6	0.06840114
39	0x3cfd4266	0.03091545
40	0xbd3ede2b	-0.046598595
41	0xbd642b7b	-0.05570553
42	0x3cbe6cf6	0.023245316
43	0x3d95e218	0.073185146
44	0x3d85c3a6	0.065314576
45	0xbd128838	-0.03577444
46	0xbcf8ddf1	-0.030379267
47	0xbd6dcaec	-0.05805485
48	0x3d91bee0	0.07116485
49	0x3dd98d4d	0.10622654
50	0x3c5d65ef	0.013513072
51	0x3d43e331	0.04782409
52	0xbd2bdb1a	-0.041957
53	0x3d87b71c	0.06626722
54	0x3d16aae9	0.036784086
55	0xbb77478c	-0.0037731854
56	0xbd56e1f8	-0.052461594
57	0xbd124d14	-0.03571804
58	0xbdbaf576	-0.09128849
59	0x3cb634cf	0.022241978
60	0xbc401c96	-0.011725565
61	0xbc3aaf13	-0.01139428
62	0xbd00d2aa	-0.031450905
63	0x3d4614ff	0.048359867
64	0xbca2ff58	-0.019897148
65	0x3db06824	0.08613613
66	0x3de14a96	0.11000554
67	0x3db1df6a	0.08685191
68	0xbca8641c	-0.020555548
69	0xbd63cfce	-0.0556181
70	0xbc5e2556	-0.013558706
71	0xb6c7e085	-5.9567997e-06
72	0x3d0bcd44	0.034131303
73	0xbd99a83c	-0.07502791
74	0x3d94ed8b	0.0727187
75	0x3da696df	0.08134245
76	0xbb3759af	-0.002797704
77	0xbcb78581	-0.022402527
78	0x3db3685d	0.0876014
79	0x3c3adde0	0.011405438
80	0x3d60c749	0.054877553
81	0xbcb0a8fa	-0.02156495
82	0xbd4ca6ea	-0.04996387
83	0xbda8f0ea	-0.08249076
84	0xbd3d78ed	-0.046257902
85	0xbd958e3a	-0.07302518
86	0x3ca14652	0.019686852
87	0x3d9f01ea	0.07764037
88	0x3d890ce1	0.066919096
89	0xbd34a4e8	-0.04410258
90	0x3d350ede	0.04420363
91	0x3cf073c9	0.029352086
92	0x3dab8302	0.08374597
93	0x3d3e0c3b	0.046398383
94	0x3dae8800	0.08522034
95	0x3d810373	0.06299486
96	0xbc3b8e96	-0.011447569
97	0x3c39fb7f	0.011351465
98	0x3c06493a	0.0081961695
99	0xbc94f1b5	-0.018181661
100	0x3d58d9d6	0.05294212
101	0x3d5f17bc	0.054465994
102	0xbd984545	-0.07435087
103	0xbcb1eee5	-0.02172036
104	0xbc575f09	-0.013145217
105	0xbbfab7f3	-0.007651323
106	0x3c90c6a3	0.017672842
107	0xbbfd4641	-0.007729322
108	0xbca61039	-0.020271407
109	0xbcd66132	-0.026169393
110	0x3d2a59ef	0.041589674
111	0xbcf0fdf7	-0.029417975
112	0xbdaa4151	-0.08313239
113	0x3c7e3e7c	0.015517827
114	0x3c2a47c4	0.010393087
115	0xbd8992ac	-0.067174286
116	0x3ca51c43	0.020155078
117	0xbdb28d7f	-0.087183945
118	0x3db0d5db	0.0863454
119	0x3cdfa035	0.027298072
120	0x3c221ac1	0.009894074
121	0x3d844d39	0.064600416
122	0x3c812ae1	0.015767517
123	0xbd712941	-0.058877233
124	0xbd282c74	-0.04105802
125	0x3ce6723d	0.028130645
126	0xbca84e76	-0.020545226
127	0x3cf0c2b8	0.029389724
128	0x3d77ec42	0.060528047
129	0x3d28dc19	0.041225526
130	0xbcae304b	-0.021263262
131	0xbcbd9436	-0.023141962
132	0xbd7b9383	-0.061419975
133	0xbd351236	-0.04420682
134	0xbd390e4b	-0.045179646
135	0x3d927002	0.0715027
136	0xbd0b727c	-0.034044728
137	0xbd069e4b	-0.032865804
138	0x3d8d57da	0.06901522
139	0xbd74aa23	-0.059732568
140	0x3d910d98	0.07082671
141	0x3c536a73	0.012903797
142	0xbb30ce88	-0.002697857
143	0xbd6f536e	-0.058429174
144	0xbdaedbb8	-0.08538002
145	0x3d019966	0.031640433
146	0xbda7ea02	-0.0819893
147	0x3db5db63	0.08879735
148	0xbc6b0788	-0.014345057
149	0xbd86dc01	-0.06584931
150	0xba897786	-0.0010487891
151	0x3c813be3	0.015775627
152	0xbd8a7ca5	-0.06762055
153	0xbd94489f	-0.07240414
154	0xbcb14074	-0.021637179
155	0xbd232aad	-0.03983562
156	0x3dd9bf24	0.1063216
157	0x3d171b91	0.036891524
158	0xbd2e3961	-0.04253519
159	0xbdb2063c	-0.08692595
160	0xbdaad765	-0.083418645
161	0x3d453b41	0.048152212
162	0x3d009d35	0.031399924
163	0xbd83852d	-0.06421886
164	0x3c7913e2	0.015202494
165	0xbd4c700b	-0.04991154
166	0x3db6ae77	0.08919995
167	0x3d677e10	0.056516707
168	0xbd620cf5	-0.055188138
169	0x3b8036f8	0.003912803
170	0x3d917b7a	0.071036294
171	0xbd91de15	-0.07122437
172	0xbd2ef123	-0.042710435
173	0xbd291376	-0.041278325
174	0x3d3c206d	0.04592936
175	0xbd8fd8bc	-0.07023761
176	0xbcdd4e6b	-0.027014932
177	0x3cffe44a	0.031236786
178	0x3d843af8	0.0645656
179	0xbc0600ad	-0.008178872
180	0xbceb63e7	-0.02873416
181	0xbb8b2c9b	-0.0042472607
182	0xbd92acf6	-0.07161896
183	0xbc9244ec	-0.01785513
184	0xbd45b1f6	-0.04826542
185	0x3db0e6fe	0.08637808
186	0x3c46984f	0.012121274
187	0x3dd7ee09	0.105434485
188	0xbcecd4b4	-0.028910019
189	0x3d08f800	0.033439636
190	0x3ca1a4fa	0.019731987
191	0xbbdabdeb	-0.006675472
192	0xbc1b9da3	-0.009498033
193	0xbd2b68cc	-0.04184799
194	0x3d7fc551	0.062444035
195	0x39813069	0.00024640866
196	0xbdb643a6	-0.08899622
197	0xbd687b8f	-0.05675846
198	0x3c106508	0.00881315
199	0xbce01fdb	-0.02735894
200	0xbc5d884f	-0.013521268
201	0xbc1c46af	-0.009538337
202	0xbd147733	-0.03624649
203	0x3db31ae7	0.087453656
204	0xbd1d8ee3	-0.038466346
205	0xbca6d492	-0.020365033
206	0x3d6e3bfb	0.05816267
207	0x3dc01b39	0.09380192
208	0x3ca693b7	0.020334108
209	0x3cdb187d	0.026745075
210	0x3d30dbdf	0.043178435
211	0xbdb9e530	-0.09076917
212	0x3d99dda8	0.07512981
213	0xbd0b9c8c	-0.03408484
214	0x3d14063c	0.036138758
215	0xbd1037ed	-0.035209585
216	0x3c989383	0.018625027
217	0xbd741d94	-0.05959852
218	0xbd920f3f	-0.07131814
219	0x3af500d6	0.0018692266
220	0x3d328a08	0.043588668
221	0xbc58797c	-0.013212558
222	0xbc68b623	-0.014203581
223	0x3cc99262	0.024605934
224	0xbd4c44a7	-0.04987016
225	0x3a234ab2	0.0006229087
226	0xbc4d988a	-0.012548575
227	0x3d946a93	0.0724689
228	0x3dc951d6	0.09830062
229	0xbda1ea0c	-0.07905969
230	0xbcad17b8	-0.021129474
231	0x3d538948	0.051644593
232	0x3b2d5d60	0.002645336
233	0x3db0bf15	0.08630196
234	0xbcdc8351	-0.026918085
235	0x3d2dd2d5	0.042437393
236	0xbdabcc76	-0.08388607
237	0xbd42cedc	-0.047560558
238	0x3c9f0fbe	0.019416686
239	0xbd9e21d0	-0.07721293
240	0xbda9464e	-0.08265363
241	0xbd875ee0	-0.06609893
242	0x3b610083	0.003433258
243	0x3d460a0c	0.048349425
244	0xbd62c090	-0.055359423
245	0xbd937a12	-0.072010174
246	0x3b38155e	0.0028088908
247	0x3d1d1d43	0.038357984
248	0x3d56100f	0.05226141
249	0xbc69caeb	-0.014269571
250	0x3ca0f5e7	0.019648505
251	0x3d372496	0.044712625
252	0x3d8b6210	0.06805813
253	0xbd560994	-0.05225523
254	0x3d1243df	0.03570926
255	0xbca17900	-0.019711018

layers.3.bias f4 [256]
0	0x3d24b132	0.04020805
1	0xbcce32dd	-0.025170738
2	0xbcb2ca0c	-0.02182486
3	0xbd8c4380	-0.06848812
4	0xba9c336b	-0.0011917179
5	0x3dedd532	0.116129294
6	0x3de9c91f	0.11415314
7	0x3d4d952a	0.050191082
8	0x3bbbd71f	0.0057324315
9	0xbd8d33d2	-0.068946496
10	0xbd9eac00	-0.0774765
11	0x3ca19d14	0.019728221
12	0x3dd26daf	0.10274827
13	0x3d9c6457	0.07636326
14	0xbda5edc9	-0.081019945
15	0x3dabe9ef	0.08394229
16	0xbccc1ab6	-0.02491508
17	0x3d84f747	0.06492477
18	0x3d7a1477	0.061054673
19	0xbd42f008	-0.047592193
20	0xbdb3efab	-0.087859474
21	0x3d9999f2	0.07500066
22	0x3de683d4	0.11255613
23	0x3c8fb0d2	0.01754037
24	0x3dc57816	0.09642045
25	0x3db16b01	0.086629875
26	0x3cea6632	0.028613184
27	0x3b8c5bc0	0.0042833984
28	0x3d18dc70	0.0373196
29	0x3e0a3d63	0.1349998
30	0xbda0efa1	-0.078582056
31	0x3dabacb9	0.083825536
32	0x3e14446a	0.14479223
33	0xbb2dc5a1	-0.00265155
34	0x3d872cb4	0.06600323
35	0x3df77f5d	0.120848395
36	0x3d637b06	0.055537246
37	0xbabf7986	-0.001460836
38	0x3e09ac4d	0.13444634
39	0x3dbec9fb	0.093158685
40	0x3b996c5b	0.0046821064
41	0x3cf1ccdb	0.029516628
42	0x3badface	0.0053094393
43	0x3b1181a6	0.002220252
44	0x3d82b6f8	0.06382555
45	0x3d974094	0.07385364
46	0xbd585f4a	-0.05282525
47	0x3da1d855	0.0790259
48	0x3d8dad96	0.069178745
49	0xbcebfe70	-0.028807849
50	0xbc8bd765	-0.017070482
51	0xbcd96ca5	-0.026541064
52	0x3d94bfb8	0.0726313
53	0x3ddadf12	0.106870785
54	0x3de72537	0.11286395
55	0xbdb5750c	-0.088602155
56	0xbd7439ec	-0.05962555
57	0x3dd36c4e	0.10323392
58	0xbd57f034	-0.05271931
59	0xbd5fb53c	-0.054616198
60	0x3c43608d	0.011924875
61	0xbc281c60	-0.010260671
62	0xbd9db095	-0.07699696
63	0x3c0d3e1c	0.008620765
64	0x3db704e7	0.08936482
65	0xbb2fd4cd	-0.002682972
66	0xbda038fe	-0.078233704
67	0x3c7ae42f	0.015313192
68	0x3d4e530b	0.050372165
69	0xbc946628	-0.018115118
70	0x3d943cb0	0.07238138
71	0x3de238df	0.110460036
72	0xbd9e65cb	-0.07734259
73	0x3e1d5b88	0.15366948
74	0x3c233b4b	0.009962867
75	0x3db820e3	0.08990648
76	0x3c5764b9	0.013146573
77	0xbda40743	-0.080091976
78	0x3d7c2b84	0.061564937
79	0x3c563c28	0.013075866
80	0xbce24917	-0.027622743
81	0xbb7c2f61	-0.0038480388
82	0x3da9cdf0	0.082912326
83	0x3c0c1a9e	0.008551268
84	0xbd9e298b	-0.077227674
85	0xbd5e68f9	-0.05429933
86	0xbc190b07	-0.009341008
87	0x3de912ed	0.11380563
88	0x3d9f77ad	0.07786498
89	0x3ccb79a4	0.024838276
90	0xbd77acec	-0.060467646
91	0x3cc25fe1	0.02372736
92	0xbd81c668	-0.06336671
93	0xbc7f779d	-0.015592483
94	0x3d510fbf	0.051040407
95	0x3d5daf21	0.054122094
96	0x3d694a7d	0.056955803
97	0x3dc3e134	0.095644385
98	0xbb4c3f0a	-0.0031165504
99	0x3e0e7fb6	0.13915905
100	0x3da3cc0c	0.07997903
101	0x3c3ca61b	0.011514212
102	0x3df2482e	0.118301734
103	0x3e0d1685	0.13778122
104	0xbd0c690f	-0.03427988
105	0x3d4392d1	0.047747437
106	0x39d10123	0.00039864433
107	0x3da79dcf	0.081843965
108	0x3dbeaf2d	0.09310756
109	0x3d4b0461	0.049564723
110	0xbd81d6c0	-0.063397884
111	0xbd90713b	-0.07052847
112	0x3d20625d	0.039156307
113	0x3ccb0905	0.024784574
114	0xbd68e92d	-0.056863
115	0xbc68c25a	-0.014206493
116	0xbd948c59	-0.07253332
117	0x3d04bbab	0.032405537
118	0xbdaf2c92	-0.08553423
119	0xbd1392d7	-0.03602871
120	0x3d76f35e	0.060290687
121	0x3c8944bf	0.016756414
122	0xbc340857	-0.0109883165
123	0x3d0c76e2	0.034293063
124	0x3d66ec5f	0.056377765
125	0xbd5715bb	-0.05251096
126	0xbb548d47	-0.003243284
127	0x3ca9c733	0.020724868
128	0x3d26789f	0.040642377
129	0xbdb17aeb	-0.08666023
130	0xbb5766fd	-0.0032867782
131	0x3d06c9f8	0.032907456
132	0xb9f1e259	-0.00046135744
133	0xbb8b5de3	-0.0042531355
134	0x3ae7a815	0.0017673994
135	0x3e21fc4b	0.15818898
136	0x3d6452b2	0.055742927
137	0x3cc15501	0.023600103
138	0x3d7204c4	0.059086576
139	0xbb83fb0d	-0.0040277303
140	0x3d8defac	0.069304794
141	0xba915067	-0.0011086584
142	0xbd19df58	-0.037566513
143	0xbcd615e6	-0.026133489
144	0x3d9472c5	0.07248453
145	0x3c1c803d	0.009552059
146	0x3d659daa	0.056058563
147	0xbd665869	-0.05623666
148	0xbd5c9c4e	-0.05386
149	0x3e17fc13	0.14842252
150	0xbcdd6f0e	-0.027030494
151	0xbda2f076	-0.079560205
152	0x3da2c4eb	0.07947715
153	0x3d8ed7c7	0.0697475
154	0x3d1ad677	0.037802186
155	0x3d86f8c2	0.065904155
156	0xbd75f914	-0.060051993
157	0x3daa16c3	0.08305123
158	0xbc26761c	-0.010159995
159	0xbc74a529	-0.014931955
160	0x3df173d1	0.11789668
161	0xbd75fcc2	-0.0600555
162	0x3dd377bf	0.10325574
163	0xbcbc27be	-0.02296817
164	0xbcd1016f	-0.025513379
165	0xbd9cb357	-0.07651394
166	0x3cec4341	0.028840663
167	0x3de56773	0.11201372
168	0x3c905dd9	0.017622875
169	0x3d0a722a	0.03380028
170	0xbc66a12a	-0.01407651
171	0xbd10c859	-0.035347316
172	0x3d36dc48	0.04464367
173	0x3d20b5e5	0.03923597
174	0x3d6c2242	0.05764986
175	0xbd3b47ba	-0.0457227
176	0xbceb42a0	-0.028718293
177	0x3d4672bb	0.04844926
178	0x3d7aa277	0.061190095
179	0xbc99d543	-0.018778449
180	0x3c5603a3	0.0130623905
181	0xbd66527e	-0.056231014
182	0x3d86b19f	0.06576847
183	0x3cb313b4	0.021859981
184	0xb961797c	-0.00021502929
185	0xbd47f082	-0.04881335
186	0xbd6e57fa	-0.05818937
187	0x3c788e5b	0.015170659
188	0xbd32d11f	-0.043656465
189	0x3d3049e3	0.043039214
190	0x3e035acc	0.12827605
191	0x3a86c538	0.0010282164
192	0xbd762a96	-0.060099207
193	0x3d151e1d	0.03640567
194	0xbc8387ae	-0.016055908
195	0x3dc5a5f8	0.09650797
196	0x3d7fa980	0.062417507
197	0x3c16169e	0.009160666
198	0xbd4638ef	-0.04839414
199	0x3d1526a7	0.036413815
200	0x3d9b4f7d	0.075835206
201	0x3e148e0f	0.14507316
202	0x3dea03d2	0.1142651
203	0x3c75a429	0.014992752
204	0xbd93d2d8	-0.0721795
205	0xbd69f6e1	-0.057120208
206	0xbd6b3cae	-0.057430916
207	0xbdaff298	-0.08591193
208	0x3d75b879	0.05999038
209	0x3d1bb1b5	0.03801127
210	0x3e2980eb	0.16553085
211	0xbc23504a	-0.009967873
212	0x3de4a07f	0.11163425
213	0xbaab4efa	-0.0013069801
214	0x3de1c3ee	0.11023699
215	0xbbab5679	-0.005228814
216	0x3d715e0d	0.058927584
217	0x3d31359a	0.04326401
218	0xbc59bbc6	-0.013289398
219	0x3aaab6ce	0.0013024451
220	0xbab83fc9	-0.0014057095
221	0x3cfd357c	0.030909292
222	0xbd1ad212	-0.037797995
223	0x3df1b46d	0.118019916
224	0xbd4af087	-0.04954579
225	0x3d8a0444	0.06739095
226	0x3d95a7fe	0.073074326
227	0xbd251d59	-0.04031119
228	0xbd2eb8d8	-0.04265675
229	0x3cd15d2b	0.025557121
230	0x3dacb9b8	0.084338605
231	0x3dff663b	0.12470671
232	0x3b58b76b	0.003306831
233	0x3d08394c	0.033257768
234	0x3d40fdf2	0.04711718
235	0x3da55835	0.08073465
236	0x3d10e957	0.03537878
237	0x3d7f058f	0.06226116
238	0x3db1fa4f	0.08690321
239	0x3da253a3	0.07926109
240	0x3d2294ea	0.039692797
241	0xbd31201a	-0.043243505
242	0x3cd76f7a	0.026298273
243	0x3dbb953a	0.09159322
244	0xbd96c027	-0.07360869
245	0x3d652360	0.05594194
246	0x3ca89bab	0.02058204
247	0xbdaf279f	-0.08552479
248	0xbd56d78a	-0.052451648
249	0xbd3eb36d	-0.046557833
250	0x3e1497cd	0.14511032
251	0x3d2ac918	0.041695684
252	0x3dbd2f2f	0.09237515
253	0xbcf4b2d4	-0.029870428
254	0xbd942f73	-0.07235613
255	0x3d8ab746	0.06773238

layers.6.weight f4 [256, 256]
0	0xbc94043c	-0.018068425
1	0x3d7f3f4f	0.062316235
2	0x3d4b69a5	0.049661297
3	0x3cb1a0ba	0.021683086
4	0xbc18c311	-0.009323851
5	0xbd67fef6	-0.056639634
6	0x3cec22f2	0.028825257
7	0x3d433d76	0.047666036
8	0xbd080deb	-0.0332164
9	0xbd3a13cd	-0.04542904
10	0x3bb8c155	0.0056382813
11	0x3c55e39d	0.0130547555
12	0x3d2abece	0.04168587
13	0x3d01b2b3	0.03166456
14	0xbccf1e39	-0.025282966
15	0xbd515830	-0.051109493
16	0xbc441bd6	-0.011969527
17	0x3d14ba80	0.036310673
18	0xbd250da9	-0.04029623
19	0xbb883da0	-0.004157737
20	0xbd3e875c	-0.046515808
21	0xbd203216	-0.039110266
22	0x3d578c28	0.052623898
23	0x3d7dfba1	0.06200755
24	0x3b23dace	0.0025002244
25	0x3d22edfd	0.039777745
26	0xbc51a427	-0.012795485
27	0x3d4d8a5c	0.050180778
28	0xbd3811d8	-0.044938892
29	0x3b12fcfb	0.002242862
30	0x3d4105e6	0.047124766
31	0xbd5726c8	-0.05252722
32	0xbc8e4fa2	-0.017371956
33	0x3d2e48dc	0.042549953
34	0x3c63073c	0.013856705
35	0xbd710016	-0.058837973
36	0xbbdd9466	-0.0067620752
37	0x3ccba7a9	0.02486022
38	0xbce6d25c	-0.028176479
39	0xbcaa03ba	-0.02075373
40	0x3d5337f3	0.05156703
41	0x3cf13d73	0.029448247
42	0x3c204385	0.009781723
43	0xbba8b030	-0.0051479563
44	0xbd3052d6	-0.04304775
45	0x3c2efd0a	0.010680446
46	0xbcd56863	-0.026050752
47	0xbd008bd9	-0.03138337
48	0xbd1343a8	-0.035953194
49	0xbccbe933	-0.024891471
50	0xbd479848	-0.04872921
51	0x3cdfd895	0.027324954
52	0x3c977b1f	0.018491326
53	0xbce8c3fd	-0.028413767
54	0xbc005f52	-0.007835226
55	0xbbe67158	-0.0070325546
56	0x3d4bef60	0.049788833
57	0x3bb838c6	0.0056220023
58	0xbd7a610b	-0.061127704
59	0xbcf57280	-0.029961824
60	0x3cdff217	0.027337117
61	0x3c88cf0a	0.016700286
62	0xbce81c00	-0.028333664
63	0x3d7bab24	0.06144251
64	0xbcdf40f2	-0.027252648
65	0xbc734f1c	-0.014850404
66	0x3b7604d7	0.0037539506
67	0x3c8320b8	0.016006812
68	0xbcd32b3b	-0.02577745
69	0x3c21d503	0.009877446
70	0xbcacb0fd	-0.021080488
71	0xbc551271	-0.013004885
72	0xbd0e35a1	-0.034719113
73	0xbd4511c1	-0.048112635
74	0xbcdc0145	-0.026856074
75	0x3d4b8730	0.04968947
76	0x3d3828c5	0.044960756
77	0xbca4e273	-0.02012751
78	0x3d781c7a	0.060574032
79	0xbd036f9b	-0.032088857
80	0x3c8e71b7	0.017388208
81	0xbd2f803b	-0.0428469
82	0x3d1c3c2b	0.03814332
83	0x3d3e06fb	0.046393376
84	0x3caecd5e	0.021338161
85	0x3d32945d	0.04359852
86	0x3ce0518e	0.027382638
87	0xbd1126b6	-0.03543731
88	0x3d2a89ea	0.04163543
89	0x3ce83197	0.028343959
90	0xbc9e5e07	-0.019331945
91	0x3c09fb60	0.008421749
92	0x3c35768c	0.011075627
93	0x3ce38e7f	0.027777908
94	0xbca81328	-0.020516947
95	0x3c899938	0.016796693
96	0x3d58e1e8	0.052949816
97	0xbd354dc4	-0.044263616
98	0x3d629b6d	0.055324007
99	0xbd492dfe	-0.049116127
100	0x3c2e36e1	0.010633201
101	0x3d43585e	0.047691695
102	0xbc1b01b2	-0.009460853
103	0x3d6ac19a	0.05731354
104	0xbd1a90dd	-0.03773581
105	0xbd3b42c0	-0.045717955
106	0xbc2dd08b	-0.010608803
107	0x3b80228f	0.0039103697
108	0xbd58fc54	-0.052975014
109	0x3d51fe7a	0.05126808
110	0x3cd18c75	0.02557967
111	0xbd6ad2ac	-0.05732982
112	0xbbb790bb	-0.00560197
113	0xbd145f6b	-0.03622381
114	0xbc165a60	-0.0091768205
115	0xbd647916	-0.05577954
116	0xbd6c5d8b	-0.057706397
117	0xbd00b4b9	-0.03142235
118	0x3d1e43b8	0.0386388
119	0xbced9075	-0.028999547
120	0x3c72fa17	0.014830134
121	0xbd231233	-0.039812278
122	0xbd2670c3	-0.04063488
123	0xbd2c0a27	-0.04200187
124	0xbd8017fb	-0.06254574
125	0x3c2c7242	0.010525288
126	0xbd0fc656	-0.035101257
127	0xbab23eb7	-0.0013599013
128	0xbc959235	-0.018258194
129	0xbd4d7f92	-0.05017049
130	0x3cbd79c0	0.023129344
131	0x3d44b769	0.048026476
132	0x3ce9cf54	0.028541245
133	0xbd6dd246	-0.05806186
134	0xbc365006	-0.0111274775
135	0xbd49a951	-0.04923374
136	0xbcdba924	-0.026814051
137	0x3d483af6	0.048884355
138	0xbc36a25f	-0.011147111
139	0x3d612709	0.054968867
140	0x3ce93baf	0.028470842
141	0xbbb5c00e	-0.0055465763
142	0x3d5398b5	0.051659305
143	0xbb5d11da	-0.0033732564
144	0xbd2e71a7	-0.042588856
145	0x3d252f93	0.040328573
146	0x3d19ed46	0.037579797
147	0xbc934fcd	-0.017982388
148	0x3c60601c	0.013694789
149	0x3d5a0926	0.05323138
150	0x3d0fe3ad	0.035129238
151	0x3c1ef8f2	0.009702908
152	0xbcbc1a8d	-0.02296188
153	0x3d25af80	0.040450573
154	0xbce6e577	-0.02818559
155	0xbc94ca62	-0.01816291
156	0xbc079ebd	-0.008277592
157	0xbc550269	-0.013001063
158	0xbc7343f1	-0.014847741
159	0xbd314c13	-0.04328544
160	0x3cdd03a6	0.026979279
161	0x3d3d2916	0.04618176
162	0xbd298054	-0.04138215
163	0xbd7f74fc	-0.062367424
164	0x3d6bd60a	0.05757717
165	0x3d050782	0.032477863
166	0xbc430115	-0.011902113
167	0xbcb4347e	-0.021997686
168	0xbbd643dc	-0.006538851
169	0xbd44ef4c	-0.048079774
170	0x3cf160ac	0.029465042
171	0xbd138281	-0.03601313
172	0x3d213c5b	0.0393642
173	0xbd61bc3b	-0.05511115
174	0x3a0b03fc	0.0005303023
175	0x3d6c2405	0.05765154
176	0xbd3df14d	-0.0463727
177	0xbd65cc22	-0.05610288
178	0xbd0b0235	-0.03393765
179	0x3a0ae6ef	0.0005298694
180	0xbb220a4a	-0.002472537
181	0x3d19ebab	0.037578266
182	0xbb45b0e0	-0.003016524
183	0xba5d5e86	-0.0008444566
184	0xbc84aa24	-0.01619441
185	0xbd15348b	-0.036427062
186	0xbc5d3457	-0.013501248
187	0xbb8cc87b	-0.00429636
188	0xbb807888	-0.0039206184
189	0xbca24ad1	-0.019811066
190	0x3c350537	0.011048607
191	0xbd55fa17	-0.052240457
192	0x3cb838df	0.022488056
193	0x3d3bfd87	0.04589608
194	0x3d597379	0.05308864
195	0x3d1e33ae	0.038623504
196	0xbd51200f	-0.051055964
197	0x3d693436	0.056934558
198	0xbd7b0164	-0.061280623
199	0x3d03ac04	0.03214647
200	0xbca59294	-0.020211495
201	0xbcac641a	-0.021043826
202	0x3d4d00af	0.05004948
203	0xbd686162	-0.056733496
204	0x3d04fdea	0.032468714
205	0xbd0d1d0b	-0.034451526
206	0xbd273074	-0.040817693
207	0x3cabf462	0.020990554
208	0xbd24f079	-0.040268395
209	0xbd2a4fa6	-0.041579865
210	0x3d5d4bbf	0.054027315
211	0xbd03b949	-0.032159124
212	0xbd67be5d	-0.05657803
213	0x3cb92575	0.022600869
214	0x3d002ee2	0.03129471
215	0x3c9bbdc2	0.019011382
216	0x3cbc5439	0.02298938
217	0xbd5c6709	-0.0538092
218	0x3d048fbb	0.032363635
219	0x3d1ae117	0.03781232
220	0xbd74875f	-0.059699412
221	0x3c4120e4	0.011787627
222	0x3d2bc862	0.041939147
223	0xbd23daf9	-0.04000375
224	0xbd48c6f1	-0.04901785
225	0x3c159a17	0.009130976
226	0xbd7e7df6	-0.062131844
227	0x3d43bc9f	0.047787305
228	0x3c6a263c	0.014291342
229	0x3d0f351c	0.03496276
230	0x3d467668	0.048452765
231	0x3ccfcfe4	0.025367685
232	0xbd37ba63	-0.044855487
233	0xbcdf6409	-0.02726938
234	0x3d1a245a	0.037632324
235	0xbc61b7b7	-0.013776711
236	0x3d2d0542	0.042241342
237	0xbd5989f1	-0.053110067
238	0xbd36c09a	-0.044617273
239	0xbc99b93a	-0.01876508
240	0x3d1025a3	0.035192143
241	0x3cb0385d	0.021511251
242	0xbcbcfaf7	-0.023068888
243	0xbcc1d8f3	-0.02366302
244	0x3d6fdea5	0.05856194
245	0xbcceb7f7	-0.025234206
246	0x3d03605b	0.032074314
247	0xbcc3f08b	-0.02391841
248	0x3d33f39f	0.043933507
249	0x3d30eb00	0.043192863
250	0xbd4a5cc2	-0.049404867
251	0xbd0d6f72	-0.03453011
252	0xbbf2bf15	-0.0074080327
253	0x3c902fcf	0.017600922
254	0xbca1eeb1	-0.019767137
255	0xbc882500	-0.016619205

layers.6.bias f4 [256]
0	0x3bfc3283	0.007696451
1	0x3d2999eb	0.041406553
2	0xbc3bec5c	-0.011469927
3	0x3d68d968	0.05684796
4	0x3d2a1337	0.04152223
5	0xbd55c66a	-0.052191176
6	0x3dcf5e0b	0.10125359
7	0x3da6aa29	0.08137924
8	0x3d46bd8f	0.04852062
9	0xbd34da88	-0.04415372
10	0xbd4d8fd6	-0.050186
11	0xbbfdf821	-0.0077505265
12	0x3dd980b1	0.10620249
13	0x3dcd4d57	0.10024517
14	0x3c4a28b5	0.012338807
15	0x3baf455a	0.0053488435
16	0x3cf6bf14	0.03012041
17	0x39a56bc5	0.00031551547
18	0xbcdd3318	-0.027001902
19	0xbd45d3da	-0.04829774
20	0x3d20cc8f	0.039257582
21	0x3d29f78b	0.04149584
22	0x3bde25b3	0.0067793964
23	0xbca1174a	-0.019664425
24	0x3e03e8e6	0.12881812
25	0xbd1b61ff	-0.037935253
26	0xbc6f8106	-0.014618164
27	0x3c19d22c	0.009388488
28	0x3dce3da9	0.100703545
29	0xbd28e0ea	-0.04123012
30	0xbc0c4046	-0.008560246
31	0xbd56efcd	-0.052474786
32	0x3d0327ed	0.032020498
33	0xbc62fbc7	-0.013853974
34	0xbc63ce83	-0.013904217
35	0x3cce6992	0.025196824
36	0xbd7ed4d9	-0.062214706
37	0xbc1db571	-0.0096257785
38	0xbc83f503	-0.016108042
39	0x3e18fbe5	0.1493984
40	0xbd55f4d0	-0.052235425
41	0x3ca56276	0.020188551
42	0xbc21c8c1	-0.009874524
43	0x3c25456b	0.010087351
44	0xbcc1b487	-0.023645652
45	0xbd81d3e2	-0.063392416
46	0xbd596a76	-0.053080045
47	0x3dc43134	0.09579697
48	0x3e04b955	0.12961324
49	0x3d80b1d5	0.06283919
50	0x3d543d77	0.05181643
51	0xbc28d927	-0.010305679
52	0x3b94dfb1	0.0045432677
53	0xbd015ae8	-0.031580836
54	0xbcaae159	-0.020859407
55	0x3d3b31d7	0.045701828
56	0x3b35982a	0.0027709105
57	0x3da6ae2e	0.08138691
58	0xb99b0fcd	-0.00029575676
59	0xbce22c23	-0.027608937
60	0x3d0b325e	0.03398358
61	0xbd273db5	-0.040830333
62	0xbd6b5fce	-0.057464413
63	0x3ca172b0	0.019708008
64	0x3d6db21a	0.05803118
65	0x3c4ee826	0.012628591
66	0xbd1736f6	-0.03691765
67	0x3c1b673e	0.009485064
68	0xbd4e5e8b	-0.050383132
69	0xbcdec09d	-0.027191455
70	0x3e0af33d	0.1356935
71	0xbcf4fe3b	-0.029906383
72	0xbd29e1e8	-0.041475207
73	0xbd0a043d	-0.03369545
74	0x3cee6fcc	0.029106043
75	0xbc174673	-0.009233105
76	0xbd3dc2bb	-0.046328288
77	0xbbd5977b	-0.006518302
78	0xbcad8768	-0.02118273
79	0x3cf9a816	0.030475657
80	0x3d10923f	0.03529572
81	0xbc12569b	-0.008931781
82	0x3cc4dd81	0.024031403
83	0xbd12b7fc	-0.035819992
84	0xbd35b1a1	-0.044358853
85	0xbd288fed	-0.041152883
86	0x3cd4bfd1	0.025970371
87	0x3d1ef702	0.038809784
88	0x3dcb5537	0.09928363
89	0x3c9d5e40	0.019209981
90	0x3cf06812	0.0293465
91	0xbd4249b0	-0.047433555
92	0xbd7619e5	-0.06008329
93	0xbc8ba922	-0.017048422
94	0x3dc5d0da	0.09658976
95	0x3df8b357	0.12143581
96	0xbd59b3bb	-0.05314992
97	0x3c4a9108	0.01236368
98	0xbc8470a9	-0.016167002
99	0xbccf45c8	-0.025301829
100	0x3d68e66d	0.056860376
101	0x3c85fa3d	0.016354674
102	0xbd2c405c	-0.042053565
103	0x3daa718a	0.08322437
104	0xbd62c2d1	-0.055361573
105	0xbd29894b	-0.0413907
106	0x3d233ff4	0.039855912
107	0xbcb3841e	-0.021913584
108	0xbd24f00f	-0.040268
109	0xbc86fb4c	-0.01647725
110	0x3ca4b3f6	0.020105343
111	0xbd0a6195	-0.033784468
112	0x3dad6ad0	0.084676385
113	0x3cb646d4	0.02225057
114	0x3e0e0d97	0.13872372
115	0x3d35a678	0.04434821
116	0x3dc09633	0.09403648
117	0xbc5f60cd	-0.013633919
118	0x3d38e2cb	0.04513816
119	0x3c9c50fb	0.019081583
120	0xbbffedef	-0.0078103463
121	0x3d48f6d3	0.049063515
122	0x3e17a160	0.14807653
123	0x3dbaafce	0.09115563
124	0x3d58411f	0.05279648
125	0xbd32d54c	-0.043660447
126	0x3d04a54b	0.0323842
127	0xbd73b8cd	-0.05950241
128	0x3be41ab9	0.0069611934
129	0xbcec4b84	-0.028844602
130	0xbd5cc563	-0.05389918
131	0xbd0ee0b0	-0.034882247
132	0x3e246518	0.16054189
133	0xbc0a1ad5	-0.008429249
134	0x3ccd4953	0.025059378
135	0xbd2bfe13	-0.04199035
136	0x3d3da57f	0.046300407
137	0x3dbf19a7	0.09331065
138	0xbada7057	-0.001666556
139	0xbb780bcb	-0.0037848826
140	0x3d82dea4	0.063901216
141	0xbb1a8267	-0.002357626
142	0x3d155b62	0.036464103
143	0x3ba09fe8	0.004901875
144	0x3df7fc31	0.121086486
145	0x3ba8268b	0.005131548
146	0x3c92245b	0.017839601
147	0x3d4b4c2f	0.0496332
148	0x3b87bd6c	0.004142454
149	0x3dad1a20	0.084522486
150	0x3d797435	0.06090184
151	0xbcf8615d	-0.030319864
152	0x3d9324da	0.07184763
153	0xbd41a193	-0.04727323
154	0x3db9dace	0.09074937
155	0xbd065344	-0.032794252
156	0x3a6f6c6c	0.00091332826
157	0x3d130bed	0.035900045
158	0xbc8a9c35	-0.016920188
159	0xbd7b0be0	-0.06129062
160	0x3d22d077	0.03974959
161	0xbc7a5ccf	-0.015280916
162	0x3ccfcf76	0.02536748
163	0x3d1b95a0	0.03798449
164	0x3d5d74d3	0.05406649
165	0x3d2a1c00	0.04153061
166	0x3cc230ab	0.023704847
167	0xbcd00105	-0.025391111
168	0x3da1cd2e	0.07900463
169	0x3c87d4ab	0.0165809
170	0x3c2329c9	0.009958693
171	0x3ddde616	0.10834901
172	0xbd050730	-0.032477558
173	0xbc7918a6	-0.015203631
174	0x3d9c0abc	0.07619235
175	0x3cb664c3	0.022264844
176	0x3db76e11	0.089565404
177	0x3cf3d50d	0.029764676
178	0x3ce6f770	0.02819416
179	0x3da70f84	0.08157256
180	0x3dd5799e	0.10423587
181	0xbccf675f	-0.025317846
182	0xbd3ca2e4	-0.046053782
183	0xbcb6ca9c	-0.022313409
184	0x3daef727	0.08543234
185	0x3d14b68c	0.036306903
186	0x3d4314cb	0.04762725
187	0x3d1bfc0e	0.038082175
188	0x3d056cb7	0.03257438
189	0xbd06a08e	-0.03286796
190	0x3c89eb38	0.016835794
191	0x3d3fd9e7	0.046838667
192	0x3cec649b	0.028856566
193	0xbce11f02	-0.027480606
194	0xbd121b1d	-0.03567039
195	0xbd6e80f8	-0.058228463
196	0xbbda6575	-0.0066649267
197	0x3c7a0dc7	0.015262074
198	0xbc90f7b7	-0.017696245
199	0xbc869da2	-0.016432587
200	0xbd539ec8	-0.051665097
201	0x3ba98e4f	0.005174435
202	0x3e0309d8	0.12796724
203	0x3d0587dd	0.032600272
204	0x3d698fdc	0.05702196
205	0x3d02248c	0.031773135
206	0xbd443285	-0.04789974
207	0x3d56ee90	0.052473605
208	0x3daa0460	0.08301616
209	0xbd0f4b35	-0.034983832
210	0xbc9ed349	-0.019387858
211	0xbd1b82b8	-0.03796646
212	0xbd01bc40	-0.03167367
213	0xbd2ba73c	-0.041907534
214	0x3ce6e3d3	0.028184807
215	0x3b84a5c5	0.0040480816
216	0x3d235bde	0.039882533
217	0x3d04eff6	0.032455407
218	0xbd611028	-0.05494705
219	0x3da22197	0.07916563
220	0xbcdc4c5b	-0.026891878
221	0x3c6ce722	0.014459403
222	0x3a8abebf	0.0010585411
223	0xbc5a8cf7	-0.013339273
224	0x3d1679d3	0.036737274
225	0xbbe24bb7	-0.0069059986
226	0x3d93e76e	0.07221876
227	0xbb04a7c8	-0.0020241607
228	0xbc9b0f7a	-0.018928278
229	0xbd837596	-0.06418912
230	0x3bc7e3c1	0.0061001484
231	0xbd6af838	-0.057365626
232	0x3cf7180b	0.030162832
233	0x3e0c4615	0.13698609
234	0x3c1bc75b	0.009507979
235	0x3d07838f	0.03308445
236	0xbc553b2c	-0.013014596
237	0x3cc485d9	0.023989605
238	0x3c87bd0c	0.016569637
239	0x3c517722	0.012784751
240	0xbc667276	-0.014065376
241	0x3e0aaf1a	0.13543358
242	0x3d02f1c3	0.031968843
243	0x3cc95a07	0.024579061
244	0x3ce275aa	0.027643997
245	0xbd490414	-0.049076155
246	0x3d45abce	0.04825955
247	0xbd6a2a3a	-0.057169177
248	0x3d7b490a	0.061348952
249	0xbd0566cf	-0.03256875
250	0x3d1a97b8	0.037742347
251	0x3dd72553	0.10505166
252	0xbd82dd2d	-0.06389842
253	0x3c690ced	0.014224273
254	0x3d91d66d	0.071209766
255	0xbc30c602	-0.010789396

layers.9.weight f4 [480, 256]
0	0xbd04a9f7	-0.032388654
1	0x3d288182	0.041139133
2	0xbcbe4e06	-0.023230564
3	0xbd3c5360	-0.04597795
4	0xbd04b850	-0.032402337
5	0xbc8eabf4	-0.017415978
6	0x3c900bce	0.017583754
7	0xbdb3f00d	-0.087860204
8	0x3d19d35c	0.037555084
9	0xbd148b48	-0.03626564
10	0x3c81bcda	0.015837122
11	0x3c0df9e1	0.008665533
12	0x3c77d1c4	0.015125696
13	0xbd0b8cea	-0.034069933
14	0x3b54307a	0.0032377527
15	0x3d310bae	0.04322403
16	0xbd694a50	-0.056955636
17	0xbc5ebc2a	-0.0135946665
18	0x3c23e73a	0.010003859
19	0x3d7bde12	0.06149108
20	0xbc455086	-0.012043124
21	0x3c44ae33	0.012004423
22	0x3bcc5675	0.0062358924
23	0x3d201831	0.03908557
24	0xbc5a56a0	-0.013326317
25	0xbd5dca1f	-0.054147836
26	0x3c926b35	0.017873386
27	0xbd1b4a2c	-0.037912533
28	0xbd57200f	-0.052520808
29	0xbcf59753	-0.029979384
30	0x3d7dfd4e	0.06200915
31	0xbc029b85	-0.007971649
32	0xbd229420	-0.039692044
33	0x3d08b3fe	0.03337478
34	0x3c9d06db	0.019168308
35	0x3d1425fa	0.03616903
36	0x3d63cf3a	0.05561755
37	0x3ca73e44	0.020415433
38	0xbc5b93b9	-0.013401919
39	0xbca58b46	-0.020208012
40	0x3d53c47f	0.051701065
41	0xbcf28b8b	-0.029607555
42	0x3c76fcce	0.015074922
43	0xbd7eff2f	-0.06225508
44	0x3bb4bf9c	0.0055160057
45	0x3cbef048	0.023307934
46	0xbd637dc0	-0.055539846
47	0xbcde7520	-0.027155459
48	0xbd65bc17	-0.05608758
49	0x3d2987fa	0.041389443
50	0x3ce4db09	0.027936475
51	0x3c83c228	0.016083792
52	0xbcd4c4cc	-0.025972746
53	0x3ce8da38	0.028424367
54	0x3c4c8a07	0.01248408
55	0xbb901d51	-0.004398026
56	0xbcf346c5	-0.029696831
57	0xbd6f2436	-0.058384143
58	0x3d276e17	0.040876474
59	0x3d743861	0.05962408
60	0x3c0b3527	0.008496559
61	0x3ccdb784	0.025111921
62	0xbd378e26	-0.044813298
63	0xbc427274	-0.011868108
64	0xbd86f868	-0.065903485
65	0x3d362fdf	0.044479247
66	0x3ce54f31	0.027991863
67	0x3cfb00b1	0.030639978
68	0x3d773fcf	0.060363587
69	0xbd2c1fae	-0.0420224
70	0x3b55ccc2	0.0032623266
71	0xbd4678a3	-0.048454892
72	0x3d376cf4	0.04478164
73	0x3d452cf2	0.048138566
74	0xbcdc7542	-0.026911382
75	0xbd8325e6	-0.06403713
76	0xbc918e7a	-0.017768133
77	0xbd60d96f	-0.05489486
78	0xbd4231de	-0.04741084
79	0xbcc37e56	-0.023863953
80	0x3cc96967	0.024586393
81	0x3d2b4033	0.041809272
82	0x3d5d2523	0.053990494
83	0x3d5ed8d3	0.054406
84	0xbcae9e03	-0.02131558
85	0xb9a3a0ed	-0.00031209682
86	0xbd3aa7b6	-0.045570098
87	0xbd159a6a	-0.036524214
88	0x3d04aac3	0.032389414
89	0xbd8a8e2f	-0.067654006
90	0x3c474b4f	0.012163951
91	0xbd7571d2	-0.059923
92	0xbd345638	-0.044027537
93	0x3d7ff7a4	0.062492028
94	0x3beab2fe	0.007162451
95	0x3cb8e095	0.022568027
96	0x3d21af56	0.039473854
97	0x3d06f303	0.032946598
98	0x3d7cf65b	0.06175838
99	0x3d3d9025	0.046280045
100	0xbd1af75b	-0.037833553
101	0xbd1f79db	-0.03893457
102	0xbd0bfc95	-0.034176428
103	0xbcf33890	-0.029690057
104	0x3cfae03c	0.030624501
105	0xbc082c4b	-0.0083113415
106	0x3cbf19f9	0.023327814
107	0x3d0ab626	0.033865117
108	0x3cb678f6	0.022274476
109	0xbba11e90	-0.0049169734
110	0x3d01b18e	0.03166347
111	0xbd560a22	-0.052255757
112	0x3cf1787b	0.029476395
113	0xbcb5da75	-0.022198895
114	0xbda58f8f	-0.08084022
115	0xbd205f10	-0.03915316
116	0xbcd6e005	-0.026229868
117	0xbd25eb8f	-0.04050785
118	0xbcd4c929	-0.025974827
119	0xbd6f2a62	-0.05839003
120	0xbcfaf87d	-0.030636067
121	0x3d301231	0.0429861
122	0xbd1424da	-0.036167957
123	0xbd1fe5e6	-0.039037608
124	0x3d6e3405	0.05815508
125	0xbd09b3ed	-0.033618856
126	0xbd61ff9b	-0.055175405
127	0x3c891ba8	0.01673682
128	0xbd0c0e3b	-0.03419326
129	0xbcf31624	-0.029673643
130	0x3cfd44e9	0.030916648
131	0x3d795ac9	0.060877595
132	0x3bdf35ce	0.006811834
133	0xbd02e9cd	-0.03196125
134	0xbc4f5401	-0.012654305
135	0x3c155127	0.0091135865
136	0x3cca35c8	0.024683848
137	0xbd0dba8b	-0.03460173
138	0xbd1ac989	-0.037789855
139	0x3d15fe41	0.03661943
140	0xbd2a48d1	-0.04157335
141	0xbd55fa2d	-0.05224054
142	0x3b741dce	0.003724921
143	0x3d236667	0.03989258
144	0x3bb3c459	0.005486053
145	0x3d0030ae	0.031296425
146	0xbd644922	-0.055733807
147	0xbbd95e10	-0.0066335276
148	0x3d55f7f0	0.052238405
149	0xbc9d9192	-0.019234452
150	0x3c69bfc8	0.014266916
151	0xbc4b1cf2	-0.012397038
152	0xbcec4ffb	-0.028846731
153	0xbab0117b	-0.0013432944
154	0xbd919438	-0.071083486
155	0xbd5fe627	-0.05466285
156	0xbd568b1e	-0.052378766
157	0xbb33c448	-0.0027430225
158	0x3acccce6	0.0015625029
159	0xbc41fa4c	-0.011839461
160	0x3d273a82	0.04082728
161	0xbd6211ca	-0.055192746
162	0xbd46b66c	-0.048513815
163	0x3d03f014	0.03221138
164	0xbd5b001e	-0.05346691
165	0xbcc27609	-0.023737924
166	0xbd25a507	-0.040440585
167	0x3d1c2e1c	0.03812991
168	0x3d862e72	0.065518275
169	0xbc580619	-0.013185048
170	0x3d065d2f	0.03280371
171	0x3c95d7ed	0.018291438
172	0xbce4ecfb	-0.027945032
173	0x3c826089	0.015915172
174	0xbd1e90d9	-0.038712356
175	0x3ba57d56	0.0050503416
176	0xbd9cff13	-0.07665839
177	0xbd85db9d	-0.065360285
178	0xbb9dc7ca	-0.0048150765
179	0xbd971945	-0.07377867
180	0xbd70200d	-0.058624316
181	0x3d30a802	0.043128975
182	0x3cc43600	0.02395153
183	0x3a31dc31	0.0006784825
184	0xbc9d9dcd	-0.019240284
185	0xbd2f9419	-0.042865846
186	0xbbd533be	-0.0065064123
187	0xbbb945be	-0.005654066
188	0xbd75fe10	-0.060056746
189	0x3ca5bed6	0.0202326
190	0x3cc32efe	0.023826119
191	0x3c9926d3	0.01869527
192	0x3d311a73	0.043238115
193	0xbc505506	-0.012715584
194	0x3d5a7c49	0.053341184
195	0x3d66bc7a	0.05633209
196	0xbc21e385	-0.009880905
197	0x3d51c5c9	0.051214013
198	0x3bfcd0c0	0.0077153146
199	0x3cdd1350	0.026986748
200	0xbcc78224	-0.024354048
201	0xbac43af8	-0.0014971187
202	0xbd630900	-0.055428505
203	0x3d7df829	0.062004242
204	0x3bc264a2	0.0059324065
205	0xbba887d5	-0.0051431456
206	0x3d257f92	0.040404864
207	0xbd7eb45c	-0.062183723
208	0xbadcad70	-0.0016836356
209	0x3b7d30ca	0.0038633817
210	0x3d454ff1	0.04817194
211	0xbccb7a04	-0.024838455
212	0x3c66150e	0.014043106
213	0x3c998389	0.018739479
214	0xbc79c34f	-0.015244319
215	0x3c75eba1	0.015009792
216	0xbc0631a5	-0.008190547
217	0x3d1790c3	0.03700329
218	0x3cad44e5	0.021151016
219	0x3c1cf32c	0.009579461
220	0xbc91b4ed	-0.017786467
221	0xbd057c66	-0.03258934
222	0x3bdc0866	0.0067148684
223	0xbd53b818	-0.051689237
224	0xbb2543c7	-0.00252174
225	0x3b96eb8b	0.0046057156
226	0x3cc1b3f8	0.023645386
227	0x3d1a1b4f	0.0376237
228	0xbc91039c	-0.017701916
229	0x3d50a7c5	0.050941247
230	0xbd039a81	-0.03212977
231	0x3d13be50	0.036070168
232	0xbce42ff9	-0.027854906
233	0xbb4c5be0	-0.0031182691
234	0xbcdc2a43	-0.02687562
235	0x3bff1def	0.007785551
236	0xbcc21a99	-0.023694323
237	0xbb40bdec	-0.0029410077
238	0x3cef56b1	0.029216142
239	0xbd1a30e1	-0.03764427
240	0xbb43b558	-0.0029862728
241	0x3cece9e4	0.028920121
242	0x3c8d9fb8	0.017288074
243	0x3d00b559	0.031422947
244	0x3ceb36e2	0.028712694
245	0x3d8343e2	0.06409432
246	0xbc8d559d	-0.017252738
247	0xbc96777b	-0.01836752
248	0xbc86ddc7	-0.016463174
249	0xbc8e7bd9	-0.01739304
250	0x3cbebc56	0.023283165
251	0xbcc19dbb	-0.023634782
252	0x3cd186d0	0.025576979
253	0x3d371656	0.044699036
254	0x3cf15a9b	0.02946215
255	0x3d559303	0.052142154
