checkpoints/checkpoint_epoch_80.pt (torch, 895184 bytes, 8 tensors)

layers.0.weight f4 [128, 4]
00000000: 0158 983e be63 0c3e 0107 5abd b437 a83d
00000010: c37e 0f3e 1ab3 4e3d b222 fb3d a9c0 9fbe
00000020: 0f84 333e 59c3 c6be 1105 a83e e179 aabe
00000030: 73f4 0ebf 8688 89bd 4fbd febd ab68 9bbc
00000040: 03ab e7be 6c79 76be 1129 e33e e1a8 e2bd
00000050: 93f5 c23e 16f4 bbbe 43be 583e 9864 c9bd
00000060: 819a 14bf a3e3 e33d 3135 1ebe c8a0 893d
00000070: f3ab a23e 976a fabc 504a c73e a029 143e
00000080: 57c5 f0bc ff66 44be ff57 b53e 820e 563e
00000090: b45b 19bf f159 c6be 05ea 1ebb 3acd 3f3e
000000a0: 5c3b e8bc 78dc fb3e 56f0 053e a7dd 34be
000000b0: 1f08 28be 1884 893e b830 b0be 7c75 bdbe
000000c0: 7eac c33d fb44 5dbe 4d7b 653e 2328 293e
000000d0: d7a0 8bbd 1030 e43e f9ad c43e 13f7 b2be
000000e0: d403 033f 0c19 9a3c da12 ecbe f4ab 283e
000000f0: 98da 963e 2dfd a33e 1057 cbbe 2a0e fabe
00000100: 3f35 81be 34c4 19bd 6ec9 54bd 6749 a4bd
00000110: b773 83be e839 bd3e 94f8 edbe 9fe6 b1be
00000120: 1fb0 b7be 8031 d43e 5c1d eebe e186 d0be
00000130: 2c7a 163e 9fd9 993b 16e2 fa3e 4d05 adbe
00000140: a40a e3be b162 33be 6812 e63e fbaf a63e
00000150: ac42 ccbe 7ff7 b73e dcff 2fbe 1cbd e43e
00000160: e3d1 843e 1664 1ebd 5567 e53e adf5 1bbe
00000170: c647 0bbf fcfe d8be 1869 96bd fe54 1ebe
00000180: 13df c4bd 693d d5be 7dcd a7be bb3d 80bc
00000190: 183b 5a3e 25d1 973c b125 bcbe fd19 423e
000001a0: a9b8 7f3e dc56 a0bd 9197 833d 70c7 e53d
000001b0: 386f 92be 2a6a 2e3e be3f 01be f09d 8dbe
000001c0: 49f6 c63e 00da 353c 9c3a e1be 5cfa a03e
000001d0: 032c 0d3d 1263 b63e a96b e23d 7f3f d8be
000001e0: 95fa 52be 5bc7 2abe feaf bc3e 001b 04be
000001f0: a54f 33bd b043 b0be ccf8 12be acd2 3d3e
00000200: ea55 cb3e f435 a2be d52c 6bbe 1b9e 86be
00000210: 8870 81bd 4949 073e 776d f13d fa49 9e3d
00000220: b757 f53d 51bc 8abe d7c8 54be 726e d53e
00000230: 4d73 c8be 9aff a8bb 394b e23e 534d 763e
00000240: d450 bdbe c523 a53e 9f72 553d efaf 5c3e
00000250: 90d2 333e be9d b4be 8ca9 a2be 00ef a0be
00000260: f3d4 163e 9ed9 0dbe 2fb7 773d e854 de3e
00000270: fdcf 3bbd 36da 1f3d c7c4 edb9 bb1c bd3e
00000280: d162 04bf 51bd 4ebd b29e 9fbe 60b8 773e
00000290: 442d 2cbe 00df 483e 5aa8 7ebe c17b 45be
000002a0: 9a98 a3bc 7da1 e4be 3512 353d 9a86 87bd
000002b0: fee2 f73e 1cc0 dfbe 213c 9bbe 7a59 fabd
000002c0: 66c9 36be 4c6a 1b3e 4077 993e cca9 bfbe
000002d0: ecbe 083f 42ab 8e3e fa88 7e3d 8d00 9abd
000002e0: 42d5 bb3e 40b3 333e ecca e13e 2ae7 1cbd
000002f0: d658 31be b320 ff3e 10af 19be daaa 3bbe
00000300: 5536 debe 46f0 aebe 09a2 54be 02ef cb3d
00000310: 4512 0f3f 7eaf 1f3d c1ff 97be 77e6 f7bb
00000320: f5bd d43d 551b 9d3e c815 173e 7e62 bf3e
00000330: 49c1 95be 2d82 13be 1981 e43d 2139 23be
00000340: 1ffb fabe d149 afbd 576f f13e 9b7d bcbe
00000350: e849 193d 747f ddbe ff7d e43e d2ff dbbe
00000360: 43b3 bd3d 38df cd3e 9121 62bd 1ee6 9c3e
00000370: 635e b03d bbdb 8bbe 5dbe 5e3c 46a5 583e
00000380: 6c87 03bf 66ff f4bd 9562 d8be 795f 863e
00000390: a3ca 9c3d 1a78 cebe e83c debe 2b99 97be
000003a0: c6d3 24bf b6df 583e 651a cdbe d3c6 cabe
000003b0: 607a 3cbe fbd8 a23e 774d eebc 0536 843e
000003c0: b9b6 4e3e 66cd d53e 797a 01bf 8690 c8bc
000003d0: 2539 a53e 2ebb f43e ff6d b23d 9cc1 d23c
000003e0: c5c3 af3e 8103 a03d 0e5b 56be cc4e bdbd
000003f0: 6a66 54bd 3fa7 fbbb f60b a43e b1d1 b73e
0.29754642 0.13709924 -0.053229336 0.082137495 0.140132 0.050463773 0.12262477 -0.31201676
0.17530845 -0.38820913 0.32816365 -0.3329611 -0.5584175 -0.06715493 -0.124384515 -0.018970808
-0.4524766 -0.24069756 0.4436727 -0.11067367 0.38077983 -0.3670966 0.21166329 -0.0983364
-0.58048254 0.11127403 -0.15449978 0.0672012 0.31771812 -0.030568404 0.38923883 0.14469004
-0.029390974 -0.19179915 0.35418698 0.20903972 -0.5990555 -0.38740495 -0.0024248373 0.18730631
-0.028348617 0.49191642 0.13079962 -0.17662679 -0.16409348 0.26858592 -0.3441217 -0.37003696
0.09554385 -0.21608345 0.22410317 0.16519217 -0.06817787 0.4456792 0.3841398 -0.34954128
0.51177716 0.018810771 -0.46108133 0.16471845 0.2946365 0.32029095 -0.3971486 -0.4883893
-0.25235936 -0.03754063 -0.05194991 -0.08021813 -0.2567422 0.3695824 -0.46478713 -0.34746262
-0.35876557 0.41444016 -0.46506774 -0.40727904 0.14695042 0.004695132 0.49000615 -0.33793107
-0.44344056 -0.17518117 0.44935918 0.32556137 -0.39894617 0.35931012 -0.17187446 0.4467553
0.2594138 -0.03866967 0.448054 -0.15230437 -0.5440639 -0.42382038 -0.07344264 -0.1546211
-0.096128605 -0.41648415 -0.32773963 -0.015654435 0.21311605 0.018532345 -0.36747506 0.18955226
0.24972786 -0.07829067 0.064253934 0.1121968 -0.28600478 0.17032686 -0.12621972 -0.2765956
0.38859776 0.0110993385 -0.43990028 0.3144101 0.0344658 0.3562246 0.11055691 -0.42235944
-0.20603402 -0.1667761 0.3685302 -0.12900925 -0.043777127 -0.3442664 -0.14352721 0.18537396
0.39713985 -0.31681788 -0.22966321 -0.262925 -0.06320292 0.1321155 0.11788457 0.07728954
0.11979621 -0.270968 -0.2077974 0.41685826 -0.39150468 -0.005157423 0.44198015 0.24052934
-0.3697573 0.32253852 0.052111264 0.21551488 0.17560792 -0.35276598 -0.3176998 -0.31432343
0.14729671 -0.13852546 0.060477432 0.43424153 -0.04585265 0.03902646 -0.00045350773 0.36935982
-0.5171328 -0.050473515 -0.31175762 0.24191427 -0.16814142 0.19616318 -0.24868909 -0.1928549
-0.019970227 -0.44654456 0.044206817 -0.0661747 0.4841537 -0.43701255 -0.30319312 -0.122240975
-0.17850265 0.15177268 0.29973793 -0.37434232 0.53416324 0.27865034 0.06214235 -0.07519636
0.3668614 0.17548847 0.4410013 -0.038306393 -0.17319044 0.49829635 -0.15008187 -0.18326893
-0.43400827 -0.3416769 -0.20764937 0.099576965 0.5588725 0.03898572 -0.29687312 -0.0075653153
0.10387794 0.30684915 0.14754403 0.3737983 -0.29249027 -0.14405127 0.11157436 -0.15939762
-0.49019715 -0.08559001 0.47155258 -0.3681458 0.037423998 -0.43261302 0.44627377 -0.42968613
0.09262707 0.40209365 -0.055207793 0.30644315 0.08611753 -0.2731608 0.013595191 0.21156797
-0.5137851 -0.11962776 -0.42262712 0.26244715 0.076558374 -0.40326005 -0.43405843 -0.29609045
-0.6438564 0.21179089 -0.400592 -0.39604816 -0.18406057 0.31806168 -0.029089672 0.25822464
0.2018689 0.4175827 -0.50577503 -0.024482977 0.3227016 0.47799057 0.08712386 0.025727086
0.34329048 0.07813168 -0.20933172 -0.09243545 -0.051855482 -0.0076798494 0.32040375 0.3590217

layers.0.bias f4 [128]
00000000: 48ca f1be 2b7b 983e e6cd 1cbd fbbc 493d
00000010: 9bbf eabe f7df efbc ae04 1cbd a44c b7bd
00000020: af5a 833e c1a9 cf3d 7be3 11be 37e2 3fbe
00000030: efa0 9d3e 63df a1be db2f b4be a337 cfbe
00000040: 79e9 d1be 733e c33e efda 84be 1c4d e63d
00000050: ee49 adbe 6c08 babc bb04 b6be 8eeb d03d
00000060: 2d91 e5be ea54 9fbe 33bb b63e 3355 3dbd
00000070: 2a48 8b3e c361 8f3e e675 9f3e 5253 cfbe
00000080: 800b c0bd 1bf0 a33e 986e 63bd 6e16 8cbe
00000090: f043 9b3e 9899 d7be 6e22 e43e 0f4c bebe
000000a0: a94f c13e bc1c cc3d 6964 fb3e a0e2 eabe
000000b0: df49 f7be 692f 06bd f960 f7be ec3a 6bbe
000000c0: 864d f1bc 2a88 d63e b34e 513e ceb3 e53e
000000d0: 904f 423e 9957 edbe 9aaa 063e c11d b73e
000000e0: 6451 383d 18ae 393e 4003 18bd 4483 de3e
000000f0: 6cf1 9cbe 367e 0bbe e9bd 6e3e fb48 d03e
00000100: 58fb 673e 4bdd e63e 39ec e83e 9d21 ff3e
00000110: f7dc fc3c fedd 4d3e 8d18 023f 27d7 ca3d
00000120: 61ac d6be 2af1 2ebe 7f67 27be f7f6 f73e
00000130: 9357 c53e 5e2f c3be 34bb c63e d22c dd3e
00000140: 8299 0d3f 7a6a 0e3e 4790 823e 886d d3bd
00000150: e850 603e 6129 1f3e 56de 5b3e 6525 b1be
00000160: ceef 1b3e 5bcd 8fbe c49d a93d 9c5a ccbe
00000170: fe07 ec3e afa3 ca3d 9e27 bf3e ad2a 5c3e
00000180: 74d7 733c 1c95 f73e c9c2 8e3d 46be c8bd
00000190: a844 bc3e a14d 823d 03af f4be bdc4 cbbd
000001a0: 14e5 e73e 0cae e63e ef98 bd3c 72fa d73e
000001b0: 176a 85be a318 c53e 58b4 8f3e 3012 51be
000001c0: b5c5 8cbc 7c95 8a3d cf02 29be 4d95 26be
000001d0: 80d0 0cbe 4c53 adbe 93e6 a13e 78c9 d03d
000001e0: 9b76 cd3d c0d7 d33e ff87 d1be d097 02be
000001f0: eaff e8be 8650 e7be 27d4 08be 754a 9d3e
-0.4722464 0.2978147 -0.038282298 0.04925249 -0.45849308 -0.0292816 -0.0380904 -0.08950165
0.25655124 0.101398 -0.14246933 -0.18738638 0.30786845 -0.31615743 -0.3519276 -0.40472135
-0.40998438 0.38133582 -0.25948283 0.11245176 -0.33845466 -0.022709094 -0.35550484 0.102011785
-0.44837323 -0.31119472 0.35689697 -0.04622383 0.27203494 0.28004274 0.31144637 -0.40493256
-0.093771935 0.32019123 -0.055525392 -0.27360862 0.3032527 -0.4210937 0.44557518 -0.37167403
0.37756088 0.09966418 0.49100044 -0.45876026 -0.48298547 -0.032760058 -0.48316172 -0.22971696
-0.029455911 0.4190076 0.20440178 0.44863743 0.18975663 -0.46355894 0.13151017 0.35764888
0.044999495 0.18132818 -0.037112474 0.43459523 -0.3065294 -0.13622364 0.23314632 0.4068068
0.22654474 0.45090708 0.45492724 0.49830332 0.030867083 0.20104215 0.5081871 0.09904318
-0.4192839 -0.17084184 -0.16348074 0.48430607 0.38543376 -0.38122076 0.388147 0.43198258
0.5531236 0.13907805 0.255007 -0.10323626 0.21905863 0.15543129 0.21471533 -0.34598842
0.15228197 -0.2808636 0.082820445 -0.3991288 0.46099848 0.098945014 0.37334913 0.21500655
0.014882911 0.4835595 0.06970746 -0.09801917 0.3677113 0.06362463 -0.47789773 -0.09949634
0.4529196 0.45054662 0.023144213 0.42183262 -0.26057503 0.3849536 0.2806728 -0.20417094
-0.017184118 0.06766793 -0.16504978 -0.16267891 -0.13751411 -0.33852613 0.31621227 0.10194677
0.10032388 0.41375542 -0.4092407 -0.12753224 -0.45507747 -0.45178622 -0.1336218 0.3072087

layers.3.weight f4 [256, 128]
00000000: c7d0 3ebd 3512 c53b 7914 aebd 60d2 a9bd
00000010: 200c 843c e747 393c 6abc 393c 61af a3bd
00000020: dcd9 b73d 60f6 c3bd 6090 8dbd 80a7 02bd
00000030: 09d4 96bc cf6d 54bd 5d99 a03d d636 8bbc
00000040: 2b3d 3d3c 2576 9e3d c7f9 553a b57c 973b
00000050: f8c2 57bd 000e 21bc 873c ed3c 073b d1bd
00000060: 8111 383d 5bd0 0e3d ee62 883c 3ba2 4cbd
00000070: 5aa8 1abd bef8 94bd 8bb5 f63c 68c6 d33a
00000080: f3ad 793d d835 7fbd 4f35 f3bb 293c 9ebd
00000090: 91d4 88bd 7e20 6b3d 9c31 833d 3784 f93c
000000a0: fcc7 3fbd ced8 59bd 4597 aa3c dac6 953d
000000b0: 70d7 843d daf7 2bbd 1d37 00bd 2849 6cbd
000000c0: ef3a 803d 05a2 e53d 947a a33b a057 263d
000000d0: 0173 66bd 7eb3 863d c929 023d 49cb 18bb
000000e0: 2489 5ebd a345 e5bc 8c39 b7bd 1d31 6c3c
000000f0: 34f8 2fbc 5a28 96bc 866d a4bc e901 1b3d
00000100: 9337 bebc 958b b43d e757 e43d e71b af3d
00000110: 9855 04bd b625 38bd d0ac c4bc 302d 30bc
00000120: 629f f93c fa54 97bd 2f9d 813d ced6 943d
00000130: 192e b8bb d821 b8bc c607 c93d 34f4 93bb
00000140: 7e64 373d e5a4 b1bc 51b1 36bd 9761 c0bd
00000150: 4ea6 4cbd 4da5 a9bd 8ac6 be3c ff54 a33d
00000160: b2a4 883d 78ee 3fbd b04d 4b3d a350 f03c
00000170: e3eb a73d 3666 3f3d 7b4e 8d3d 3750 5e3d
00000180: 4fba b6bc f608 193b 2525 3a3b 44c0 5cbc
00000190: 914c 5a3d 095a 5f3d 10fe 97bd 14f1 c1bc
000001a0: 1045 88bc 3910 26bc 7722 933c f26d aebc
000001b0: ff21 a4bc c4c4 08bd 7c63 013d 797d e1bc
000001c0: d872 bbbd 24d6 6b3b 351d ed3b b9e4 8cbd
000001d0: 64d0 a73c 6e77 b3bd 32de 9c3d 5a86 b93c
000001e0: 39a0 053c 1d6d 8c3d 45cd 253c 925e 7abd
000001f0: 0931 28bd ea46 e43c c547 8bbc e745 d73c
00000200: 4fc9 773d b109 243d 5982 b9bc 1a43 06bd
00000210: 4d98 7abd d62f 3abd d296 5dbd f650 903d
00000220: 3bf4 15bd 484f 22bd 2fe0 8f3d a76f 6abd
00000230: fc23 8f3d de0f 683c 4c86 cfbb 6bf4 6abd
00000240: b8db aebd e379 093d ef4b a4bd 44e4 b03d
00000250: 24f7 66bc 7725 8bbd a2f1 89ba eee7 123c
00000260: 6c17 8bbd d9c2 94bd 1c4b aabc 7bfe 27bd
00000270: 54e1 db3d c1e0 113d c61a 45bd 755c b2bd
00000280: 7fa1 aabd 3169 3c3d 95a5 073d 7fb5 82bd
00000290: 6508 4c3c 005b 4abd 3a94 b13d d95b 663d
000002a0: e8fc 4fbd 5fa8 bc3b 6fe7 8d3d 35fa 91bd
000002b0: 62ed 2ebd fdfb 33bd d02c 3a3d 67ec 8ebd
000002c0: 89e1 fabc 42a5 033d aa8e 7a3d 08f8 24bc
000002d0: 944d 0ebd dac2 aabb 5ce5 95bd 94f6 89bc
000002e0: f5e3 41bd a8d6 be3d 9cf4 693c 0f96 cc3d
000002f0: 5c24 e5bc 6024 033d 8d71 d23c bdae 40bc
00000300: 9c7b 24bc 8a40 1bbd 709e 7c3d 7975 baba
00000310: 8757 bebd 6589 49bd 65d4 793b 157b 00bd
00000320: 0ba8 7ebc 9a76 17bc bd24 25bd 9187 a23d
00000330: 6468 1dbd 6cab a6bc 8a75 803d f74b b03d
00000340: dc09 483c 86e0 d43c 7a78 343d 038d c9bd
00000350: aa56 943d 0c69 1abd 5655 1c3d 1f6e 0ebd
00000360: 156e 933c ad88 73bd 65aa 8bbd 2e37 f33a
00000370: 151f 263d 7573 77bc 4603 bfbc 4061 a43c
00000380: d9c9 5dbd 5e9e 94bb cf0d 85bc 5325 9a3d
00000390: 384d c93d adc2 a5bd ed02 adbc f8da 4e3d
000003a0: 833e 203b 4fe3 ad3d c9b5 e7bc 56a5 173d
000003b0: d256 acbd fa7f 4dbd 4ff5 803c 9ce5 9cbd
000003c0: c8aa b2bd 7fec 91bd b956 ca3b 9734 443d
000003d0: 167f 62bd 6911 95bd b5d1 f5ba 1826 1b3d
000003e0: 05e4 4c3d e676 09bc 3480 953c 277f 303d
000003f0: bd61 8b3d 8fd7 58bd 2d0c 1b3d bd8d 91bc
-0.046585824 0.0060141333 -0.084999986 -0.08292079 0.016119063 0.011308647 0.011336425 -0.07992435
0.089771 -0.09568477 -0.06912303 -0.03189802 -0.018411653 -0.051862534 0.07841752 -0.016993921
0.011550228 0.07737378 0.0008162525 0.0046230205 -0.05267617 -0.009829998 0.028959526 -0.10216337
0.044938568 0.034866672 0.016648736 -0.049959403 -0.03775821 -0.07274006 0.030115863 0.0016157152
0.060956907 -0.06230721 -0.0074221264 -0.077263184 -0.06681169 0.057404034 0.064059466 0.030458553
-0.04682158 -0.053185277 0.020824084 0.073133186 0.06486404 -0.041984417 -0.03130256 -0.057686955
0.06261241 0.112125434 0.0049889777 0.04061091 -0.05626202 0.06577204 0.03177813 -0.0023314527
-0.054330006 -0.027987307 -0.08946523 0.014416006 -0.010740329 -0.018329788 -0.020071756 0.03784362
-0.02321986 0.08815686 0.111495785 0.08550244 -0.03230819 -0.04495784 -0.024008185 -0.010752961
0.030471507 -0.07389255 0.063288085 0.07267533 -0.0056207296 -0.022477075 0.09815936 -0.0045151953
0.04477357 -0.021685073 -0.044602696 -0.09393614 -0.049963288 -0.08283482 0.02328803 0.07975196
0.06672038 -0.04685828 0.049634635 0.029335326 0.08199289 0.046728335 0.068997346 0.054275718
-0.022305636 0.0023351288 0.0028403488 -0.013473574 0.053295676 0.054529224 -0.074215055 -0.023674525
-0.016634494 -0.010135704 0.01796077 -0.02129266 -0.020035742 -0.033390775 0.031589016 -0.02752565
-0.09152764 0.0035985792 0.0072361478 -0.06879563 0.02048511 -0.08763014 0.07659568 0.022647072
0.008155876 0.06856749 0.010119741 -0.061125346 -0.04106239 0.027865846 -0.017001996 0.02627845
0.060494717 0.040048305 -0.022645162 -0.032778837 -0.0611804 -0.045455776 -0.05409891 0.07046692
-0.03660987 -0.03962639 0.070251815 -0.057235386 0.06989285 0.014163939 -0.006333148 -0.057362
-0.08538002 0.033563506 -0.08022296 0.08637288 -0.014097009 -0.06794255 -0.0010524283 0.008966429
-0.06791577 -0.07263727 -0.020787768 -0.041014176 0.10736337 0.035614733 -0.048121236 -0.08709041
-0.08331584 0.045998756 0.033116896 -0.06382274 0.012453173 -0.04940319 0.0867085 0.056239937
-0.0507783 0.005757376 0.06928908 -0.07127801 -0.042706855 -0.043941487 0.045452893 -0.06978684
-0.030625122 0.032140024 0.06117121 -0.010068901 -0.034741953 -0.0052112164 -0.073191375 -0.01684121
-0.047336537 0.09318286 0.014279511 0.09989559 -0.027971439 0.03201711 0.02568891 -0.011760411
-0.010039236 -0.037903346 0.061674535 -0.0014225683 -0.09294038 -0.049203295 0.0038120982 -0.03136738
-0.015542994 -0.009244585 -0.04031824 0.079360135 -0.038429633 -0.020345412 0.06272419 0.08608239
0.012209382 0.025985967 0.044060208 -0.09841349 0.07243092 -0.037697837 0.03816732 -0.03477299
0.017996827 -0.059456516 -0.068196096 0.0018555874 0.040556986 -0.015103211 -0.02331699 0.020065904
-0.054147575 -0.0045354804 -0.016241936 0.0752665 0.098291814 -0.08093772 -0.02111956 0.050501794
0.0024451322 0.08490621 -0.028284924 0.03702291 -0.08414997 -0.050170876 0.015741972 -0.07660982
-0.0872398 -0.07125186 0.006174889 0.047901716 -0.05529698 -0.07278711 -0.0018754514 0.037878126
0.050022144 -0.008390164 0.018249609 0.043090012 0.068057515 -0.052939948 0.03785341 -0.017767781

layers.3.bias f4 [256]
00000000: 8197 2e3d 0951 99bc 1644 ccbc 4448 8cbd
00000010: 752d 9c3b 20e2 083e 5e26 063e b41d 203d
00000020: 878d 543c 109d 8bbd e607 a0bd 9846 0b3c
00000030: 2fd2 f03d edb8 933d ac0c 9cbd 4550 dd3d
00000040: 1747 c7bc 9695 543d c3c2 713d bbdc 50bd
00000050: 8af6 b3bd f69f 953d f9e9 ef3d e45b 903c
00000060: b28c d63d b2bd bf3d 8c55 223d 93d2 943c
00000070: ed69 ef3c c795 1b3e 2962 9fbd deb8 ab3d
00000080: c886 2e3e 8ea8 eb3b 47b0 8f3d 504b 0a3e
00000090: ea44 7b3d 008d 03bb d675 1b3e 3890 c83d
000000a0: 6527 b4bb 42e6 f03c 0373 913b e791 803c
000000b0: 1c66 7e3d 23d5 9f3d 8ef4 5abd 50af c53d
000000c0: d452 a23d 16ac afbc d55d 23bc 166c eabc
000000d0: 1400 553d 337a f93d 159b e73d 2f2c b8bd
000000e0: 4435 6dbd 1305 013e 881f 59bd d796 5bbd
000000f0: 77a6 7c3c 0d79 f5bb a0ad a2bd 8e9a e939
00000100: ae26 e23d 1cfb 2fbb aac2 b5bd 7b51 a93c
00000110: 5dc4 4d3d b49c 95bc 027c 943d f063 c23d
00000120: e06e bebd 6995 363e ef27 2e3c 90d7 cf3d
00000130: 0423 753c 36f8 9ebd e4a7 873d a262 7c3c
00000140: 9d61 e4bc d787 c9bb 842b bf3d b739 973b
00000150: d877 a0bd cfbc 5ebd d0f7 2fbc 0eb7 033e
00000160: de6e be3d 6f29 9a3c 825a 78bd b771 b73c
00000170: cc52 7abd d62e 58bc 083a 803d 66f2 853d
00000180: ae4f 5d3d 246e d83d c4bd 95ba 598b 123e
00000190: 0c88 a73d 2f55 533c a385 043e c5ed 253e
000001a0: 1918 0ebd 795b 543d 29ab 59bc 1547 a53d
000001b0: 6e95 ea3d 2841 6a3d d1be 82bd 6ae9 91bd
000001c0: 7a1f 3e3d bfa6 c03c 0046 69bd a2ef c5bb
000001d0: 758c 94bd 9e7f 133d 35c5 d6bd 48fa d1bc
000001e0: a785 7e3d 0cda 973c f666 81bc 2005 083d
000001f0: ba18 7f3d f60c 65bd a714 b9b9 89bd 253c
00000200: a95e 5c3d 8c15 b1bd 9000 e6ba 0520 063d
00000210: da46 23bb d602 02bc d477 86bc bb5b 363e
00000220: 8cc2 5e3d a1c5 b73c d220 943d 23c8 8cbb
00000230: 602b a03d dd0c 9d3a 718e f2bc c350 bdbc
00000240: 3699 a63d aeb8 403c c224 893d 8836 67bd
00000250: de05 6abd d382 203e 47a9 06bd c1b2 a6bd
00000260: e068 a43d 21e9 8c3d 46e6 0e3d ffa9 a73d
00000270: bb5f 7abd 1114 b43d 034e 28bc ad73 94bc
00000280: 2703 0d3e 5228 73bd 6ba5 e53d 7a22 b8bc
00000290: 78a7 27bd 4050 9fbd 9c21 fd3c c7e2 0d3e
000002a0: e5d9 823c 27d1 383d 8b10 69bc 6e38 d8bc
000002b0: d397 553d e644 1b3d 7fc0 633d 6235 40bd
000002c0: d4b0 febc 72f6 5f3d 0c03 553d cb2d 3bbc
000002d0: 66e5 533c 7c52 66bd f58d 5e3d 6428 033d
000002e0: b4ca 553c bac6 4ebd eb2d 68bd 5ee3 ae3c
000002f0: e5ae 0cbd b679 383d f56f 093e 7416 543c
00000300: bedd 80bd 7bec 4a3d cc10 85bc 65b1 e03d
00000310: f9d5 823d 5f53 253c 5680 46bd 9041 0c3d
00000320: fac2 9a3d 3bbf 233e d9c1 fd3d 98eb 783c
00000330: 165e 97bd d2c7 6ebd 67e3 7cbd c5f0 aebd
00000340: 6214 753d 930b c33c 9c4b 413e d54d 97bc
00000350: f92b 003e 8fdc 19bb 8fec fc3d 137d 1f3a
00000360: 9730 773d eae4 df3c 6af3 5abc e4a5 80ba
00000370: 35c1 39bb 6a93 ef3c 1aa2 2dbd 6c5e 003e
00000380: fe20 75bd bbbd 893d 9388 a43d d395 ccbc
00000390: afbe 2fbd 8d6d d83c 17db ba3d a94a 103e
000003a0: f4d3 4bba bb3b 093d 65d2 573d 437e 923d
000003b0: 18d1 163d d26f 8e3d 9937 c53d b6f9 9b3d
000003c0: c66a 483d 9e82 17bd 23eb b03c 3313 bf3d
000003d0: 20d5 96bd 7fa0 6a3d 0157 283c 662f a9bd
000003e0: 985f 5bbd 8ac1 25bd 537f 253e dd89 2b3d
000003f0: 4e4f df3d 20dc 00bd 4b3d 92bd 5d21 893d
0.042624954 -0.018715398 -0.02493481 -0.06849721 0.004766161 0.1336751 0.13100573 0.039090827
0.012973196 -0.06817067 -0.078140065 0.008500718 0.11758839 0.07213006 -0.076196045 0.10806326
-0.02432589 0.05190047 0.05902363 -0.050991755 -0.08787258 0.07305901 0.117145486 0.017621942
0.10476054 0.093623534 0.039632365 0.018166816 0.029225314 0.15193854 -0.077823944 0.0838487
0.17043602 0.007191724 0.07016044 0.13505292 0.06134502 -0.0020073056 0.1518167 0.097931325
-0.0054978603 0.02940667 0.0044387593 0.015694572 0.062109098 0.078043245 -0.05345588 0.09652579
0.079259545 -0.021444362 -0.009971102 -0.028615993 0.052002028 0.12181511 0.113088764 -0.08992802
-0.057912126 0.12599592 -0.053008586 -0.05361065 0.015420548 -0.007491237 -0.079432726 0.00044556375
0.11042534 -0.0026852554 -0.0887502 0.020668736 0.050236095 -0.018263198 0.07250215 0.09491718
-0.092984915 0.17830433 0.010629638 0.10148537 0.014961962 -0.07762186 0.066238195 0.015404375
-0.027878577 -0.0061502266 0.09334472 0.0046150344 -0.078353584 -0.05437928 -0.010740235 0.12862799
0.0929849 0.018818585 -0.06063319 0.02239309 -0.061114118 -0.01319476 0.062610686 0.065403745
0.054031067 0.10567883 -0.0011424352 0.1431097 0.08180246 0.012898727 0.12941603 0.16203983
-0.03469095 0.051845048 -0.013285437 0.080701984 0.11454283 0.057191044 -0.063840516 -0.07124598
0.046416737 0.02351701 -0.056951523 -0.0060405293 -0.072533526 0.036010377 -0.10486833 -0.025632039
0.06213918 0.01853659 -0.015796166 0.033208013 0.06227944 -0.055920564 -0.00035301337 0.0101159895
0.053801212 -0.08646688 -0.0017547775 0.03274538 -0.0024914057 -0.007935246 -0.01641456 0.1780843
0.054384753 0.022433104 0.072328225 -0.004296319 0.07820773 0.0011981983 -0.029608937 -0.0231098
0.081346914 0.011762781 0.06696464 -0.05644849 -0.0571345 0.15674905 -0.03287628 -0.08139563
0.08027816 0.06880403 0.034887575 0.08186721 -0.061126452 0.0879289 -0.010272506 -0.018121565
0.13770734 -0.059364624 0.112131916 -0.022477377 -0.040931195 -0.07778978 0.030899815 0.1385604
0.01597304 0.04512134 -0.014225136 -0.026394095 0.052146744 0.037907504 0.0556035 -0.04692591
-0.031090178 0.054678388 0.05200486 -0.011424492 0.012933111 -0.056231007 0.0543346 0.03202094
0.0130488165 -0.05048249 -0.056684416 0.021348651 -0.03434648 0.045037948 0.13421614 0.012944806
-0.06292294 0.04954193 -0.016243361 0.10971335 0.06388468 0.010090678 -0.048462234 0.034242213
0.0755672 0.15990917 0.12390489 0.015192889 -0.07390992 -0.058296032 -0.061740305 -0.08542017
0.05983389 0.02380923 0.18876499 -0.01846973 0.12516774 -0.002347741 0.123498075 0.0006084006
0.060349073 0.027330834 -0.0133636985 -0.0009815064 -0.002834392 0.029245097 -0.04239092 0.12536019
-0.059845917 0.06725641 0.08033862 -0.024973786 -0.04290646 0.026419425 0.09123819 0.1409098
-0.0007775419 0.03350423 0.052690882 0.07152989 0.0368205 0.06954922 0.09629745 0.07615988
0.048929952 -0.0369898 0.021596497 0.09329834 -0.07364869 0.057281967 0.01027465 -0.08260994
-0.053557962 -0.040467776 0.16161852 0.041879524 0.10903798 -0.031459928 -0.07140597 0.06695817

layers.6.weight f4 [256, 256]
00000000: 8f8d 94bc 0e3e 7f3d 313c 4b3d 29a1 b13c
00000010: 80e6 17bc 41f0 67bd 5176 eb3c 9b91 433d
00000020: f1f2 08bd c005 3abd 46d9 b83b e790 5a3c
00000030: 735f 2b3d 1167 023d 0422 cfbc e9e5 51bd
00000040: 32d2 43bc 97c9 143d 4cd7 23bd e6f2 87bb
00000050: 5687 3ebd 9329 20bd 35e3 563d c6fb 7d3d
00000060: cb2b 303b ddb0 223d 7078 51bc e583 4d3d
00000070: 83e2 38bd 021d f83a a213 413d ab26 57bd
00000080: 49de 8fbc 94f4 2d3d 3156 633c 0da3 70bd
00000090: 6275 dcbb 38a9 cb3c d734 e7bc 6eb4 a9bc
000000a0: 5c64 533d a24f f23c 02a5 203c 72f8 b0bb
000000b0: 5e3f 30bd d1cc 2d3c d646 d5bc 4bdf 00bd
000000c0: 8e89 13bd 121e cbbc 171d 48bd 6bd0 df3c
000000d0: 70a5 983c 5354 e9bc 5636 02bc f786 e5bb
000000e0: 02f2 4b3d 3884 b23b 9061 7abd 536e f5bc
000000f0: bdee e13c 41f6 883c 42cc e7bc 56b2 7b3d
00000100: 6a95 e0bc 262a 73bc 6a7c 733b cedb 823c
00000110: 2f24 d3bc ccd8 213c 02b1 acbc b17e 56bc
00000120: 342b 0ebd 5e42 45bd 5cf0 dbbc 4fbd 4a3d
00000130: c4fd 373d 3007 a5bc f14f 783d 7149 03bd
00000140: 8491 8e3c 4088 2fbd 18e5 1b3d 32f8 3d3d
00000150: 58cd ae3c 409f 323d 034e e03c b956 11bd
00000160: 40d1 293d e493 e83c d256 9ebc 1b46 0b3c
00000170: 520e 383c f6e9 e33c 7253 a8bc fa09 8b3c
00000180: acf1 583d 9778 35bd cab1 623d b27c 49bd
00000190: ce0e 2f3c 27ff 423d 6dc1 1cbc d72a 693d
000001a0: bf8f 1abd 563b 3bbd 2534 2ebc af5d 7f3b
000001b0: 60ac 59bd 4347 513d 980a d13c a4d2 6abd
000001c0: 863f b3bb a35d 14bd e048 16bc 6992 64bd
000001d0: 8b5d 6cbd 3f18 00bd ca1d 1f3d 31c3 eebc
000001e0: 50c5 703c a4d9 22bd c2d4 25bd b7ac 2bbd
000001f0: 1e95 7fbd 4a87 2c3c 0266 0fbd 48be b1ba
00000200: 100f 95bc d57f 4dbd 3cf4 bd3c 9cce 443d
00000210: 58fd e93c 4a86 6dbd 1a9a 33bc 95a1 49bd
00000220: 08a3 dbbc 1e4f 483d 02e9 37bc 3b27 613d
00000230: b336 e93c 9bf5 b7bb fdf0 533d c19e 66bb
00000240: dcde 2ebd 7541 253d 7e8a 193d 9197 93bc
00000250: 5732 613c 9092 583d bd97 0f3d b8a6 1e3c
00000260: 75ba bbbc 758d 253d ceba e6bc 866f 95bc
00000270: 1d2d 08bc 1837 55bc 5d34 73bc 1e5a 31bd
00000280: 0e9d dd3c 2829 3d3d fb26 29bd b189 7fbd
00000290: d506 6c3d 4f17 053d 1b00 43bc 45c3 b4bc
000002a0: e9b7 d2bb 2537 45bd 9e62 f13c 1e37 13bd
000002b0: 693a 213d 988e 61bd fde4 173a e222 6c3d
000002c0: 88e5 3dbd b9ce 65bd f6dd 0abd a4c5 de39
000002d0: 6221 20bb abeb 193d cc03 45bb 0884 8bba
000002e0: 07fe 83bc 7b34 15bd e22e 5dbc 5dcb 8abb
000002f0: dc3b 83bb 1042 a2bc a15e 333c 5c01 56bd
00000300: d154 b83c a092 3b3d d574 593d d699 1d3d
00000310: 74f2 50bd d493 6a3d 58fd 7abd 45e5 033d
00000320: 8f90 a5bc 5800 acbc 6645 4c3d 4062 68bd
00000330: e624 053d 95e1 0cbd 1a39 27bd 75f4 ab3c
00000340: 03ef 24bd 6a2b 2abd eb4e 5c3d aab3 03bd
00000350: 076e 67bd f8af ba3c abef fe3c 20e9 9b3c
00000360: 5d65 be3c 7640 5cbd c98f 043d 8fac 1a3d
00000370: 4281 74bd 4d9e 413c b0ea 2b3d d303 24bd
00000380: 8837 49bd 509a 153c 94c1 7ebd 38de 433d
00000390: 8429 6a3c 7537 0f3d 53dd 453d 8aae cf3c
000003a0: 89b4 37bd 34ea debc 47e9 193d 75b1 62bc
000003b0: bd14 2d3d 9e6b 59bd d3ab 36bd 9fe3 97bc
000003c0: f2d6 0f3d eef4 af3c 85b3 babc c810 c1bc
000003d0: d1de 6f3d ad80 cebc ae12 043d b70b c4bc
000003e0: 81f6 333d 58d1 303d f601 4bbd 68f0 0cbd
000003f0: d492 f0bb da2b 903c f96a a2bc 7122 88bc
-0.018133907 0.06231504 0.04961795 0.021683292 -0.009271264 -0.05662561 0.028742941 0.047746282
-0.033434812 -0.04541564 0.0056411354 0.0133402115 0.041839074 0.031836573 -0.025284775 -0.05124465
-0.01195197 0.036325064 -0.040000245 -0.004148829 -0.046515785 -0.03910215 0.052462775 0.062007688
0.0026881571 0.03971945 -0.012785062 0.050174613 -0.045137893 0.0018929543 0.047137864 -0.05252711
-0.017562049 0.042469576 0.01387553 -0.058749247 -0.0067278603 0.024860963 -0.028223438 -0.020715918
0.051609382 0.029578988 0.009804966 -0.0054007107 -0.04302918 0.010607914 -0.026034754 -0.03146295
-0.036019854 -0.024794612 -0.048855867 0.027321061 0.018633574 -0.028482592 -0.007947525 -0.0070046145
0.049791344 0.0054478906 -0.0611282 -0.029959833 0.02757966 0.016718986 -0.02829564 0.06144937
-0.027414996 -0.014841592 0.0037153014 0.015973952 -0.02577409 0.009878349 -0.021080498 -0.013091729
-0.03470917 -0.048158996 -0.02684801 0.049496945 0.044919744 -0.020145029 0.060623113 -0.03205246
0.017403372 -0.042854548 0.038060278 0.046379276 0.02133815 0.043608904 0.027380949 -0.035483096
0.041459322 0.028390832 -0.019328509 0.008500601 0.011233883 0.027821522 -0.020547602 0.01697253
0.05296485 -0.044304457 0.055345334 -0.049191184 0.010684682 0.047606613 -0.009567601 0.05692562
-0.037734743 -0.045710884 -0.010632549 0.0038965752 -0.053142905 0.05109335 0.025517747 -0.05732979
-0.005470219 -0.03622211 -0.009172648 -0.05580369 -0.057706397 -0.031273123 0.03884677 -0.029145809
0.0146954805 -0.03975834 -0.040486105 -0.04191276 -0.06239807 0.010530302 -0.03500939 -0.0013560737
-0.018195659 -0.05017074 0.02318775 0.0480486 0.028563187 -0.057989396 -0.010962034 -0.049226362
-0.026811138 0.048903577 -0.011224987 0.054969054 0.028468465 -0.0056139953 0.051743496 -0.003518984
-0.042693004 0.040345628 0.037485592 -0.018016608 0.013744912 0.052874148 0.03505682 0.009683304
-0.022916058 0.040418107 -0.028165247 -0.018241655 -0.008311537 -0.013013624 -0.014844027 -0.043298833
0.027052429 0.046181828 -0.04129694 -0.062387172 0.057623703 0.032492932 -0.011901881 -0.022065768
-0.006430615 -0.048148293 0.02946597 -0.035941236 0.039362345 -0.05506763 0.0005794315 0.057650454
-0.046361476 -0.05610535 -0.033903085 0.00042490393 -0.002443396 0.037578266 -0.0030062078 -0.0010644207
-0.01611234 -0.036427002 -0.013499947 -0.0042356686 -0.0040049385 -0.019806892 0.010947854 -0.05224739
0.022501381 0.04579413 0.053089935 0.038476788 -0.05101247 0.057269886 -0.061276764 0.03220107
-0.020210532 -0.020996258 0.04987087 -0.056734324 0.032505892 -0.03439482 -0.04082594 0.02099059
-0.040267 -0.04154531 0.0537862 -0.032153763 -0.056501415 0.022788987 0.031120142 0.019032061
0.023241693 -0.053772412 0.032363687 0.03776222 -0.059693582 0.011817527 0.041971862 -0.04004271
-0.049125224 0.009131029 -0.06219633 0.047819346 0.014292125 0.034964997 0.048306774 0.025351781
-0.044849906 -0.027211286 0.037575986 -0.013836254 0.042256106 -0.053081147 -0.044597458 -0.018541155
0.035117097 0.021479096 -0.02279068 -0.023567572 0.058562104 -0.025207842 0.032244377 -0.023931367
0.043936256 0.043168396 -0.049562417 -0.034408957 -0.007341722 0.017599035 -0.0198264 -0.016617985

layers.6.bias f4 [256]
00000000: ba98 013c 68e9 0c3d 9a2f 69bc b538 933d
00000010: a82a 6c3d dc93 58bd 5042 013e 8879 df3d
00000020: 449c 983d 41a0 38bd 38e5 5fbd 6e62 00bc
00000030: 7c46 0b3e 0689 013e b62d 803c d17f 7d3a
00000040: 0541 033d 1022 1d3c 9f4b e8bc 54d9 3dbd
00000050: a595 213d 1810 273d 177a b63b 2da0 adbc
00000060: 2258 213e 429d 16bd 852b a3bb 606e 043c
00000070: 2239 0c3e ba7d 2ebd 7b19 94bb 1618 5cbd
00000080: eaaa f33c 5cc0 63bc 583b 65bc 2bf5 cf3c
00000090: f70c 7ebd 7ddf 16bc 19b5 5abc fd0c 3c3e
000000a0: 7af3 56bd 1020 013d 5691 46bc 2011 183c
000000b0: 887f c5bc 23bc 82bd b172 59bd 094f ee3d
000000c0: b228 233e 2a5e a63d b696 903d 22fa 84b8
000000d0: d96c 9b3a db1b febc 79c3 afbc 848d 563d
000000e0: f151 293b 4550 c23d 7a3b e03b b9e7 d6bc
000000f0: af27 083d 211e 3abd a43f 6dbd b0ab 7a3c
00000100: 3118 ad3d 5fc7 093c 132b 1abd 2235 d43b
00000110: 4bfe 4dbd 7888 f5bc b7f3 273e e5c1 cabc
00000120: 7fd7 00bd d102 0ebd c1a4 1a3d c804 d43b
00000130: 5973 3cbd c930 653b 5b31 27bc 3631 e63c
00000140: b471 4a3d bb26 afbb 41c4 bf3c 038d 11bd
00000150: c5dc 3fbd b68f 29bd 982e cf3c abd7 733d
00000160: 9717 ed3d 305c ab3c 501c 033d b300 46bd
00000170: 85c1 75bd 8334 9abc 4d5f 003e 1804 173e
00000180: 3db5 59bd 9d3b 2a3c 74e4 8bbc 7f02 cfbc
00000190: f8e4 aa3d e7e2 803c 6c54 2fbd 1692 c43d
000001a0: e8d6 66bd 414a 10bd 324c 2b3d 7cd8 bfbc
000001b0: 00f0 24bd 3dfd 5bbc dc94 a33c c8b5 1bbd
000001c0: f96a d03d 1847 a83c 6040 2b3e 2f5e 963d
000001d0: 756f f43d b97d 77bc 0309 7e3d 3203 103d
000001e0: 6917 00bc 7728 5b3d a159 373e 65ef d43d
000001f0: 8c2d 923d 675f 3cbd 1ec8 083d ac58 74bd
00000200: 175f 723c 7848 ecbc a022 52bd 1477 1dbd
00000210: 4f83 3e3e 3964 29bc fb7c e63c 73e1 32bd
00000220: 32c1 3b3d 2213 063e d64e 0fbb 7b13 9bbb
00000230: 2f8b aa3d 4b62 8bba 13e0 133d 4f9d 473b
00000240: d5cd 193e de78 913b e244 933c f262 963d
00000250: 771b 9d3a bd1f c53d fe0d 8b3d bb7d 92bc
00000260: 5adc b93d c3be 32bd 4ea6 c43d fb31 07bd
00000270: 95bc 02b8 db52 0c3d 81e4 63bc afe0 7abd
00000280: 689a 153d d2b2 81bc cbb0 b73c 38f5 2b3d
00000290: 8fd5 943d e07f 853d 65a2 a33c be55 b9bc
000002a0: 6b13 a43d 44dc 893c b84c 223c 69a2 023e
000002b0: 0737 12bd 8096 6dbc 4970 bd3d 4840 013d
000002c0: 30a0 f43d 54ea fd3c d763 283d 0456 dc3d
000002d0: ce84 003e 753f 00bd 83a8 26bd e0d1 e1bc
000002e0: 36ec ab3d 1d12 0c3d a12f 413d acc7 163d
000002f0: 62aa 093d 6cb5 c3bc d93c 553c 57c8 3c3d
00000300: f3b2 f63c af5d e0bc 4695 15bd 2e1e 72bd
00000310: 218a ee3b 1d53 753c ae19 a439 4cd4 98bc
00000320: 220f 59bd 9151 a93c 607b 213e 2f2a 023d
00000330: 47f1 9f3d 5883 3d3d a23b 50bd a6be 653d
00000340: 2bd0 c83d de23 1fbd 9b79 a2bc 0511 25bd
00000350: 0478 d0bc 970d 2dbd 41d4 2c3d 4967 a33b
00000360: 0564 4e3d 4148 ef3c 1d94 5bbd 1b25 ca3d
00000370: 3e43 e9bc efb0 f23c 2656 ca3c 239c 6dbc
00000380: 76a9 163d 0913 e4bb b74a cd3d 4a85 3a3c
00000390: 3297 a6bc 563c 81bd 346e bb3c 9603 74bd
000003a0: dabf e03c 2e82 2d3e 1dcd ed3b c9c7 133d
000003b0: 845c 58bc c3d1 d03c e80b af3c 3144 383c
000003c0: 2a32 e837 4fe8 243e e60b 583d 8cda e03c
000003d0: 6c8a d53c ccbe 4abd ec34 923d d41b 6dbd
000003e0: 9541 973d 559a cdbc cd6c 2c3d 1f5e 043e
000003f0: 088e 8cbd 2a1b 673c d757 923d 23fd 3cbc
0.007909948 0.03440228 -0.0142325405 0.071885504 0.057657868 -0.052875385 0.12622952 0.10911852
0.0745168 -0.045074705 -0.05466196 -0.0078359675 0.13601106 0.12649927 0.015646797 0.000967023
0.03204443 0.009590641 -0.028356371 -0.04634984 0.039449353 0.040786833 0.0055687535 -0.021194542
0.15756276 -0.036771066 -0.004979553 0.008082956 0.1369367 -0.04260037 -0.004519639 -0.053733908
0.029744584 -0.0139008425 -0.013991199 0.02538546 -0.062024083 -0.009208557 -0.013348841 0.1836433
-0.05247829 0.031524718 -0.012119612 0.009281427 -0.024108663 -0.063835405 -0.053087894 0.116361685
0.15933493 0.08123429 0.07059996 -6.340841e-05 0.0011858001 -0.031019142 -0.021455513 0.052381054
0.0025836194 0.094879664 0.0068430277 -0.02623354 0.03324097 -0.04543889 -0.05792202 0.015299723
0.0845188 0.00840935 -0.037638735 0.0064760605 -0.05029134 -0.0299723 0.16401564 -0.02475066
-0.031455513 -0.034670655 0.037754778 0.0064702965 -0.04600844 0.0034971705 -0.010204638 0.028099637
0.049424842 -0.005345193 0.02340901 -0.03553487 -0.0468414 -0.04139682 0.025290772 0.05953185
0.11576765 0.020917982 0.032009423 -0.04834051 -0.059999008 -0.018823868 0.12536354 0.14747655
-0.053151358 0.0103901895 -0.017076708 -0.025269745 0.083444536 0.015733195 -0.04280512 0.09598176
-0.056357294 -0.035227064 0.041820712 -0.023418657 -0.040267944 -0.013427076 0.019968443 -0.038015157
0.101766534 0.020541713 0.16723776 0.07342183 0.11935321 -0.015105658 0.062020313 0.035159297
-0.007818081 0.053505387 0.17905284 0.103972234 0.071375936 -0.04598942 0.03339397 -0.059654877
0.014793179 -0.02884315 -0.051302552 -0.03844364 0.18604778 -0.010338836 0.028135767 -0.043672036
0.045838542 0.13093236 -0.0021867058 -0.004732547 0.083273284 -0.0010634152 0.036102366 0.0030458753
0.15019925 0.0044394573 0.017977182 0.07343091 0.0011986335 0.09625194 0.06789778 -0.017882219
0.09075232 -0.043638956 0.096020326 -0.03300665 -3.1170046e-05 0.034258705 -0.01390946 -0.06124943
0.036524206 -0.015832338 0.022423169 0.041981906 0.072672956 0.06518531 0.019974897 -0.022623893
0.08011516 0.016828664 0.0099059865 0.12757267 -0.03569701 -0.014501214 0.09249932 0.031555444
0.11944616 0.030995525 0.04111084 0.10758594 0.12550661 -0.031310517 -0.04068805 -0.027565897
0.08394663 0.03419696 0.047164563 0.036811516 0.033609755 -0.02389022 0.0130149955 0.046089496
0.030114627 -0.027388422 -0.03651931 -0.059110813 0.00727965 0.014973429 0.0003129965 -0.018655919
-0.052992947 0.020668777 0.1576972 0.03177851 0.07809692 0.046267837 -0.05083812 0.05609002
0.0980533 -0.038852565 -0.019833377 -0.040299434 -0.025447853 -0.04224929 0.04219461 0.004986678
0.050388355 0.029209258 -0.05360805 0.098703586 -0.028474446 0.029625384 0.024699282 -0.014502558
0.036782704 -0.006960277 0.10024016 0.011384318 -0.020335767 -0.06310336 0.022879697 -0.059573732
0.027435232 0.16944191 0.0072571174 0.0360792 -0.013205651 0.025490647 0.021367982 0.011246727
2.7679915e-05 0.16104244 0.052745722 0.027447961 0.026066981 -0.049498364 0.07139 -0.057887867
0.07385556 -0.025098005 0.042095948 0.1292653 -0.06863028 0.0141055975 0.0714566 -0.011534962

layers.9.weight f4 [480, 256]
00000000: 1679 04bd 7b10 283d 2278 c3bc c89d 3bbd
00000010: 96e0 17bd b2b6 8ebc 8cb5 9f3c 28f7 b4bd
00000020: de3e e63c 5c90 14bd 5c8e 813c 2cb2 0d3c
00000030: 3b6e 5d3c a021 eebc e350 9a3b 1707 313d
00000040: 83c7 72bd dda7 59bc d38b 233c 4f66 813d
00000050: f59f 2cbc f70b 443c f391 a7bb 8512 203d
00000060: a79f 8bbc c8f5 5dbd 42d1 bb3c fc63 1bbd
00000070: ef0e 7abd 2b19 f4bc c173 7a3d 5825 01bc
00000080: 6831 24bd 99b3 083d 40f6 9c3c 475d 213d
00000090: bb3e 633d 80fc 9e3c 0b59 96bc 279d debc
000000a0: f9c4 533d 2c2c f8bc 7a59 763c b728 7fbd
000000b0: 4236 813b 1db8 873c b17d 63bd f4df eebc
000000c0: 3d7e 6fbd dec6 313d 4b90 c13c 2b87 af3b
000000d0: 3e06 d5bc 2c74 e63c f888 4c3c f96d 4bbc
000000e0: ed4b f3bc a50c 85bd f8b9 353d 3097 733d
000000f0: 4cf7 123c 7e04 d13c 5daa 37bd 5a59 39bc
00000100: e559 85bd 85cd 353d 003b e53c a2e1 fb3c
00000110: 0a8b 773d 942d 2cbd 9222 6dba 1c56 54bd
00000120: 795e 353d 671a 453d d8a1 edbc 7293 83bd
00000130: 8773 91bc 22a7 61bd 0e80 57bd 11b1 c2bc
00000140: c49b bf3c 3638 2e3d 8c10 5d3d ea74 5e3d
00000150: beec afbc 26b3 a0b9 27e1 3abd 6ccd 27bd
00000160: 1165 e03c 6918 96bd f56d 483c 6f72 75bd
00000170: a2cc 34bd afc0 893d 107e 973b aa43 893c
00000180: 5eaf 213d 50d4 063d c4f1 7c3d 977a 3d3d
00000190: 82e8 12bd ac85 1fbd c906 0cbd ccf8 fabc
000001a0: 189a fa3c e359 f4bb 96a2 be3c dd6c 0a3d
000001b0: f778 b63c bbd9 6dba c6ac 013d db04 56bd
000001c0: 35eb d93c 6456 b6bc 5cd8 a2bd 84b1 26bd
000001d0: 05bb d6bc 2ac2 27bd 21c6 b2bc b6e9 46bd
000001e0: be70 fcbc 9f29 383d 27f4 14bd a674 21bd
000001f0: 16fe 5f3d 2aa2 17bd d494 75bd 9315 893c
00000200: eb54 07bd 3516 f3bc 71f2 103d 8db6 773d
00000210: d77e 093b d0f7 02bd 3da5 87bc af30 153c
00000220: a17d c23c fe4a 42bd 1bc9 1abd 9a65 163d
00000230: eccc 4cbd dc93 40bd 80d3 5ebb 1808 203d
00000240: 45d5 3c3b 4e2c 003d c780 65bd 16e4 dfbb
00000250: 0449 613d 2d1f 03bd 1857 0a3c 81c4 3bbc
00000260: dba3 ccbc 1b9b 133a 29b9 9fbd 2cf3 5fbd
00000270: 8433 57bd e488 37bb ff16 003b 72c1 40bc
00000280: fd19 263d 09ed 69bd 9cc8 46bd e610 0b3d
00000290: 0524 53bd 27e7 fdbc dc1a 26bd 1ab8 1a3d
000002a0: b2e4 883d 9080 9bbc c762 063d 2381 4e3c
000002b0: 0098 0cbd f6ba 823c 1f59 f6bc 4793 163b
000002c0: dc9f a4bd c0c8 95bd 667d 6ebc be39 a2bd
000002d0: 6a65 71bd 32a4 163d b28b b83c 38bc ef39
000002e0: e27e 30bc 5711 30bd 9283 f1bb 9698 b9bb
000002f0: bbba 77bd 272a 983c ce2c c33c 6bc1 9d3c
00000300: 70bf 2c3d 1553 50bc 1488 5a3d 3eb0 663d
00000310: a2a8 6dbc 2bc6 513d df7f 8b3b aeae dc3c
00000320: d6bf c7bc d28c 43bc 900b 6cbd b6d7 7d3d
00000330: b30d 0d3b 115b 10bc 33a6 2e3d 4a80 84bd
00000340: 7e85 00ba 25a5 793b 5d45 453d 3c66 cfbc
00000350: db24 b53b 2922 c73c 747b 95bc 99e3 743c
00000360: 0bfc 49bc a6d3 163d 1913 9c3c e877 a93b
00000370: 709c 8fbc 7486 0dbd 296d 2a3b f1cc 53bd
00000380: a81c 363b 8cd2 963b abc3 a53c 9dcc 013d
00000390: 8ae3 88bc bf20 563d 1bf8 0cbd 1482 173d
000003a0: 13f5 e5bc 203d 07bc c42b dcbc fb18 f639
000003b0: f418 c2bc df78 87b9 a001 d83c a069 0cbd
000003c0: 6aa0 5bba a9bf b33c ba1a 743c 6691 0b3d
000003d0: 1390 e63c 4ca0 883d af85 a8bc 50a7 96bc
000003e0: 0c8d 9fbc d80a c2bc 5824 cd3c 9c32 fbbc
000003f0: 8194 d13c 7fe9 443d 7576 ed3c 3690 553d
-0.03234204 0.041031342 -0.023860995 -0.04580477 -0.037079416 -0.0174211 0.019495748 -0.08836204
0.02810615 -0.036270484 0.015814953 0.0086484365 0.0135150505 -0.029068768 0.0047093495 0.043219652
-0.0592723 -0.013284651 0.009982067 0.06318342 -0.010536184 0.011965743 -0.005113834 0.03908016
-0.017043902 -0.054189473 0.02292693 -0.03793715 -0.061049398 -0.029797157 0.061145548 -0.007882439
-0.04008618 0.033374403 0.01916039 0.039395597 0.055479746 0.01940751 -0.018353006 -0.027174545
0.05170152 -0.0302945 0.015035981 -0.062294688 0.0039432356 0.016567284 -0.05553979 -0.029159524
-0.05847 0.043402545 0.023628375 0.0053566894 -0.026003953 0.028131567 0.012483828 -0.012416356
-0.02969929 -0.064965524 0.044366807 0.059470356 0.008970093 0.025514837 -0.044840205 -0.011312807
-0.06511287 0.04438545 0.027982235 0.030747239 0.060435332 -0.042035654 -0.0009045984 -0.051839933
0.04427955 0.048120882 -0.029007837 -0.06424607 -0.017755283 -0.05509103 -0.052612357 -0.023766072
0.023389705 0.042534076 0.05397086 0.054310717 -0.021475192 -0.00030651054 -0.04562488 -0.04096739
0.027391942 -0.073288746 0.012233247 -0.059923586 -0.044140466 0.067262046 0.004623182 0.016755898
0.039473884 0.03291732 0.061754003 0.04625949 -0.035866268 -0.03894584 -0.03418616 -0.030636214
0.030591056 -0.0074570044 0.023270886 0.033795226 0.022274477 -0.0009073277 0.03165891 -0.052250724
0.026601413 -0.022257991 -0.079514235 -0.040696636 -0.026212225 -0.040956654 -0.02182299 -0.048562728
-0.030815478 0.044961568 -0.036365654 -0.039417885 0.054685675 -0.037019886 -0.059956387 0.01673392
-0.03303997 -0.029673675 0.03538746 0.06047683 0.0020980143 -0.031974614 -0.016558284 0.009105845
0.023741545 -0.0474348 -0.037789445 0.03671799 -0.050000116 -0.04701601 -0.0034000576 0.03907022
0.0028813642 0.031292252 -0.056031015 -0.00683261 0.055001274 -0.032012153 0.008443616 -0.011460424
-0.024980476 0.00056307175 -0.07798988 -0.054675266 -0.052539364 -0.0028005177 0.0019544957 -0.011764871
0.040552128 -0.05711082 -0.04853116 0.033951662 -0.051548023 -0.030994011 -0.04055296 0.03777323
0.06684245 -0.018982202 0.032809045 0.012604031 -0.034324646 0.01595829 -0.030071793 0.0022975968
-0.08038303 -0.07313681 -0.0145562645 -0.0792117 -0.058934607 0.036777683 0.02252755 0.00045725866
-0.010772439 -0.042985287 -0.0073704207 -0.0056639416 -0.060480814 0.018574787 0.023825075 0.019257268
0.042174757 -0.012715121 0.05335243 0.05632042 -0.014505537 0.05121438 0.004257187 0.026938763
-0.024383467 -0.01193543 -0.057628214 0.061973296 0.0021523058 -0.008810774 0.04263897 -0.06469782
-0.00049027044 0.0038092819 0.048161853 -0.025317304 0.005528075 0.024308281 -0.018247344 0.014946842
-0.012328158 0.036822937 0.019052075 0.0051717646 -0.01753065 -0.034552053 0.0026005006 -0.05170912
0.0027788077 0.004602736 0.020234903 0.031689275 -0.016710062 0.052277323 -0.0344163 0.036989287
-0.028070962 -0.008254319 -0.026876338 0.00046939388 -0.02369354 -0.00025839263 0.026367962 -0.03428042
-0.00083780906 0.021941977 0.01489895 0.03407421 0.028144872 0.06671199 -0.020571558 -0.018390328
-0.019476436 -0.023686811 0.025041744 -0.03066378 0.025583507 0.04807424 0.028987149 0.052139483

layers.9.bias f4 [480]
00000000: cb15 8ebd bad9 38be 7e84 1dbb fbae 92bd
00000010: d64f 69bd 5818 763d f877 06bd 91a5 99bd
00000020: f640 aabc 7d30 bbbc e6ed 8ebd 21ec e63d
00000030: faed f2bd 96c5 03be 7bd9 72bd 7e1e 033d
00000040: 6057 103c f9bf bf3d 3bb8 6fbd f32c 2dbe
00000050: 3c13 dfbc 247f 87bc 9fbe 4abd 389d b83d
00000060: 0725 a1bd 8d3e b8bd 2704 a2bd f00c 8abc
00000070: 1ec4 113d 5679 e83c f38f 96bd 8927 e1bd
00000080: 0e2b 33bc ff3e 79bd ee5a 22bd 6020 023d
00000090: 0aef 79bd d832 0dbe 1286 73bd 4119 273d
000000a0: 4931 ccbc 4873 cc3d 7949 86bd c288 c1bd
000000b0: ef55 9dbd e49c 04bc c696 65bc e293 933d
000000c0: c0ce b1bc 7984 9ebd 4221 93bd 786b 2c3d
000000d0: 1a7e 76bd dd3a aa3d 3d4e 86bd eddf b0bd
000000e0: 0bd4 c5bc be41 fe3c 1377 65bd a0b8 453d
000000f0: 63d5 a0bc 005c 1dbe fc87 8bbd 5f04 183a
00000100: bcaf 1a3d 37b8 a43c 5097 4abd 36bb 9abd
00000110: bcdf d7bc 8f00 eabc a34f bd3c 4d6f f83c
00000120: df28 4dbd 1edc 2abe fb81 2abd 8b7a 103d
00000130: b509 843c 260b 5a3d aa93 7b3b 2b35 c9bd
00000140: 438f 573c 5289 38bd 61c4 2b3d 7352 393c
00000150: 2983 083c 6b98 33be 00fe 703b a48b ecbc
00000160: 349d e53c 3b5b 6b3d 2ba5 ffbb 0cb7 06be
00000170: 5cb7 193c b8e0 d2bb 2cfe d9bc 4ef5 503d
00000180: 3416 0f3c a2f9 22be 0617 ac3a 1508 4fbb
00000190: 95e4 cfbb 286c b53d cd1c 353c 27f4 17be
000001a0: ca04 263c 4c88 b8bc 543a b43a 8ab8 b93d
000001b0: 9a3f 57bd 5e35 19be f689 a63c d10e 223d
000001c0: d90d 603c 49fe 543d a565 0f3d 6f92 07be
000001d0: cc65 65bd 6400 13bd d70a 0bbd bf7e 8c3c
000001e0: 84fc 9abb 354a 80bd a1b0 00bd 0927 883d
000001f0: 9c69 d63c a301 313d 8222 82bd 1536 02be
00000200: a4bd 96bd fe79 3b3c e522 143d 7d5b 573c
00000210: a380 06bd 5bbf f7bd 60d5 933b e6e9 d2bb
00000220: daeb 8cbc a3d6 e03d ed74 073d d552 e8bd
00000230: 12ab 1d3d 66d4 82bc 8853 ccbc e203 2d3d
00000240: 5678 2a3d 6bcc 2fbe 4420 183d 75fc e5bb
00000250: 50f0 38b9 b950 693d ef28 9ebc 545c cabd
00000260: c057 b53a 95e4 303d 5400 34bc 02f1 b83c
00000270: a421 05bd 4b76 0ebe 6091 80bd abb7 623c
00000280: 5b48 ed3c 435e 263c 80dc 61bd a6ad 8dbd
00000290: a1e0 f03c 47ab 943c 926e 213d 6f69 c33d
000002a0: 3031 72bd b75c 28be 2a55 d8bc 944d a7bb
000002b0: cffc db3a a052 cc3d 74ca b33c 2395 febd
000002c0: 7113 a2bb ecbe 02bb 6083 18bd 987d 063d
000002d0: fc73 8bbc ee04 0cbe 681f 63bd e656 bd3c
000002e0: e8a1 44bd 899a 4b3d 9640 36bd 8365 f1bd
000002f0: dae6 ce3c 7b7b ca3b 96e8 26bd 6123 fe3d
00000300: 53df 2c3d a720 efbd 06e2 c3bc d422 1ebc
00000310: 6e7e 5c3d 78c2 733d a362 043d 5bab 20be
00000320: 3bd5 313b dbc2 08bb ca94 2a3d 06b5 d03d
00000330: 9375 4fbb 0bf2 a6bd f3dd 0e3d e4c3 2cbd
00000340: d041 c33c 5afa d23d daf8 003d 336f e8bd
00000350: 4f5b 2abd 99bb a23d 320e 273d dc33 863d
00000360: 36d5 1a3d 21d7 22be 9dee 59bd 9316 f73c
00000370: 6366 20bd d53c a63b f701 7f3c c913 0dbe
00000380: f4aa 6f3d 5856 19bd 008e 3ebd 0941 343c
00000390: 44fa 013d 0894 12be fc64 7d3d aef8 b53c
000003a0: bc69 713d af16 b03c 7c9f 0c3d 5d86 bcbd
000003b0: e694 713d b512 a83d a7fd 0d3d c0cb e73d
000003c0: 048e b9bc a0e5 fdbd bc1b 6a3d 44f7 f2bb
000003d0: cf7f 283d a8a8 4d3b 241f 6abd 051d d9bd
000003e0: 12f1 16bc 3a2c 443d a7a2 613d 34e8 583d
000003f0: c685 a03c ad9d 07be 1fa5 933c 9566 23bc
-0.069377504 -0.18051806 -0.002403527 -0.07162281 -0.056960903 0.06008181 -0.032829255 -0.075022824
-0.020782929 -0.02285027 -0.06978969 0.11275507 -0.11861797 -0.12868342 -0.059289437 0.0320115
0.008809894 0.09362788 -0.058525305 -0.16911678 -0.027230851 -0.016540118 -0.049498197 0.09014362
-0.078683905 -0.089963056 -0.07910948 -0.016851872 0.035587423 0.02837817 -0.07351675 -0.10993869
-0.010935558 -0.060851093 -0.0396375 0.031769156 -0.06101898 -0.13788927 -0.05945403 0.04079557
-0.024925845 0.09982926 -0.065569825 -0.094499126 -0.07682406 -0.008094046 -0.014012998 0.07205941
-0.021705031 -0.07740111 -0.07184078 0.042094678 -0.060178854 0.083120085 -0.065578915 -0.086364605
-0.024148962 0.031037208 -0.05602176 0.048271775 -0.019633 -0.15367126 -0.06813046 0.0005798991
0.03776525 0.020107372 -0.04946071 -0.07555239 -0.026351802 -0.02856472 0.023109263 0.03032651
-0.050087806 -0.1668553 -0.041627865 0.035273116 0.01611791 0.05323329 0.0038387575 -0.09824594
0.013156715 -0.045052834 0.04193533 0.011311161 0.008332052 -0.17538612 0.003677249 -0.02887518
0.028029062 0.05746005 -0.007801672 -0.13155764 0.009382095 -0.00643548 -0.026610456 0.05101519
0.008733321 -0.1591554 0.001312942 -0.003159051 -0.006344388 0.0885852 0.01105423 -0.1483923
0.010132978 -0.022525929 0.0013750293 0.09068401 -0.05255089 -0.14961764 0.020329457 0.03956491
0.013675177 0.052000318 0.035009045 -0.13239454 -0.056005284 -0.035889044 -0.033945885 0.017150281
-0.0047298092 -0.06264154 -0.031418446 0.0664807 0.026173405 0.04321445 -0.06354238 -0.12715943
-0.0736039 0.011442659 0.03616609 0.013144371 -0.03283752 -0.12097045 0.0045115203 -0.0064365743
-0.017202307 0.10978439 0.033070493 -0.11343924 0.038493223 -0.01597042 -0.024942175 0.04224003
0.041618668 -0.17167823 0.037140146 -0.0070186206 -0.00017637131 0.05696175 -0.019306628 -0.098808914
0.0013835356 0.043186743 -0.010986406 0.022575859 -0.032502785 -0.13912313 -0.06277728 0.013837735
0.028965166 0.01015431 -0.055141926 -0.069178864 0.029403986 0.018148078 0.03941209 0.09541594
-0.05912894 -0.16441618 -0.026407797 -0.0051056836 0.0016783717 0.09976697 0.021947123 -0.12430789
-0.0049461653 -0.0019950224 -0.037234664 0.03283462 -0.01702308 -0.13673756 -0.055449873 0.023112725
-0.04800597 0.049707923 -0.044495188 -0.1178694 0.025256563 0.006179271 -0.040749155 0.12409092
0.042205166 -0.1167615 -0.023911487 -0.009651858 0.05383151 0.05951163 0.03232063 -0.15690367
0.0027135152 -0.0020868096 0.041645803 0.101907775 -0.0031655773 -0.08151635 0.034879636 -0.042179003
0.023835093 0.10301657 0.031487323 -0.113493346 -0.041590985 0.07945938 0.040785022 0.0655286
0.03780099 -0.15902378 -0.053206075 0.030162131 -0.039160144 0.0050731697 0.015564433 -0.13777079
0.058512643 -0.03743586 -0.04652214 0.011001834 0.031732813 -0.14314282 0.061863884 0.022213306
0.058938727 0.021495191 0.034331784 -0.09205315 0.05897989 0.08206693 0.03466573 0.11318159
-0.022650726 -0.12397313 0.057155356 -0.0074147303 0.041137513 0.0031381045 -0.057158604 -0.10601238
-0.009212749 0.04789374 0.055086758 0.05295582 0.019595038 -0.13243742 0.018023072 -0.009973188
