checkpoints/final_model.pt (torch, 895088 bytes, 8 tensors)

layers.0.weight f4 [128, 4]
000000 5e e4 98 3e 45 5a 0d 3e 80 71 5c bd 2a 5a aa 3d
       0.2986173 0.13803966 -0.05381918 0.08317979
000010 b6 2d 0d 3e 41 c9 47 3d 8c 7e f5 3d 34 0d 9e be
       0.13786969 0.048775915 0.119870275 -0.30869448
000020 5c 27 33 3e 0d e1 c6 be a9 bd a7 3e 89 ea a9 be
       0.17495483 -0.38843575 0.32761887 -0.3318675
000030 85 2a 13 bf 0e 5e 73 bd 3f 6f d5 bd 2e cb 8b bc
       -0.57486755 -0.05941587 -0.10421609 -0.017064657
000040 c6 d8 e7 be be 23 78 be 2c aa e2 3e 5b 84 e2 bd
       -0.45282573 -0.24232385 0.44270456 -0.11060401
000050 88 cd c3 3e 2e cd bb be 8a 6c 58 3e 76 9b cb bd
       0.38242745 -0.36679977 0.21135154 -0.09941761
000060 2d 31 1a bf 89 67 e3 3d cb 5c 03 be 1d 70 5b 3d
       -0.60231286 0.11103732 -0.12828366 0.053573716
000070 87 9e a3 3e 2e f5 f0 bc fb 4f c7 3e 55 11 14 3e
       0.31956884 -0.029413786 0.38928208 0.14459737
000080 04 d9 c3 bc 53 30 45 be bd f3 b4 3e d9 3f 55 3e
       -0.023907192 -0.19256715 0.35342208 0.20825137
000090 b8 68 1c bf 65 51 bd be 4e 8f b9 3b 83 98 36 3e
       -0.6109729 -0.36976162 0.005662835 0.17831616
0000a0 77 12 d9 bc 2a 73 fb 3e 47 a2 05 3e eb 8b 32 be
       -0.026498063 0.491113 0.13050185 -0.17436187
0000b0 9f fc 29 be a1 3c 89 3e 63 24 b0 be 85 0d bd be
       -0.16600274 0.2680407 -0.3440276 -0.36924377
0000c0 df 6a c1 3d 39 6c 5c be cf 3b 66 3e 1e 43 27 3e
       0.09444212 -0.21525659 0.22483753 0.16334197
0000d0 c3 66 88 bd 6f d4 e4 3e ca 73 c5 3e cd 91 b1 be
       -0.06660225 0.44693324 0.38564903 -0.3468155
0000e0 3a 8e 04 3f a1 0b ae 3c 1d 70 ec be f0 1f 27 3e
       0.5177952 0.02124578 -0.46179286 0.16320777
0000f0 b5 37 97 3e 9c 90 a3 3e fe b4 cb be 84 c6 f9 be
       0.2953469 0.31946266 -0.39786524 -0.48784268
000100 52 36 81 be bd cc 19 bd 0b d1 54 bd ae 4d a4 bd
       -0.25236756 -0.03754877 -0.05195717 -0.08022629
000110 4a 01 83 be 72 ce bd 3e 3c 9f ec be 0e ae ad be
       -0.2558692 0.37071568 -0.46215236 -0.33921856
000120 d9 37 ba be 84 94 d3 3e 1f 29 ed be b9 63 ce be
       -0.36370733 0.41324246 -0.46320435 -0.40310457
000130 f9 e8 17 3e 63 48 b8 3b 5f 95 fa 3e a2 59 ab be
       0.14834966 0.0056238635 0.48942086 -0.33466822
000140 62 68 e4 be ea 65 33 be 7e 55 e6 3e 1d 31 a7 3e
       -0.44610888 -0.17519346 0.449871 0.32654658
000150 e0 7f ce be c4 db b8 3e 7d aa 31 be 79 8b e1 3e
       -0.40331936 0.36105168 -0.17350192 0.44051722
000160 19 fd 84 3e af 17 1a bd 6d d2 e5 3e 82 dd 1c be
       0.25974348 -0.037620243 0.44887105 -0.15318874
000170 f9 7e 0d bf 3c 25 d2 be fa 01 92 bd 07 d2 1b be
       -0.5527187 -0.41044033 -0.07129283 -0.15216838
000180 6f 0c c6 bd 65 84 d5 be 4c f4 a7 be 0a fa 7d bc
       -0.0967034 -0.41702572 -0.3280357 -0.0155015085
000190 a8 a8 5b 3e 45 22 93 3c cf a0 bc be 25 cf 42 3e
       0.21451056 0.017960677 -0.36841437 0.19024332
0001a0 32 d0 81 3e 77 4e a2 bd 92 49 80 3d 6f 23 d8 3d
       0.25354153 -0.07925122 0.062640324 0.105536334
0001b0 bd f4 92 be 4c 68 2e 3e f3 a8 01 be 1b a8 8b be
       -0.28702345 0.17031974 -0.12662105 -0.27276692
0001c0 96 bb ce 3e 2f e1 33 3c 40 de e0 be 7e 4e 97 3e
       0.40377492 0.010978981 -0.43919563 0.29552072
0001d0 54 89 0b 3d e8 7b b6 3e c8 75 e3 3d d2 d2 d3 be
       0.034066513 0.35641408 0.11106449 -0.4137178
0001e0 d2 05 53 be 5b 33 2b be 29 be bb 3e b0 e6 01 be
       -0.20607689 -0.1671881 0.36668518 -0.12685657
0001f0 fa 22 2f bd af b4 af be c4 ea 12 be f1 0b 3d 3e
       -0.042757966 -0.34317538 -0.14347368 0.18461587
000200 53 e9 cd 3e 39 04 a1 be 4c 92 6a be 72 f7 85 be
       0.40217075 -0.31448534 -0.2290737 -0.26165348
000210 df 2b 7c bd bc a8 08 3e fe 01 f8 3d a9 c3 97 3d
       -0.061565276 0.13345617 0.12109755 0.07410366
000220 c2 ae f3 3d a1 3f 8b be 5c 48 54 be f2 98 d4 3e
       0.11898567 -0.27196983 -0.20730728 0.41522938
000230 77 cf cb be ef d7 2d bb 1b 14 e4 3e be af 73 3e
       -0.3980672 -0.0026526412 0.4454659 0.23797509
000240 c9 ba c0 be 10 07 a5 3e 3c 66 58 3d 63 3f 57 3e
       -0.37642506 0.3223195 0.052831873 0.21020274
000250 b8 71 33 3e 72 b9 b4 be 4b 64 a2 be 63 9f a0 be
       0.17523849 -0.35297734 -0.31717142 -0.31371602
000260 67 57 1a 3e 6b ee 0f be 30 ec 6e 3d c7 0b db 3e
       0.15072404 -0.14055793 0.058330715 0.42782423
000270 44 1e 39 bd 72 c1 1f 3d 3f 6d 75 ba 81 b4 bd 3e
       -0.04519488 0.039002843 -0.0009362287 0.37051776
000280 a2 d0 04 bf bd d2 49 bd fa 38 9e be 84 95 74 3e
       -0.5188085 -0.04927324 -0.30902845 0.2388516
000290 6b b9 2e be 2e 79 49 3e 32 71 7d be f1 ee 41 be
       -0.17062919 0.19675133 -0.24750212 -0.18938805
0002a0 c3 c6 99 bc 93 6e e5 be 5f 12 2b 3d 8d b4 81 bd
       -0.018771535 -0.44810924 0.041765567 -0.063332655
0002b0 a3 e3 f7 3e f9 c1 df be 62 45 9b be 5d 7f fa bd
       0.4841586 -0.43702677 -0.30326372 -0.12231324
0002c0 07 6c 38 be 6a 8e 1b 3e 5a cf 98 3e 07 ee bf be
       -0.18009959 0.15191045 0.29845697 -0.37486288
0002d0 0b 64 0b 3f 74 54 89 3e 65 72 69 3d 8b 21 97 bd
       0.5444953 0.26822245 0.05699386 -0.07379445
0002e0 fc 71 bb 3e 68 e9 32 3e c8 95 e1 3e ba 13 1b bd
       0.366104 0.1747185 0.44059587 -0.03786061
0002f0 39 d8 3a be dd af fd 3e 6c 09 1b be cf 14 37 be
       -0.18246545 0.49548236 -0.15140313 -0.17879032
000300 88 3e e1 be a7 8f ab be 87 72 51 be 6f ff cf 3d
       -0.4399302 -0.33508036 -0.20453845 0.10156142
000310 6f 2e 1a 3f fa e8 ed 3c d7 4d 99 be ff 73 5c bc
       0.602271 0.029041756 -0.299422 -0.01345539
000320 05 db e1 3d 56 2b 9e 3e 53 63 18 3e 92 08 bc 3e
       0.11028103 0.30892438 0.14881639 0.3672529
000330 73 0d 97 be 66 18 10 be 75 1b df 3d e7 f9 1e be
       -0.29502448 -0.14071807 0.10893909 -0.15525018
000340 2d 89 fe be 43 fb ae bd 68 01 f0 3e 7e c2 b8 be
       -0.49714032 -0.08544018 0.46876073 -0.36085886
000350 bb d6 1f 3d 21 0a dd be 01 dd e3 3e a9 cb db be
       0.039023142 -0.4317179 0.4450455 -0.42928818
000360 d7 83 c1 3d 53 91 ce 3e 88 9d 59 bd 71 d4 9a 3e
       0.094489746 0.4034525 -0.05312875 0.30240205
000370 66 1c b6 3d 58 b3 8c be ba d9 5d 3c 6b e9 53 3e
       0.08892135 -0.27480578 0.01354068 0.2069451
000380 e3 7c 04 bf 43 d2 f0 bd 6d b5 d7 be ed d4 84 3e
       -0.5175306 -0.11758854 -0.42130604 0.259437
000390 9a 2f 9f 3d 47 c2 ce be 9e 93 de be 1c 99 95 be
       0.07772751 -0.40382597 -0.43471998 -0.29218376
0003a0 83 3e 27 bf 66 ab 55 3e 4e 51 cb be 38 db c1 be
       -0.6532976 0.20866165 -0.39710468 -0.37862563
0003b0 9c 18 39 be 52 69 a3 3e 06 43 fa bc d6 d4 81 3e
       -0.18075794 0.3191629 -0.030549537 0.25357693
0003c0 fc 79 51 3e c2 94 d5 3e 70 cf 01 bf 89 1c d3 bc
       0.2045669 0.41715056 -0.5070715 -0.025770443
0003d0 ab 39 a8 3e 6b 40 f6 3e 04 6f b3 3d 51 8c c2 3c
       0.32856497 0.48096022 0.08761409 0.023748549
0003e0 8c ae b6 3e 84 52 9d 3d b2 f8 55 be 42 9b b1 bd
       0.35680044 0.07681754 -0.20895651 -0.08672191
0003f0 b2 60 55 bd 25 93 07 bc 9b 0f a5 3e 39 78 b5 3e
       -0.05209417 -0.008274828 0.3223847 0.35443285

layers.0.bias f4 [128]
000000 7a 34 f1 be ca 98 98 3e e2 b7 22 bd 07 a2 18 3d
       -0.4711035 0.2980407 -0.039726146 0.037263896
000010 19 b0 ea be 0a 21 d3 bc 76 e1 55 bd 93 15 b4 bd
       -0.45837477 -0.02577259 -0.05221697 -0.087931775
000020 bf 0f 81 3e de 9a ca 3d 23 00 12 be 05 93 3f be
       0.25207326 0.0989282 -0.14257865 -0.18708427
000030 10 83 9d 3e 0e e8 a1 be ca e4 b1 be d2 ca ce be
       0.30764055 -0.31622356 -0.34744865 -0.40389115
000040 66 e8 d1 be 53 48 c0 3e dc a5 86 be d8 8e df 3d
       -0.40997618 0.3755518 -0.26298416 0.10915917
000050 14 8b ab be 0d 68 e0 bc 81 65 b5 be 81 50 c7 3d
       -0.33504546 -0.027393365 -0.35429004 0.09732152
000060 d9 43 e5 be a1 8b 9e be 0b 89 b5 3e 5e af 3d bd
       -0.44778326 -0.30965903 0.35456118 -0.04630982
000070 25 b3 88 3e d0 23 8f 3e f2 f9 9f 3e ab df cf be
       0.26699176 0.2795701 0.3124538 -0.40600333
000080 ff 22 be bd 0f 38 a3 3e 0e 32 65 bd 5b 9d 89 be
       -0.09284019 0.31878707 -0.05595594 -0.26877865
000090 08 f8 96 3e b8 ea d7 be 23 b0 e2 3e 49 b4 bd be
       0.29486108 -0.42171264 0.44275007 -0.3705161
0000a0 2f 97 bd 3e cf bf ce 3d 7b e6 f6 3e 66 d8 ea be
       0.37029406 0.10095178 0.48222718 -0.45868224
0000b0 e6 32 f7 be b7 cc 22 bd aa dd f7 be cc c9 6e be
       -0.4828102 -0.039746013 -0.48411304 -0.23319167
0000c0 0e 53 36 bd 63 dc c4 3e 1b b4 4b 3e 1a 69 e3 3e
       -0.0445128 0.38449392 0.19892924 0.44416124
0000d0 45 3b 44 3e 6a f8 ed be db df 02 3e c0 73 b7 3e
       0.19163235 -0.46478587 0.12780707 0.35830498
0000e0 14 cb 07 3d b9 cb 37 3e 86 a6 58 bd 73 02 d9 3e
       0.033152655 0.17948808 -0.052893184 0.4238468
0000f0 18 68 9b be 09 1a 09 be 1e a1 67 3e b3 94 ce 3e
       -0.30352855 -0.13388838 0.22620055 0.40347824
000100 70 79 60 3e 24 3c e3 3e e4 26 e2 3e bf 72 fc 3e
       0.21921325 0.4438182 0.44170296 0.49306294
000110 a5 4a a2 3c ee b3 4f 3e 81 55 00 3f ef 1b d5 3d
       0.019810984 0.20283481 0.5013047 0.104057185
000120 ca 8f d8 be 3a bd 2f be 93 bd 27 be 63 25 f7 3e
       -0.42297202 -0.17162028 -0.1638091 0.4827071
000130 0d 71 c0 3e 21 16 c3 be b3 42 bd 3e fc 3d db 3e
       0.3758625 -0.3810282 0.3696495 0.42820728
000140 f4 aa 0c 3f 6e 98 0d 3e ed 60 81 3e d8 f0 db bd
       0.54948354 0.13827679 0.2526926 -0.10739297
000150 40 82 5d 3e 7f 1a 0f 3e 1e fc 5b 3e 7d 39 b2 be
       0.21631718 0.13974951 0.21482894 -0.34809485
000160 c9 cf 1b 3e cf 1b 8f be 6c 5e b4 3d 8e 70 cc be
       0.15215982 -0.27950904 0.08807072 -0.39929622
000170 62 d6 df 3e 37 d3 d3 3d f0 7b bc 3e 23 30 59 3e
       0.4371825 0.103430204 0.36813307 0.21209769
000180 b8 ba 8d 3c fc 68 f3 3e 64 be 91 3d 4d 01 ca bd
       0.017300949 0.47541034 0.07116392 -0.09863529
000190 51 8c bb 3e 90 a3 86 3d 86 3e f4 be 72 de cb bd
       0.3663049 0.06574166 -0.47703952 -0.099545375
0001a0 5b 90 e3 3e ef de e4 3e 1a 03 bd 3c f7 a0 d6 3e
       0.44446072 0.44701335 0.023072768 0.4191968
0001b0 2a 28 86 be d5 3d c6 3e 88 70 8d 3e 1d 55 52 be
       -0.26202518 0.3871905 0.27624917 -0.2054028
0001c0 5f 81 75 bc 94 8e 82 3d f7 2a 27 be 84 73 25 be
       -0.014984458 0.06374851 -0.16324984 -0.16157347
0001d0 ec 82 0b be 31 de ac be 8c f7 a0 3e e7 87 cb 3d
       -0.13624161 -0.3376327 0.31438863 0.09938031
0001e0 05 cd c7 3d 23 e7 d1 3e 19 3b d2 be a5 63 04 be
       0.09755901 0.40996656 -0.41060713 -0.12928636
0001f0 18 fc e8 be ce d8 e6 be 32 0d 04 be 4a e5 98 3e
       -0.45504832 -0.45087284 -0.12895659 0.29862434

layers.3.weight f4 [256, 128]
000000 f5 dc 3e bd 0c cc ad 3b 0a 0a b0 bd 14 65 b6 bd
       -0.04659744 0.0053038653 -0.08595665 -0.08905998
000010 e9 d1 7a 3c 48 16 39 3c 36 35 bc 3b 04 85 a2 bd
       0.015308836 0.011296816 0.005743648 -0.07935527
000020 8e b7 af 3d 9a 20 d0 bd ec 1b 8c bd 76 d6 f2 bc
       0.08579932 -0.10162468 -0.06841263 -0.029643279
000030 c3 32 a5 bc fa 3a 53 bd a5 87 9d 3d 3f 74 84 bc
       -0.020165807 -0.051569916 0.07691888 -0.016168712
000040 10 3d 3d 3c ca b0 a5 3d 64 a1 5f 3b f9 d5 2f 3b
       0.011550203 0.080903605 0.0034123296 0.0026830419
000050 aa f9 5d bd a9 c4 1f bc f4 c2 ee 3c 40 d2 db bd
       -0.054193176 -0.009751477 0.029145695 -0.107334614
000060 b5 d1 36 3d 24 5a 0e 3d 0c 80 8b 3c c2 a5 4c bd
       0.044633586 0.034753934 0.017028831 -0.049962766
000070 ec b2 0a bd a2 33 93 bd af 14 bb 3c a1 62 c8 3a
       -0.03386204 -0.071875826 0.022837011 0.0015288183
000080 3f cb 7b 3d e2 28 83 bd 32 30 a8 bb 60 5a a2 bd
       0.061473127 -0.06404282 -0.0051326985 -0.07927394
000090 94 81 8b bd a3 ff 6b 3d 60 dd 80 3d 69 ce f8 3c
       -0.068118244 0.05761684 0.06292224 0.030371862
0000a0 8e a9 3a bd 81 98 51 bd 73 91 91 3c 9c bc 95 3d
       -0.045571856 -0.05117083 0.01776955 0.07311365
0000b0 06 7a 84 3d 86 87 2c bd 4e f7 ff bc f3 27 68 bd
       0.064685866 -0.042121433 -0.031245854 -0.056678724
0000c0 e1 f6 76 3d 35 f3 ed 3d fc da 89 3b 31 81 14 3d
       0.060294036 0.11618654 0.004207013 0.03625602
0000d0 91 63 83 bd 2d 21 85 3d a2 dd 05 3d a6 9d 1d bb
       -0.06415475 0.065004684 0.03268207 -0.0024050265
0000e0 e8 ac 57 bd 1c a4 d0 bc d3 9d b2 bd f9 67 6e 3c
       -0.05265513 -0.025468878 -0.08721509 0.014551156
0000f0 a8 99 2e bc 2b f4 97 bc 30 7b 7f bc d5 43 09 3d
       -0.010656752 -0.018549046 -0.015593335 0.033511955
000100 f7 13 b1 bc 91 4c b5 3d 53 aa e6 3d 20 a5 a9 3d
       -0.021615965 0.088524945 0.112629555 0.08283448
000110 3e 41 14 bd a8 c2 27 bd 70 73 e2 bc 3d 88 7a bc
       -0.036195032 -0.040957123 -0.027642936 -0.015291271
000120 d4 ec f0 3c 9c 94 95 bd be ab 7f 3d ca 53 8d 3d
       0.029409803 -0.073037356 0.062419645 0.06900747
000130 e5 e1 79 bb b4 2b b8 bc 6d 36 d1 3d c3 27 ff bb
       -0.0038129028 -0.022481777 0.10215459 -0.0077867224
000140 7a d3 27 3d 8c 8f be bc ab 4f 23 bd ef ed c4 bd
       0.040973164 -0.023261808 -0.0398709 -0.09615695
000150 29 f1 4b bd 12 ed af bd b5 a5 c3 3c d7 4e a6 3d
       -0.049790535 -0.085901394 0.023882726 0.08120506
000160 31 96 84 3d ca 4d 45 bd 0d 75 54 3d 80 47 f0 3c
       0.06473959 -0.04816989 0.05186944 0.029330969
000170 f6 b3 a8 3d 14 f2 45 3d a5 04 84 3d 23 51 42 3d
       0.0823745 0.048326567 0.064461984 0.04744066
000180 bf 3f d1 bc 0c 73 1f 3b d5 09 66 3b 39 c1 37 bc
       -0.025543092 0.0024330048 0.0035101075 -0.011215501
000190 18 25 54 3d 2f 13 63 3d 4d 94 98 bd 37 a8 bd bc
       0.051793188 0.055438217 -0.07450161 -0.0231515
0001a0 dd e5 8a bc e4 39 53 bc e8 e8 92 3c e9 ee d4 bc
       -0.01695531 -0.01289222 0.017933324 -0.025992827
0001b0 26 47 a4 bc 7f 11 1d bd 8b e8 f7 3c 90 22 d5 bc
       -0.020053457 -0.038346764 0.030262252 -0.026017457
0001c0 15 ac c7 bd 7d 93 7c bb b1 22 ee 3b c6 2f 8f bd
       -0.09749619 -0.0038540058 0.007267319 -0.06991534
0001d0 b9 be a9 3c 0d 96 b4 bd 2e 72 9a 3d 44 88 bc 3c
       0.020720826 -0.088176824 0.07541309 0.023014195
0001e0 4c 61 1e 3c c1 cf 8c 3d 72 55 19 3c 21 a8 76 bd
       0.009666752 0.068755634 0.009358751 -0.060218934
0001f0 cf 31 28 bd d5 0f e6 3c e4 e0 80 bc c6 bf e4 3c
       -0.041063126 0.028083721 -0.015732236 0.027923476
000200 16 ba 77 3d 62 dd 1e 3d 78 26 c0 bc 50 c4 14 bd
       0.0604802 0.038785346 -0.023455843 -0.03632003
000210 04 96 7b bd 0a db 3b bd 85 15 6c bd aa 1d 91 3d
       -0.061422363 -0.04586319 -0.05763771 0.07085736
000220 73 7f 1f bd 09 ce 2d bd 91 b2 92 3d d3 04 65 bd
       -0.038939904 -0.04243282 0.07162965 -0.055912804
000230 a1 0c 8c 3d 0b 76 72 3c 78 9c f9 bb 45 8b 69 bd
       0.06838346 0.014798651 -0.0076175295 -0.057017583
000240 b8 db ae bd 20 c8 0d 3d cf f5 a0 bd c6 65 ad 3d
       -0.08538002 0.034614682 -0.07859384 0.08466677
000250 1e e1 70 bc ff ae 8b bd 20 41 70 ba b4 16 e4 3b
       -0.01470211 -0.06820487 -0.0009164978 0.0069607142
000260 59 33 8b bd ca 01 95 bd b5 ef ad bc 8e c1 28 bd
       -0.06796903 -0.07275732 -0.021232465 -0.041200213
000270 e8 92 dc 3d 4c d2 0d 3d 2a 38 55 bd 1a 6f b2 bd
       0.10770208 0.034624383 -0.052055515 -0.08712597
000280 70 d7 aa bd ba c6 34 3d 50 2f 0a 3d ce 03 84 bd
       -0.08341873 0.044134833 0.033736527 -0.06446038
000290 5c ee 31 3c 23 47 49 bd a3 09 ae 3d 06 f5 65 3d
       0.010860052 -0.049140107 0.08497932 0.056141876
0002a0 a5 4a 4a bd 04 dc d8 3b 55 a9 88 3d 94 07 92 bd
       -0.049387593 0.006618025 0.066729225 -0.07130352
0002b0 d5 15 2f bd a5 8a 30 bd ff 7a 3a 3d 64 43 8d bd
       -0.04274543 -0.04310097 0.045527454 -0.06897619
0002c0 6d 57 fe bc 9a fe 07 3d 5c 9e 76 3d 36 47 4a bc
       -0.031047547 0.03320179 0.060209617 -0.01234608
0002d0 4b be 1e bd 7d 8a ba bb 89 78 95 bd 5b 17 8e bc
       -0.038755696 -0.0056927786 -0.07298381 -0.017345121
0002e0 e1 fb 3b bd 04 30 c4 3d 6c 66 83 3c f4 76 c8 3d
       -0.045894507 0.09579471 0.01604005 0.097883135
0002f0 1c e6 e0 bc e6 fa 08 3d 7c 20 e3 3c 96 ff 78 bc
       -0.027453475 0.0334424 0.02772545 -0.015197655
000300 3a 8f 23 bc 34 ec 17 bd de d0 7a 3d 5b 0b 7c bb
       -0.009982878 -0.037090495 0.061234348 -0.0038458917
000310 4e 2c bf bd 9c 21 3e bd 6b 3f 2f 3a d9 0e 0b bd
       -0.09334622 -0.04641877 0.000668517 -0.033949707
000320 84 65 82 bc ea 09 10 bc 78 8e 22 bd 35 65 9a 3d
       -0.015917547 -0.008791426 -0.03968665 0.07538835
000330 51 e6 1c bd bc 90 a6 bc 3b 2e 83 3d f8 46 a8 3d
       -0.038305584 -0.020332687 0.06405302 0.08216661
000340 1a dc 05 3c a4 e4 c8 3c 2d 43 37 3d 05 5e cc bd
       0.008170152 0.024523087 0.0447418 -0.0997887
000350 15 f5 93 3d 18 ad 20 bd cd 6c 1e 3d d9 2f 0b bd
       0.0722448 -0.039227575 0.03867798 -0.033981178
000360 ae ee 89 3c 96 9f 74 bd e0 1e 89 bd 2c 89 f2 3a
       0.016837444 -0.059722506 -0.06695342 0.0018504015
000370 7c c0 20 3d 44 ef 75 bc ff 6d df bc 9e ed 8a 3c
       0.039246067 -0.015010659 -0.02727413 0.016959008
000380 aa 4e 64 bd f0 41 d2 bb 39 64 80 bc 27 64 9d 3d
       -0.055739082 -0.006416552 -0.01567279 0.07685118
000390 00 a4 c6 3d 4f d5 a5 bd b7 de ad bc 75 b8 4e 3d
       0.09699249 -0.08097326 -0.021224363 0.05046888
0003a0 3a f5 f9 3a b3 bb a9 3d bd 81 eb bc f4 72 09 3d
       0.0019070276 0.08287754 -0.028748387 0.033556893
0003b0 d1 e4 ac bd c4 82 57 bd 2d c3 6d 3c a1 37 9c bd
       -0.08442081 -0.052614942 0.014511866 -0.07627798
0003c0 84 cf b8 bd 8a b8 97 bd de 81 03 3c 2b 64 41 3d
       -0.090239555 -0.07408245 0.008026568 0.04721467
0003d0 86 5c 62 bd 60 dc 95 bd 43 c2 69 bb b1 b3 1d 3d
       -0.05526402 -0.07317424 -0.0035668768 0.038501445
0003e0 90 19 4d 3d b2 3d d6 bb 5b ae 9a 3c 79 b2 2f 3d
       0.050073206 -0.0065381164 0.018881967 0.042894814
0003f0 a0 61 8b 3d e4 29 59 bd 0b 16 1e 3d d9 6c 88 bc
       0.0680573 -0.053018466 0.03859524 -0.016653465

layers.3.bias f4 [256]
000000 3b 17 32 3d b8 37 93 bc 23 f6 d6 bc e1 4a 8c bd
       0.043479186 -0.017970905 -0.026240414 -0.068502195
000010 7a cf b3 3b d2 67 0f 3e 11 72 0e 3e aa cf 0e 3d
       0.0054873796 0.14004448 0.139107 0.034866013
000020 3e e5 7d 3c e7 b2 89 bd fe 98 a0 bd ca 77 04 3b
       0.01549655 -0.06723576 -0.07841681 0.0020213001
000030 ab 97 ff 3d 33 03 93 3d e4 ad 99 bd 54 de ee 3d
       0.124801 0.071783446 -0.0750387 0.116634995
000040 76 ce c4 bc b9 cd 50 3d 4e 67 76 3d 3d 80 57 bd
       -0.02402423 0.050977442 0.060157113 -0.052612532
000050 b3 f9 b3 bd 75 71 94 3d 38 0a f7 3d 24 88 90 3c
       -0.08787861 0.07248203 0.12062496 0.017643042
000060 b5 d2 df 3d 0c 67 c3 3d 8e 36 34 3d a2 5e c5 3c
       0.10928861 0.09541139 0.04399734 0.024092976
000070 bd 5c e1 3c 4f de 22 3e a8 e9 9e bd 73 c0 ab 3d
       0.027510041 0.15905116 -0.0775941 0.08386316
000080 f0 6d 38 3e 25 80 2b 3c 83 a5 92 3d b7 c7 0d 3e
       0.18010688 0.010467564 0.07160475 0.13845716
000090 89 4d 83 3d 61 af 16 bb 24 01 22 3e ed 10 ce 3d
       0.06411273 -0.0022992718 0.15820748 0.10061822
0000a0 df 79 18 bc df 0b ea 3c 90 80 83 3b 8f bc a5 3c
       -0.0093064 0.028570114 0.0040131286 0.020231513
0000b0 26 af 7a 3d bc 57 a2 3d b7 6f 5a bd 82 a4 d1 3d
       0.06120219 0.0792689 -0.053329196 0.102364555
0000c0 38 25 aa 3d 5f cb a0 bc a9 88 09 bc b6 24 ee bc
       0.0830788 -0.019628225 -0.008394399 -0.02907024
0000d0 19 8a 50 3d 93 e2 02 3e 45 3d ec 3d 56 70 b8 bd
       0.05091295 0.12781744 0.11535124 -0.090058014
0000e0 0b ee 69 bd c1 55 05 3e aa 9a 59 bd 77 2e 58 bd
       -0.05711178 0.13020994 -0.053126015 -0.052778687
0000f0 bc 26 93 3c 0d 68 00 bc 52 d0 a1 bd 78 63 7d bb
       0.017962806 -0.007837308 -0.07901062 -0.0038664024
000100 3f 00 f2 3d 2e 4b 1f bb 98 9e bf bd f1 59 b6 3c
       0.11816453 -0.0024306285 -0.09356421 0.022259684
000110 64 07 4f 3d f8 f5 95 bc a0 a6 94 3d ae 75 c1 3d
       0.050544158 -0.018305764 0.07258344 0.09446274
000120 47 86 c1 bd 4a 1c 3f 3e 4a 9e 33 3c 68 9f d7 3d
       -0.094494395 0.18663135 0.010963032 0.10528451
000130 18 fb 72 3c e4 73 9e bd e4 41 8d 3d 2b 3d 88 3c
       0.014830373 -0.07736948 0.06897333 0.01663073
000140 bc 03 e0 bc 62 4b e8 bb ef 95 cd 3d be 18 1a 3b
       -0.02734553 -0.0070890645 0.10038363 0.0023513283
000150 81 c4 a0 bd bd 95 5e bd ab e5 33 bc 40 c4 09 3e
       -0.0784998 -0.05434202 -0.01098005 0.1345377
000160 18 1d cc 3d 7b 8b 8e 3c 53 d0 78 bd 2c 31 b4 3c
       0.09966487 0.017400494 -0.06074555 0.021996103
000170 5f fb 75 bd 0b a8 3f bc ec c2 8a 3d 95 93 8b 3d
       -0.06005418 -0.011697779 0.0677546 0.068152584
000180 e7 0d 58 3d 28 4a e3 3d 76 00 47 3a 7f 99 16 3e
       0.052747633 0.110981286 0.0007591316 0.14706992
000190 b0 74 a6 3d cb cf 3e 3c e7 33 0a 3e 13 cd 29 3e
       0.08127725 0.011646221 0.13496362 0.16582136
0001a0 eb cf 0d bd fc 84 5a 3d d8 2b 8e bc 11 95 a2 3d
       -0.034622114 0.05334948 -0.01735489 0.079385884
0001b0 c0 5a f5 3d d4 ab 71 3d 10 0f 83 bd 7d e8 91 bd
       0.119802 0.05900176 -0.06399357 -0.07124422
0001c0 7b f9 4d 3d 1c e6 bc 3c e7 91 68 bd 6f 65 7f bb
       0.05028675 0.023058943 -0.05677977 -0.0038970371
0001d0 ba 8c 94 bd 8a e6 17 3d 6e 55 e7 bd 9f c9 b4 bc
       -0.07253404 0.037085094 -0.11295591 -0.022068797
0001e0 9f 5e 83 3d 29 a1 b8 3c 2d 53 91 bc f6 49 0a 3d
       0.06414532 0.022537785 -0.017739857 0.03376194
0001f0 3f fd 80 3d ea 34 70 bd 7f 56 3a 3b a7 b8 d4 3b
       0.06298303 -0.058644213 0.0028432903 0.006491739
000200 df ed 6d 3d 6d fc b0 bd d1 3d b6 ba 98 b2 06 3d
       0.05808818 -0.086418964 -0.0013903921 0.032885164
000210 35 d3 5a bb 4b 2f 0a bc 34 aa b9 bc 7f 3b 3d 3e
       -0.003339005 -0.008434127 -0.022664167 0.18479727
000220 e6 b9 5c 3d 27 5f b2 3c 1a a0 a4 3d c6 51 92 bb
       0.053888224 0.021773888 0.080383494 -0.0044653146
000230 09 1c a1 3d e3 8f 99 3b c9 d2 e2 bc 0f 88 b7 bc
       0.078666754 0.004686342 -0.0276884 -0.022403745
000240 fc 23 ae 3d ad 40 3c 3c c2 c1 91 3d 00 e0 67 bd
       0.08502957 0.011490029 0.071170345 -0.056610107
000250 38 35 6c bd 6c 11 23 3e 00 b4 19 bd 96 75 a8 bd
       -0.05766794 0.15924615 -0.037525177 -0.08225553
000260 9f 04 a8 3d 82 10 90 3d 64 3d 0d 3d e5 24 b2 3d
       0.082040064 0.070343986 0.034482375 0.08698443
000270 6a 6a 80 bd 21 31 b6 3d 30 27 1e bc 62 77 9f bc
       -0.06270297 0.08896089 -0.009652898 -0.019466106
000280 44 78 15 3e 63 16 71 bd 0e 6e ec 3d 6e bc c9 bc
       0.14596659 -0.05885924 0.11544429 -0.024625983
000290 c1 15 3e bd 8d 4c a0 bd b3 40 02 3d 1c 42 14 3e
       -0.046407465 -0.07827101 0.031799983 0.14478344
0002a0 b8 7e 62 3c 0f b9 48 3d 75 1f 6a bc 4b fc b2 bc
       0.013824157 0.04900461 -0.0142897265 -0.021848818
0002b0 f8 85 5f 3d f2 ec 18 3d ba 7d 62 3d 3f 4b 40 bd
       0.054571122 0.037335344 0.055295683 -0.04694676
0002c0 75 16 05 bd 43 d1 5d 3d 9a 6e 4a 3d 46 aa 5a bc
       -0.03249212 0.054154646 0.049421884 -0.01334626
0002d0 49 47 57 3c 0c 53 66 bd fe a2 61 3d 39 f9 14 3d
       0.013139554 -0.056231543 0.055087082 0.03637049
0002e0 e5 fb 83 3c a8 c9 50 bd 0a 96 67 bd 2d c2 c4 3c
       0.016111324 -0.050973564 -0.056539573 0.024018371
0002f0 37 dd 00 bd e3 9b 3c 3d c0 5a 0c 3e 9e fd 76 3c
       -0.031460967 0.046047103 0.13706493 0.0150751155
000300 05 c0 83 bd 1b d0 61 3d f1 8d 85 bc c1 bb e8 3d
       -0.06433109 0.055130105 -0.016303034 0.11363936
000310 c4 51 85 3d f9 3c 63 3c 6b e0 44 bd 54 2a 05 3d
       0.06509736 0.0138695175 -0.048065584 0.03251107
000320 2d 8a 9a 3d a4 99 2a 3e 62 cb 03 3e 57 94 74 3c
       0.07545886 0.16660172 0.12870553 0.014927945
000330 d1 00 98 bd f5 1e 6d bd 8e e4 82 bd 64 5f ae bd
       -0.07422031 -0.05789085 -0.063912496 -0.08514288
000340 cf 41 76 3d fa d6 a9 3c e0 70 43 3e db 61 b1 bc
       0.060121354 0.020732392 0.19086027 -0.021653106
000350 a1 7e 05 3e 8e e4 88 bb 6d 26 05 3e 70 8d ba 3a
       0.13036586 -0.0041776365 0.1300294 0.0014232825
000360 72 d1 7b 3d 2e 82 a1 3c 93 8b 5b bc c0 5b e2 ba
       0.06147904 0.019715395 -0.013399976 -0.0017269775
000370 29 21 60 bb 8a 2f ec 3c 38 46 32 bd ae f5 03 3e
       -0.0034199452 0.028831262 -0.043523997 0.12886688
000380 e1 6c 83 bd dc 90 89 3d 16 67 ac 3d 16 7e 9d bc
       -0.064172514 0.06717083 0.084180996 -0.019225162
000390 0b 89 2f bd 1e 70 d6 3c 88 60 be 3d cb be 16 3e
       -0.042855304 0.026176509 0.092957556 0.14721219
0003a0 40 05 d3 ba 49 ac 03 3d ae 6f 64 3d 81 0c 8d 3d
       -0.0016099587 0.032146726 0.05577057 0.068871506
0003b0 f9 ed 1a 3d 18 b3 97 3d 02 1b c8 3d 29 bd 9d 3d
       0.037824605 0.07407206 0.09770776 0.07702095
0003c0 89 64 59 3d 75 c3 0f bd 18 af b2 3c 97 50 c4 3d
       0.053074393 -0.03509851 0.021812007 0.09585684
0003d0 20 dd 96 bd e7 b8 6e 3d 89 69 f9 3b 0f e3 a8 bd
       -0.07366395 0.058281805 0.0076114577 -0.08246433
0003e0 ff c0 5c bd 0b a4 1a bd e8 01 2e 3e 07 11 2e 3d
       -0.053894993 -0.0377541 0.16992915 0.042496707
0003f0 ea c3 ed 3d 13 ff 04 bd 12 04 91 bd 52 0e 88 3d
       0.11609633 -0.03246982 -0.070808545 0.066433564

layers.6.weight f4 [256, 256]
000000 0f 92 93 bc d5 3f 7f 3d 44 44 4b 3d 57 a1 b1 3c
       -0.018013982 0.062316734 0.04962565 0.021683378
000010 f0 2a 17 bc f9 fb 67 bd 40 31 ea 3c d0 cb 43 3d
       -0.009226546 -0.056636784 0.028587937 0.047801793
000020 d4 87 09 bd a2 fc 39 bd e4 e4 b8 3b b5 19 5b 3c
       -0.0335768 -0.045406945 0.0056425203 0.013372828
000030 18 fd 2a 3d 34 03 03 3d f1 21 cf bc ca 56 52 bd
       0.041745275 0.031985477 -0.02528474 -0.0513523
000040 52 9b 43 bc 0a 7b 14 3d f3 e6 23 bd 21 fd 85 bb
       -0.011938887 0.03625015 -0.040015172 -0.004089013
000050 53 87 3e bd 93 27 20 bd 41 80 56 3d d0 fb 7d 3d
       -0.046515774 -0.03910024 0.052368406 0.062007725
000060 2a dc 29 3b 30 b3 22 3d 94 0e 51 bc c4 d4 4c 3d
       0.0025918582 0.039721668 -0.012759823 0.050007597
000070 37 31 39 bd 3c 76 e1 3a aa 18 41 3d a6 26 57 bd
       -0.04521295 0.0017201374 0.047142662 -0.052527092
000080 d4 b7 90 bc d4 8d 2d 3d 3d 93 63 3c 74 c0 70 bd
       -0.017665781 0.042371586 0.013890085 -0.058777288
000090 b0 49 dd bb f4 aa cb 3c 6d a7 e7 bc 17 cf a9 bc
       -0.006753169 0.02486179 -0.028278077 -0.020728631
0000a0 ba 77 53 3d 06 ac f2 3c fc c7 20 3c fe 0a b5 bb
       0.051627852 0.029623043 0.009813305 -0.005524992
0000b0 db 33 30 bd ca 4d 2d 3c 42 ad d5 bc 75 0d 01 bd
       -0.043018203 0.010577628 -0.026083592 -0.031506974
0000c0 1f a6 13 bd d9 51 cb bc 4d 3e 48 bd e0 cf df 3c
       -0.036047097 -0.024819301 -0.04888754 0.027320802
0000d0 32 87 98 3c 40 75 e9 bc 55 38 05 bc 0d f4 e3 bb
       0.018619154 -0.028498292 -0.008131106 -0.0069565834
0000e0 8a ec 4b 3d b0 f1 b0 3b 08 61 7a bd bb 6b f5 bc
       0.049786128 0.005399905 -0.061127692 -0.029958596
0000f0 62 2f e1 3c e0 28 89 3c 8a 91 e8 bc 62 9d 7b 3d
       0.027488414 0.016743124 -0.028389711 0.06142939
000100 8e d2 e1 bc 43 20 73 bc 11 00 73 3b 39 ff 81 3c
       -0.02756622 -0.014839235 0.0037078897 0.01586877
000110 60 20 d3 bc fa db 21 3c 03 b1 ac bc c8 92 57 bc
       -0.025772274 0.009879107 -0.0210805 -0.013157554
000120 a7 2b 0e bd ca 86 45 bd be ee db bc 42 83 4a 3d
       -0.0347096 -0.048224248 -0.02684724 0.049441583
000130 34 08 38 3d df 06 a5 bc 13 0e 78 3d 35 41 03 bd
       0.044929698 -0.020144878 0.060560297 -0.03204461
000140 00 8c 8e 3c 46 8c 2f bd c9 7f 1b 3d dd 0d 3e 3d
       0.017400742 -0.042858385 0.037963662 0.04639994
000150 31 cd ae 3c a4 a5 32 3d ae 4c e0 3c 9b c2 11 bd
       0.021338077 0.043615 0.027380314 -0.03558598
000160 df 57 29 3d b4 bc e8 3c eb 52 9e bc 59 c6 0c 3c
       0.041343566 0.028410293 -0.019326648 0.008592212
000170 87 a2 36 3c d2 dd e3 3c 23 c0 a8 bc 8e 4e 8a 3c
       0.011147148 0.027815733 -0.02059943 0.01688316
000180 3e f9 58 3d d6 dd 35 bd 79 ba 62 3d 4a fe 49 bd
       0.05297207 -0.044401012 0.055353615 -0.049314775
000190 95 65 2f 3c fb e6 42 3d 25 e6 1c bc 7e f0 68 3d
       0.010705371 0.04758356 -0.009576355 0.056869976
0001a0 3c 8f 1a bd aa 3b 3b bd a6 3c 2e bc 65 f7 7f 3b
       -0.037734255 -0.045711197 -0.010634577 0.003905737
0001b0 dd fb 59 bd 35 03 51 3d f8 00 d1 3c 9a d2 6a bd
       -0.05321871 0.05102845 0.025513157 -0.05732975
0001c0 0d eb b6 bb 07 5d 14 bd 23 40 16 bc b2 89 64 bd
       -0.0055822195 -0.03622153 -0.009170565 -0.05579538
0001d0 8a 5d 6c bd cc 90 ff bc 39 98 1f 3d 74 3b ef bc
       -0.057706393 -0.031196974 0.03896353 -0.029203154
0001e0 e1 0e 6f 3c b9 f3 22 bd 46 71 25 bd 69 bb 2b bd
       0.01459095 -0.039783213 -0.04039123 -0.041926775
0001f0 fa 85 7f bd cd cc 2c 3c ce ec 0e bd 2d c4 ae ba
       -0.06238363 0.010546875 -0.034893803 -0.0013333611
000200 c6 cd 94 bc e1 7f 4d bd 0c 8b bd 3c ec d9 44 3d
       -0.018164527 -0.050170783 0.023137592 0.04805939
000210 76 0e ea 3c c3 7f 6d bd b9 01 32 bc 7d ca 49 bd
       0.028571349 -0.05798317 -0.0108646685 -0.049265373
000220 55 9f db bc 35 56 48 3d e0 b1 39 bc 5b 27 61 3d
       -0.026809374 0.04891034 -0.011333913 0.054969173
000230 97 87 e9 3c e7 71 bd bb d3 fc 53 3d 46 75 6a bb
       0.028507037 -0.0057814005 0.051754784 -0.0035775467
000240 32 29 2f bd 73 4d 25 3d 12 33 19 3d d8 88 93 bc
       -0.042763896 0.040357064 0.03740222 -0.018009588
000250 6c 69 61 3c 63 3a 58 3d cd 84 0f 3d 2e 91 1e 3c
       0.013758045 0.052790057 0.035038758 0.009678168
000260 2a 1d bc bc 09 14 25 3d 9e b2 e6 bc 00 ff 95 bc
       -0.022963125 0.04030231 -0.028161343 -0.01831007
000270 6f ea 08 bc 11 59 55 bc d2 29 73 bc a6 55 31 bd
       -0.008356675 -0.013021723 -0.014841514 -0.04329457
000280 48 f5 dc 3c 87 29 3d 3d 6a 6b 29 bd e8 89 7f bd
       0.026972428 0.04618218 -0.041362204 -0.062387377
000290 f6 33 6c 3d 39 1b 05 3d 9c f2 42 bc e8 35 b5 bc
       0.05766674 0.032496665 -0.011898663 -0.022120431
0002a0 59 79 d2 bb dc 42 45 bd 55 63 f1 3c 2d 96 13 bd
       -0.006423157 -0.048159465 0.02946631 -0.03603189
0002b0 de 28 21 3d 10 97 61 bd 71 0d 1c 3a 4d 22 6c 3d
       0.039345615 -0.055075705 0.00059529307 0.0576499
0002c0 2b de 3d bd c7 c9 65 bd 33 c2 0a bd ec 44 ee 39
       -0.046354454 -0.056100633 -0.03387661 0.00045446248
0002d0 5b 5e 1e bb ab eb 19 3d cc dc 46 bb c6 b5 91 ba
       -0.0024165127 0.037578266 -0.0030344008 -0.0011116795
0002e0 8e 95 84 bc 68 34 15 bd 87 2c 5d bc 3c 80 8c bb
       -0.016184594 -0.03642693 -0.013499386 -0.0042877477
0002f0 2c 9a 85 bb b7 66 a2 bc 1d ed 31 3c e4 fe 55 bd
       -0.0040772166 -0.019824369 0.010859755 -0.052245036
000300 c2 60 b8 3c f8 44 3b 3d f9 75 59 3d 4c 2f 1d 3d
       0.022507075 0.04572007 0.053091023 0.038375184
000310 37 d8 50 bd 8f 0b 6a 3d dc fb 7a bd c9 fe 03 3d
       -0.05098745 0.05713993 -0.061275348 0.032225404
000320 0a 90 a5 bc f1 37 ac bc 48 d2 4b 3d 50 61 68 bd
       -0.020210285 -0.021022769 0.049761087 -0.05673343
000330 3e 2f 05 3d 7d c5 0c bd 55 56 27 bd dd f3 ab 3c
       0.032515757 -0.034368027 -0.040853817 0.020990307
000340 d8 ed 24 bd e5 30 2a bd 24 46 5c 3d a3 a8 03 bd
       -0.040265888 -0.041550536 0.05377783 -0.032143246
000350 84 93 67 bd 3e 79 ba 3c b6 95 fd 3c 00 e2 9c 3c
       -0.056537166 0.02276289 0.030955177 0.019150734
000360 64 50 bd 3c f9 00 5c bd ce 8f 04 3d 78 a5 1a 3d
       0.023109622 -0.053711865 0.032363705 0.03775546
000370 79 7f 74 bd a8 c1 41 3c 71 22 2c 3d 00 eb 23 bd
       -0.05969188 0.011825956 0.042025033 -0.040019035
000380 5b 85 49 bd 76 9a 15 3c 80 47 7f bd a2 b6 43 3d
       -0.049199443 0.009131065 -0.062324047 0.047781594
000390 db 2b 6a 3c 2e 39 0f 3d 16 be 45 3d 59 5d cf 3c
       0.0142926825 0.03496664 0.048276983 0.025313066
0003a0 81 af 37 bd df 1d de bc 41 fc 18 3d 3d 80 63 bc
       -0.044845108 -0.027113853 0.037349943 -0.013885555
0003b0 b7 1b 2d 3d 35 13 59 bd a1 a6 36 bd 8c 18 96 bc
       0.04226276 -0.052996833 -0.044592503 -0.018322252
0003c0 f8 45 0f 3d bd e7 af 3c 1e 82 bb bc a0 37 c0 bc
       0.034978837 0.021472806 -0.022889193 -0.023464024
0003d0 e6 de 6f 3d 40 63 ce bc 5e 56 04 3d 0a 0b c4 bc
       0.058562182 -0.02519381 0.03230893 -0.023931045
0003e0 36 f7 33 3d eb 1a 31 3d 19 72 4b bd da 1d 0d bd
       0.04393693 0.04323856 -0.04966936 -0.034452297
0003f0 03 cc f0 bb 31 71 90 3c 69 a0 a2 bc 69 21 88 bc
       -0.007348539 0.017632099 -0.01985188 -0.016617494

layers.6.bias f4 [256]
000000 70 10 00 3c da 01 07 3d db 2d 7b bc ee ae a3 3d
       0.007816419 0.03296075 -0.015330757 0.079923496
000010 a0 27 76 3d 84 f1 58 bd 0f 74 0d 3e f3 43 f9 3d
       0.060096383 -0.052964702 0.13813804 0.121711634
000020 81 bf a8 3d b6 ec 3a bd 2f 27 66 bd 39 ba 06 bc
       0.082396515 -0.0456359 -0.056189712 -0.00822311
000030 6c 49 18 3e 5a b5 0e 3e d9 37 98 3c a3 25 ba b8
       0.14871758 0.13936368 0.018581318 -8.8761815e-05
000040 cd 55 fe 3c f4 74 69 3c 7d c4 ef bc aa fe 36 bd
       0.031046772 0.014249075 -0.029268498 -0.04467646
000050 8a 92 24 3d 9c 77 25 3d 1a 34 e7 3b 11 e0 b2 bc
       0.040178813 0.04039727 0.0070557715 -0.021835359
000060 6a 6b 2e 3e 86 9f 15 bd 11 58 ec 38 1f 22 f1 3b
       0.17033163 -0.036529087 0.000112697606 0.007358804
000070 55 b8 19 3e 5d 40 30 bd 92 02 3b bb cf d4 5e bd
       0.15011723 -0.04303013 -0.0028535468 -0.05440217
000080 b3 04 e5 3c b8 57 64 bc 39 10 66 bc eb 52 d8 3c
       0.027956342 -0.013936929 -0.014041954 0.026406726
000090 6f 35 7f bd 03 99 1f bc d8 5a 37 bc 93 29 4b 3e
       -0.062306818 -0.009741071 -0.011191092 0.19840078
0000a0 31 9b 57 bd c2 c5 10 3d af be 5b bc 3e b5 11 3c
       -0.052638236 0.035344847 -0.013412162 0.008893309
0000b0 69 59 c3 bc 37 81 81 bd cb 77 59 bd 13 ba 01 3e
       -0.023846345 -0.06323474 -0.05309276 0.12668638
0000c0 76 7d 30 3e 7e e4 b5 3d 4a e0 a1 3d 96 d1 63 3b
       0.1723536 0.08881472 0.07904108 0.0034762374
0000d0 5a 1e 02 38 4c 23 01 bd d5 29 b2 bc 90 0b 5b 3d
       3.1022682e-05 -0.031527802 -0.021748463 0.053477824
0000e0 54 bc 1f 3b e2 df ce 3d d3 78 23 3c 5a a2 d8 bc
       0.0024373727 0.10101296 0.009977537 -0.026444603
0000f0 4e b4 03 3d 8b 4b 40 bd 08 ec 6d bd 9d 84 74 3c
       0.032154374 -0.046947043 -0.058086425 0.014924196
000100 29 73 c4 3d 3d 3d ce 3b be 33 1b bd 64 8b b0 3b
       0.095922776 0.0062939213 -0.037891142 0.0053877104
000110 53 68 4c bd 33 52 fb bc 03 6a 35 3e 27 4a b6 bc
       -0.04990418 -0.030678844 0.17716222 -0.022252155
000120 f8 e6 04 bd 39 ac 0f bd 13 2f 28 3d e4 3e 67 3c
       -0.03244683 -0.035076354 0.04106052 0.014114115
000130 f2 b7 3c bd bc da 12 3c bb 82 e4 bb 08 c6 df 3c
       -0.04607386 0.008963283 -0.006973592 0.027316108
000140 2f 8c 67 3d 0c 14 b3 bb e5 23 be 3c ec eb 12 bd
       0.056530174 -0.0054650363 0.023210475 -0.035869524
000150 86 33 42 bd 88 7b 29 bd 82 77 ca 3c d2 d5 8a 3d
       -0.047412418 -0.041377574 0.024715189 0.06779064
000160 b3 dc fc 3d 91 07 b3 3c 86 0e fb 3c bf 06 47 bd
       0.123467825 0.021854194 0.030646574 -0.048590418
000170 43 62 78 bd 9f ff 96 bc 3e 3a 0d 3e ec 86 22 3e
       -0.060640585 -0.018432437 0.13791749 0.15871781
000180 a9 b6 59 bd 9a 1f 1a 3c 3b 56 92 bc d2 69 d0 bc
       -0.053152714 0.009406948 -0.017863384 -0.025441084
000190 fb b2 c4 3d 7d 2b 7e 3c 76 af 30 bd 4d 9b d2 3d
       0.0960445 0.015513298 -0.043136083 0.102835275
0001a0 cb d0 67 bd 52 dd 05 bd 89 37 2e 3d 1e 76 c5 bc
       -0.056595605 -0.03268177 0.04253343 -0.024104174
0001b0 13 f0 24 bd 32 96 ef bb df eb a2 3c 52 e8 20 bd
       -0.040268015 -0.007311606 0.019887863 -0.039284058
0001c0 f9 3d e2 3d 54 a7 9f 3c 2e b7 38 3e 2b 10 b2 3d
       0.110469766 0.019488968 0.18038628 0.0869449
0001d0 5b ca 06 3e 80 1b 84 bc d2 ad 8d 3d 69 e2 38 3d
       0.1316313 -0.016126394 0.06917919 0.045137797
0001e0 37 ea 0c bc 76 0c 62 3d 69 4a 45 3e 5a 8e e1 3d
       -0.008600763 0.055187665 0.19266666 0.110134795
0001f0 43 dd 9e 3d a3 2f 3e bd 0a 2f 09 3d 26 75 74 bd
       0.07757046 -0.04643215 0.033492126 -0.059682034
000200 17 8c 91 3c dc 46 ec bc f5 92 44 bd ef c2 22 bd
       0.017766995 -0.028842382 -0.04799171 -0.039736684
000210 88 f2 46 3e 38 2f 35 bc 58 e5 f6 3c 3a 90 35 bd
       0.19428456 -0.011058621 0.030138656 -0.044327
000220 aa a5 38 3d 6a 24 13 3e f2 b8 23 bb 08 67 c9 bb
       0.045079865 0.1436936 -0.0024982062 -0.0061463155
000230 34 32 b7 3d 06 67 cc 3a 26 fd 17 3d 0f ff bb 3a
       0.08945122 0.0015594668 0.037106656 0.0014342981
000240 05 de 27 3e 58 d7 83 3b a9 48 8e 3c bb 9e ab 3d
       0.16393287 0.0040234737 0.017368631 0.08379885
000250 56 fc ab 3a 24 2c cc 3d f7 a8 8b 3d 37 cc 36 bc
       0.0013121467 0.09969357 0.06819337 -0.011157087
000260 a7 ca cd 3d bf 0b 2d bd f9 0c c7 3d cd 2c 07 bd
       0.100484185 -0.04224753 0.09719271 -0.03300171
000270 7e d9 01 b9 44 64 09 3d fc d8 52 bc b0 d2 7a bd
       -0.00012383421 0.033542886 -0.012869116 -0.061236084
000280 ff b8 0e 3d ae 96 84 bc 12 55 ac 3c a5 83 31 3d
       0.034844395 -0.01618513 0.021036658 0.043338437
000290 4d ab a7 3d 3a b2 9a 3d b7 dd 98 3c cc a0 af bc
       0.0818697 0.07553525 0.01866041 -0.021438979
0002a0 3a c5 ae 3d 77 d5 8d 3c ed 4d 20 3c 2a 66 0a 3e
       0.08533712 0.017313702 0.009784204 0.13515535
0002b0 e9 74 0e bd 48 73 68 bc 9a 1a ca 3d 4e 50 13 3d
       -0.034779463 -0.014187641 0.09868355 0.035965256
0002c0 02 5d 07 3e 91 59 08 3d e9 77 3e 3d 10 ea f4 3d
       0.13219073 0.033288542 0.046501074 0.119587064
0002d0 81 6c 09 3e 98 99 01 bd ff 63 2a bd 18 52 ec bc
       0.13420297 -0.03164062 -0.04159927 -0.02884774
0002e0 7b 11 b7 3d 11 b8 08 3d 39 f4 3e 3d 89 f7 12 3d
       0.08938881 0.033378664 0.046619628 0.0358806
0002f0 ca f3 0a 3d c4 02 b1 bc 98 50 3d 3c ed 84 3e 3d
       0.0339239 -0.021607764 0.01155486 0.046513487
000300 e7 42 f2 3c f7 e2 df bc 8c 4f 17 bd a3 16 73 bd
       0.029572917 -0.027329905 -0.036941096 -0.05934776
000310 1c de 42 3c f8 46 72 3c 91 36 0d 3c 30 1f a0 bc
       0.011893775 0.014787428 0.008618967 -0.019546121
000320 f1 b9 5a bd f5 f8 d2 3c 94 cb 2f 3e 5f 4e 01 3d
       -0.053399984 0.025753478 0.17167503 0.03156888
000330 e1 c5 b4 3d c2 2d 50 3d 56 30 59 bd 0a 2f 70 3d
       0.08826805 0.050824888 -0.053024612 0.05863861
000340 6a 27 d6 3d 45 e2 23 bd b7 06 a4 bc 1d d9 27 bd
       0.104567364 -0.04001071 -0.020022733 -0.04097854
000350 ff 59 d8 bc 9e 80 26 bd 83 3b 4a 3d 17 59 ac 3b
       -0.026410101 -0.040650003 0.04937316 0.005259644
000360 a8 70 60 3d 46 a8 e6 3c db df 55 bd 65 37 dc 3d
       0.054794937 0.02815641 -0.05221544 0.10752753
000370 ba f6 ef bc 3b ba 0f 3d af 85 13 3d 71 1a 78 bc
       -0.029292453 0.035089713 0.036016162 -0.015143023
000380 57 e6 1e 3d 0a 8a e5 bb 47 79 e7 3d 4a d9 8b 3c
       0.038793888 -0.007004981 0.11302429 0.017071385
000390 43 41 a7 bc 0c 67 80 bd a7 50 f8 3c 75 0f 78 bd
       -0.020416861 -0.06269655 0.030311896 -0.060561616
0003a0 d0 ed d9 3c c1 31 3d 3e 36 c6 d1 3b c2 44 1c 3d
       0.026602656 0.18476011 0.0064018024 0.03815151
0003b0 c8 f2 5a bc df 0a e8 3c 89 88 b9 3c 2f 01 2a 3c
       -0.013363548 0.028325496 0.022648113 0.010376259
0003c0 db bb c8 3b 8e 6b 31 3e 71 81 7a 3d 82 e7 f7 3c
       0.0061259097 0.17326185 0.0611586 0.030261759
0003d0 44 6b cc 3c 76 c9 49 bd 53 96 a8 3d f2 50 6e bd
       0.024953492 -0.049264394 0.08231797 -0.058182664
0003e0 ea 95 a4 3d 02 da c0 bc 18 d0 37 3d 5f 39 0f 3e
       0.08036406 -0.023541454 0.044876188 0.13986729
0003f0 34 c4 8e bd 2d ce 68 3c b4 e1 90 3d 14 36 44 bc
       -0.069710165 0.014209312 0.070742995 -0.011975784

layers.9.weight f4 [480, 256]
000000 f0 65 04 bd 23 e7 27 3d 17 22 c5 bc 2c d5 3c bd
       -0.032323778 0.040991914 -0.024064107 -0.046101734
000010 39 ad 1b bd 23 c4 8e bc 85 68 a0 3c 4e fe b4 bd
       -0.038006995 -0.01742751 0.019581089 -0.08837567
000020 b7 f9 d3 3c bd 92 14 bd c7 6a 81 3c b0 82 0d 3c
       0.02587591 -0.036272753 0.015797986 0.008637115
000030 4a 0e 4a 3c 7e ed e2 bc 84 c3 9a 3b 4a f6 30 3d
       0.012332508 -0.027701136 0.0047230143 0.04320363
000040 96 50 74 bd 1d 66 57 bc 05 5d 23 3c 68 66 81 3d
       -0.059647165 -0.013146904 0.009970908 0.063183606
000050 9c 69 28 bc 56 c5 43 3c 1d cb 19 bc 24 11 20 3d
       -0.0102790855 0.011948904 -0.009386805 0.039078847
000060 bf 69 98 bc 58 41 5e bd 41 a8 c3 3c db 69 1b bd
       -0.018605111 -0.054261535 0.02388394 -0.03794275
000070 d1 e9 7f bd 56 bc f3 bc 6f 7a 79 3d 44 cc 00 bc
       -0.062478844 -0.029752892 0.060907777 -0.007861201
000080 90 c6 23 bd 04 b3 08 3d f8 e6 9c 3c 8f 9b 22 3d
       -0.039984286 0.033373848 0.019153103 0.039699133
000090 72 5f 62 3d c4 8e 99 3c 55 a1 a6 bc f2 c0 e9 bc
       0.055266805 0.018744834 -0.020340601 -0.028534386
0000a0 c5 c4 53 3d 31 5d fb bc 47 eb 75 3c 86 02 7f bd
       0.051701326 -0.030684086 0.015009708 -0.062258266
0000b0 42 cf 59 3b f4 06 65 3c b1 7d 63 bd e6 e4 f5 bc
       0.0033235108 0.013978709 -0.05553979 -0.030016374
0000c0 a9 e2 70 bd 1e 02 2e 3d 67 ff b4 3c 3a d4 9e 3a
       -0.05880991 0.042482488 0.022094442 0.0012117692
0000d0 9a 27 d5 bc 89 b6 e3 3c 06 8f 4c 3c 4b 23 7a bc
       -0.02601986 0.027797 0.012485271 -0.015267204
0000e0 ab 4f f3 bc a2 25 8a bd e7 21 38 3d c5 13 73 3d
       -0.029701075 -0.06745459 0.044954207 0.059345026
0000f0 d2 d4 0b 3c cd 4f d1 3c 11 c0 37 bd 3b 2b 3d bc
       0.008534627 0.025550747 -0.044860903 -0.0115459515
000100 28 20 85 bd 8e 7a 35 3d c9 34 e5 3c 25 29 fc 3c
       -0.06500274 0.04430633 0.027979271 0.030781338
000110 56 b0 77 3d 9e 34 2c bd 83 e8 1c bb 55 26 59 bd
       0.0604709 -0.042042367 -0.0023942299 -0.053015072
000120 3f 5e 32 3d fe 12 45 3d 8c 03 f2 bc 44 a9 83 bd
       0.04354691 0.048113815 -0.029542707 -0.06428769
000130 62 61 91 bc d3 92 62 bd 4c 8c 5e bd 83 b6 c2 bc
       -0.017746631 -0.055315804 -0.054333016 -0.023768669
000140 d2 16 b9 3c 09 51 2e 3d 96 07 5d 3d 1e 4e 5e 3d
       0.02259389 0.04255775 0.053962313 0.054273717
000150 d9 62 b0 bc 6d 25 a5 b9 ce cd 3a bd 74 7c 2b bd
       -0.02153151 -0.00031499137 -0.045606427 -0.041866735
000160 59 c3 d1 3c 4c 45 9a bd dc 2e 47 3c 25 73 75 bd
       0.025605844 -0.075327486 0.012157168 -0.059924264
000170 0c dd 34 bd ad 87 8a 3d d9 e4 3d 3b 94 f2 72 3c
       -0.04415612 0.06764159 0.0028975515 0.014828343
000180 71 af 21 3d ea fc 06 3d 2a ef 7c 3d 02 70 3d 3d
       0.039473955 0.03295604 0.061751522 0.046249397
000190 5b 04 12 bd 2a 89 1f bd 21 0b 0c bd 22 76 ff bc
       -0.035648685 -0.03894917 -0.0341903 -0.03118426
0001a0 b7 89 fa 3c 77 cc ee bb 71 f7 bd 3c 6a 48 0a 3d
       0.030583246 -0.0072875577 0.023189278 0.033760466
0001b0 f7 78 b6 3c a0 96 09 ba f5 a8 01 3d ed 08 56 bd
       0.022274477 -0.000524858 0.03165527 -0.052254606
0001c0 86 33 d4 3c f5 13 b6 bc f7 1f a2 bd a9 08 27 bd
       0.025903475 -0.022226313 -0.07916253 -0.040779743
0001d0 d0 38 d9 bc 4f 27 28 bd 5b f2 aa bc e0 53 40 bd
       -0.026516348 -0.041053113 -0.020867517 -0.04695499
0001e0 ab 45 fe bc 02 6b 38 3d de 21 16 bd 47 6c 23 bd
       -0.03103908 0.045023926 -0.036653392 -0.039898183
0001f0 73 c6 5a 3d c4 6e 1d bd 8d 20 7d bd 61 13 89 3c
       0.053411912 -0.038435712 -0.06179862 0.016732873
000200 1c 38 07 bd 3b 16 f3 bc 42 f5 11 3d c2 58 77 3d
       -0.033012494 -0.029673686 0.035634287 0.06038738
000210 50 41 e0 39 b1 ff 02 bd 74 aa 93 bc 8d 23 15 3c
       0.0004277327 -0.031982128 -0.018025614 0.009102714
000220 d1 1e bf 3c 96 06 4e bd 54 c1 1a bd 37 ce 16 3d
       0.023330124 -0.05029925 -0.03778203 0.036817756
000230 a0 35 54 bd ac e6 3b bd ad 4a c6 bb 8a 9d 1e 3d
       -0.051808953 -0.045874283 -0.0060513825 0.03872446
000240 57 66 d6 3a 5b 29 00 3d 7e 72 68 bd cd b4 f2 bb
       0.0016357404 0.03128944 -0.056749813 -0.007406807
000250 f1 d8 63 3d 81 d9 15 bd 1c a7 d8 3b b5 7e 32 bc
       0.055626813 -0.03658438 0.006611718 -0.010894467
000260 33 3c c9 bc ea 13 65 3a 10 43 a4 bd f5 00 60 bd
       -0.024564838 0.0008738624 -0.08020604 -0.054688413
000270 45 72 57 bd 3b d5 38 bb c7 7c d4 3a 02 b2 40 bc
       -0.05259921 -0.0028203267 0.0016211503 -0.01176119
000280 05 b1 25 3d 2b f2 6c bd 1f bb 46 bd 8b 71 0c 3d
       0.040452022 -0.057848137 -0.048518296 0.03428797
000290 43 03 50 bd e0 db 06 bd 94 21 26 bd af 4f 19 3d
       -0.05078436 -0.032924533 -0.040559366 0.037429508
0002a0 02 9c 88 3d c4 d0 ad bc b1 64 06 3d be 15 33 3c
       0.06670381 -0.021217711 0.03281087 0.010930477
0002b0 cd 17 17 bd 5b da 82 3c b1 ee e8 bc 6d ad f0 3a
       -0.036887933 0.01597326 -0.02843413 0.0018362232
0002c0 9e 85 a5 bd 3a ff 9b bd 1c 53 97 bc 06 8a a5 bd
       -0.08082126 -0.0761704 -0.018472247 -0.080829665
0002d0 58 4d 73 bd 1b d0 0b 3d bd b7 b1 3c 61 c0 d6 39
       -0.059399933 0.03413401 0.021694059 0.00040960594
0002e0 bf b9 16 bc d5 33 30 bd 1a 6f ff bb ca 8d b9 bb
       -0.009199559 -0.04301818 -0.0077952268 -0.0056626545
0002f0 c1 b8 78 bd 0c 3e 94 3c c2 21 c3 3c 72 80 9a 3c
       -0.06072307 0.018095993 0.023819808 0.018860076
000300 8b 8e 2b 3d 8f 53 50 bc de 88 5a 3d b5 b1 66 3d
       0.041883986 -0.012715234 0.053353183 0.05632182
000310 34 ab 7a bc d1 c1 51 3d 31 93 2e 3b e6 9b dc 3c
       -0.015299607 0.05121023 0.0026638026 0.026929807
000320 c3 cb c7 bc cf 12 70 bc 50 b3 6e bd 33 ba 7d 3d
       -0.024389153 -0.014652922 -0.058276474 0.06194515
000330 2a 13 52 3a 97 73 1c bc a0 f8 2e 3d 8d 26 86 bd
       0.000801372 -0.009549043 0.042717576 -0.06550322
000340 98 1f a9 ba df c2 77 3b 42 40 45 3d 8c 7d d1 bc
       -0.0012903092 0.0037805361 0.048156984 -0.02557256
000350 f2 9e 38 3b c8 db cc 3c 12 7e 9a bc ba 0d 74 3c
       0.002817091 0.025007144 -0.018858943 0.014895851
000360 0d e6 5f bc 8d ac 16 3d 4e e8 93 3c 2d b8 6f 3b
       -0.013665688 0.03678565 0.018055107 0.0036578283
000370 2d 1b 8f bc be 98 0f bd 5a c2 96 3a 95 d5 53 bd
       -0.017469013 -0.035057776 0.0011502013 -0.05171736
000380 2f 31 66 3b 4f c0 96 3b c9 09 9b 3c ed 6e f7 3c
       0.003512453 0.0046005617 0.018925564 0.03020426
000390 2b 18 88 bc b8 be 56 3d 6c 41 11 bd b0 48 18 3d
       -0.016613087 0.052427977 -0.03546278 0.037178695
0003a0 26 1f e6 bc 77 26 20 bc ec 36 dc bc ce 03 1b bb
       -0.028091025 -0.009774796 -0.026881658 -0.002365339
0003b0 35 18 c2 bc 06 ea 82 39 ac 89 ce 3c e4 50 0a bd
       -0.023693183 0.00024969893 0.025212131 -0.03376855
0003c0 96 ba 91 ba bd ad a2 3c 39 71 66 3c bd 44 0c 3d
       -0.0011118229 0.019858235 0.01406508 0.03424524
0003d0 ee e9 e2 3c bc f8 88 3d 89 e6 ae bc b1 b3 96 bc
       0.027699437 0.06688067 -0.021350162 -0.01839623
0003e0 e6 20 a9 bc f2 c8 d3 bc 0e 1d cb 3c bf da 06 bd
       -0.02064557 -0.025852654 0.024794128 -0.032923456
0003f0 22 8d d1 3c 49 e7 46 3d dc 97 e9 3c fe 8f 55 3d
       0.025579993 0.048560414 0.028514795 0.052139275
